federated-linkutil/final_backbone.pt (torch, 780265 bytes, 6 tensors)

backbone.0.weight f4 [256, 244]
00000000: 38b3 87bd b9a7 0b3d a46f 063d 94a3 243d
00000010: 2770 af3c 969b 4cbd c141 8fbc db51 31bd
00000020: 5c08 ca3c 4eb6 163d 9c3d 773c f71b 72bd
00000030: b1ad 33bb a98d c93c a857 3b3c a1e9 12bd
00000040: 2e42 75bd 4f46 02bd 0a95 cf3c dcae 253d
00000050: b1ab 73bd 609a 173d 974b 1fbc f3b5 b23c
00000060: 1771 3cbd f8a5 3dbd 15bb 573d a9ad 52bd
00000070: b099 3f3d 8173 f73c 4037 cd3b 8fa5 bb3c
00000080: 114b 8ebc 3764 453d a09f f93c df10 2c3d
00000090: 77f4 24bd 5531 66bd 445a 633c 0468 703d
000000a0: 85bc 19bd d427 53bd 692e 59bc f2d2 f13c
000000b0: e8f1 543d 9266 a03c 8133 6f3d 7d99 243c
000000c0: 03aa 183d d15d 1b3c 9852 1f3d 03da 9c3c
000000d0: 490a 93bc de0e 4c3d 9cbd 083c f6d3 8ebc
000000e0: 3632 dbbc b429 0e3d ceaa 5f3c 58cb 88bc
000000f0: d643 9abb 17fe 643d db49 633d e12a 3ebc
00000100: 1849 b2bb 8c3e 94bc 6df9 78bd 2c96 67bd
00000110: b6b8 65bd 84f8 373d b229 8fb9 63b5 f23c
00000120: 3ead 753d c69a f9bc a875 053d f7a7 373d
00000130: 6f3e 79bd b83f 5b3c 3193 aabc ff26 2b3d
00000140: 0e80 46bd a5c4 c93c 006b 053c 229b 8f3c
00000150: 50e2 113d f208 61bd 550e 81bc 4970 7b3d
00000160: ea3a 57bd ef14 a23c 17a3 853d e713 e4bc
00000170: 6686 7c3d 1e18 0f3d e454 90bb a8c2 2e3c
00000180: f87b 0038 0dc7 043d 94d4 31bd fd1e e8bc
00000190: 037b 11bd d159 223d b9ef 02bd c717 0fbd
000001a0: 7092 8abc 525b a23c 88b8 73bd 58a4 11bc
000001b0: 1edd 1dbd 6620 2d3c c930 b83c 929b 563d
000001c0: 6837 813d 5fda 20bd 66b5 7d3d 67a4 05bd
000001d0: 08fd 823d b9fe 1cbd cf27 2c3d c655 12bd
000001e0: bd38 fa3c d5fd df3c ea62 6e3c f2d6 9a3b
000001f0: 732f 73bc fa37 5cbc 6e6d bcbb eb6f 35bd
00000200: a018 67bb 2686 8bbd 9489 873c 9ace 6bbd
00000210: 56dd 83bd 2c19 4ebd cbb2 b43c f92e 0f3d
00000220: 5e0d 7abd fdad 72bd 6472 78bd d347 423d
00000230: d5ae 0fbd a6db 83bd 148a 85bd fa79 463d
00000240: b677 9dbc d5c2 7abd acfd 22b9 9d5e 40bd
00000250: 71b7 863c d0d9 703d d626 29bd f5de 183c
00000260: 0aba 023d 9183 5d3d da06 183d 9f74 82bb
00000270: 43bd 7ebc 39a5 c73c 8581 413d 9738 223d
00000280: 83a4 5fbd a19d 1f3d c840 fbba 1cfc 7c3c
00000290: 2663 413c b04d 353b c080 f23c 761a 4e3d
000002a0: 2d1b 6ebd 5b7f 9f3c 68af 3fbd 07c5 f0bc
000002b0: c4e3 f73a aa7e 5ebc 3386 32bd 24c3 113d
000002c0: cc5d db3b 2b42 71bd 285b 8ebc cc0d 5cbd
000002d0: 873f c9bc 38b0 0fbd a71c 0d3d 39c4 5bbc
000002e0: ab38 62bd baa5 6bbc 85e1 c5bc 7285 563d
000002f0: e5e3 f7bc e23c 39bd b0da 1a3c 8f35 a03c
00000300: 0657 27bd a150 3b3d 3fe2 69bd 592d 033d
00000310: 7b8b 6c3d ea40 4f3b 09e6 76bd 64b4 c2bc
00000320: ea9a 87bc 8463 c9bc b368 40bd ec7b 8ebc
00000330: 5790 e8bc 0299 60bb eea9 813b 4f88 7bbd
00000340: 075a f53c c462 463d 5835 503d 76a4 d43c
00000350: e80a 06bc fef1 393d 6814 563d b09b 82ba
00000360: ea36 e23c 75a9 303d e605 6c3d 9ea1 9bbb
00000370: 9d2d 17bd 3db6 f0bb f597 04bd 7a82 7a3d
00000380: b678 e73c 92fc 7dbc fc0a cebc d09a d03c
00000390: 5499 513b ee1a 5e3d af10 523c 0870 9f3c
000003a0: d2b2 d83b d5d7 c83b 103f ecbb 2103 20bd
000003b0: 8fdc 8c3d da17 65bd 8099 2ebd b20d b3bc
000003c0: 5092 01bd a282 1d3d aa46 e93c e90e 2f3d
000003d0: 0e9a 6abd d779 9a3c 5ba8 1e3d df23 513d
000003e0: cf68 8fbd 62ff 45bd 8d66 423c 9175 2e3d
000003f0: 7a36 d23c 4474 e83c f9e4 58bd cd0a 3abd
-0.0662598 0.0340955 0.032821313 0.040195063 0.021415783 -0.049953066 -0.017487409 -0.043290954
0.02466219 0.036794953 0.015090372 -0.0591087 -0.002741676 0.024603682 0.011434473 -0.035867337
-0.059877567 -0.031805333 0.025339622 0.040449962 -0.05948991 0.037012458 -0.009722612 0.021815276
-0.04600629 -0.04630086 0.05266865 -0.051435146 0.046777427 0.030206444 0.00626269 0.022906093
-0.017369779 0.048191275 0.030471623 0.042008277 -0.040272202 -0.05619939 0.0138765015 0.058692947
-0.0375333 -0.051551655 -0.013255694 0.029519532 0.051988512 0.01958016 0.058398727 0.01004636
0.03727151 0.009482817 0.038897127 0.019146925 -0.01794924 0.049818866 0.008345988 -0.017435055
-0.02675734 0.03470774 0.013651563 -0.016698524 -0.0047077937 0.05590638 0.055490356 -0.011606903
-0.0054408424 -0.01809623 -0.060784746 -0.0565397 -0.056084357 0.044914737 -0.0002730615 0.029627508
0.05997967 -0.03046931 0.03258291 0.044837918 -0.060850557 0.013381891 -0.02082214 0.041785236
-0.048461966 0.0246299 0.008143187 0.017530028 0.03561622 -0.05494017 -0.015753904 0.06138638
-0.05254642 0.019785373 0.065252475 -0.027841521 0.06165161 0.03493511 -0.004404651 0.010666527
3.0633033e-05 0.032416392 -0.04341562 -0.028335089 -0.035517704 0.039636437 -0.0319669 -0.034934785
-0.01691553 0.019818936 -0.059502155 -0.00888928 -0.038540952 0.010566806 0.0224842 0.052394457
0.06309396 -0.039270755 0.061940573 -0.03262749 0.06395918 -0.03832886 0.042030152 -0.03572633
0.030544633 0.027342716 0.01454995 0.0047253305 -0.014842856 -0.01344108 -0.0057503497 -0.044296186
-0.003526248 -0.06812696 0.016545095 -0.057570077 -0.06438701 -0.050316975 0.022057911 0.034956906
-0.061047904 -0.05924796 -0.060655966 0.04743178 -0.035078842 -0.06438379 -0.06520477 0.04845617
-0.019222122 -0.061220963 -0.00015544024 -0.04696523 0.016444894 0.058801472 -0.041296802 0.009330501
0.031915702 0.05408055 0.03711591 -0.0039811875 -0.015548053 0.024370776 0.04724266 0.03960475
-0.05460025 0.038968686 -0.0019169087 0.015440967 0.011803424 0.0027664714 0.029602408 0.050318204
-0.058131386 0.019469908 -0.04679814 -0.029390825 0.0018912484 -0.013580004 -0.043585014 0.03558649
0.006694531 -0.058900993 -0.017377451 -0.053724095 -0.024566425 -0.035080165 0.034451153 -0.013413482
-0.055229824 -0.014382774 -0.024155388 0.052373357 -0.030260036 -0.045224078 0.009451553 0.019556789
-0.040854476 0.04573119 -0.05710053 0.03202567 0.057750206 0.0031624385 -0.060277972 -0.023767658
-0.016553361 -0.024583586 -0.04697485 -0.017393075 -0.02838914 -0.0034270887 0.003957025 -0.06140929
0.029950155 0.048434034 0.050832123 0.025957327 -0.008181311 0.045396797 0.052265555 -0.0009964611
0.027614076 0.043130357 0.057622813 -0.004749491 -0.036908735 -0.0073459432 -0.03237148 0.06115959
0.028255802 -0.015502112 -0.025151722 0.025464445 0.003198226 0.0542249 0.0128213605 0.0194626
0.006613114 0.006129245 -0.007209666 -0.039065484 0.06878006 -0.05593095 -0.042626858 -0.021857116
-0.031633675 0.03845466 0.028476078 0.04273883 -0.057275824 0.018856926 0.038734775 0.0510596
-0.070024125 -0.048339255 0.01186527 0.04259259 0.025660742 0.028375752 -0.05295274 -0.045420457

backbone.0.bias f4 [256]
00000000: f064 5fbd 0e26 4dbb 98d9 18bd 9136 253d
00000010: 400d 48bd 3c90 833c ac5e 3cbd 7d6f 6a3d
00000020: 5331 773d 92d2 433d d357 173d 905c 003d
00000030: ae5d 88bb 2a07 da3c 87e2 45bc be7c 4c3c
00000040: 3135 7139 f8c2 253d ac67 72bc 8aef 55bd
00000050: 4035 d8bc c8dc 80bd 7bf0 16bd d527 173d
00000060: 9415 6dbc 336d 53bd 0af5 663c 46e6 02bd
00000070: 8c0c 7d3d a32e 27bd 6b27 81bd 6682 ae3c
00000080: 9949 e73c ad1d b6bc 6e13 0b3d 4cc3 d7bc
00000090: 2eee b6bc ba0e 3f3d c65f 443d 7704 4bbd
000000a0: 85bc 32bd 39d1 2c3d 517f 843c 14f5 853c
000000b0: f0a8 46bd 8e19 8b3c c13a f4bc 35fa 403d
000000c0: 9183 4b3c 4085 dbbd 40ee 19bd f6c7 653d
000000d0: 781f b2bd 20c8 6abd d24e 09bd 5a5c e33c
000000e0: 159a 2abc cbb8 dfbc 6dc4 e2bc 6013 2abc
000000f0: 95b0 54bd 55af 383d f26a a2bd 496a b8bc
00000100: 279c 2bbd 8f03 5bbd 5e71 5fbb 161d 773d
00000110: a901 8fbb cf1a 66bd 5b80 8ebc e437 553d
00000120: 40e0 b4bc 4ecd 20bd 7231 0bbd 6b00 c83c
00000130: 0c36 7cbd 2c07 193d 1840 33bd 6da6 99bc
00000140: bc1e b73c 4cde d9bc bbdc 8abd 8c5b 643d
00000150: 4871 ad3c b617 5bbd 504a 6fbd c2c0 143d
00000160: e530 863b 33d6 613d 5c19 6d3d 5733 f63c
00000170: 27b7 ecbc f0c3 7ebd a0ae 613d 02d3 80bd
00000180: 72da f03c 34b5 973c 4dd8 4ebd 03fe 94bc
00000190: 1040 7cbd 3c7c a2bd 35cb 0cbc 9e26 23bd
000001a0: ba77 32bd 6297 20bd 7249 08bc 24e8 c03b
000001b0: 6092 fabb 9fb5 1fbc 71dd 583d 7519 04bd
000001c0: ff02 4f3d 861a d0bb 07a2 abbd 43dc 4c3d
000001d0: c0ef 87bd fd98 533d 16af 58bd 9fb8 a93b
000001e0: 7eb7 ffbc 3e56 51bc 3139 5cbc 5b8a 6cbd
000001f0: b301 ae3c 7cbc 33bd 731a 2e3d 5a3d 0b3c
00000200: 3204 23bc 138e 27bd 51f3 a93c b593 94bd
00000210: 0c6d 9b3c db35 2dbd 8274 423d dc87 0b3d
00000220: af11 82bd 58f2 a6bd 7801 473d 801b 20bc
00000230: d0d0 c83c 6e1e acba 33d7 d23c db98 cdbc
00000240: e154 a23c 1350 59bd 6456 6a3b 42c9 6b3d
00000250: cbb0 fa3b 51b1 c93c 29c7 1f3d ecfe 833c
00000260: 8d05 11bc 477d 01bd 1899 3a3d 647a 48bd
00000270: bbd4 903b 4792 ccbd 8261 e8bc 319e 3ebb
00000280: bb12 92bb 5ab1 9dbd 3bfe 4f3c 224b 233d
00000290: 18c1 4a3d 6832 873b 4a5f 7fbc 691b f13c
000002a0: 9037 67bd 4ebe ec3a 42b3 a039 cb0f 82bd
000002b0: 61b2 933c 0f7b 23bd 13fd b9bc d64c 783d
000002c0: 3af1 c3bd 963f 03bd 522d 8ebb a106 42bd
000002d0: 52ae b0bd 09a4 d9bc 1e0b 2fbc b2b7 5cbd
000002e0: 554b 4cbc 745f 4e3d bfb0 acbc 4553 f1bc
000002f0: ca4c c1bc afff 8cbc da92 93bb efbe 82bd
00000300: 3d2c a33c ae60 203d 9a0e 3a3d 8bd5 763d
00000310: dc23 c6bd 1349 13bd 7f29 553d 1d1c f3bc
00000320: 2585 7abd 7840 013d e6bf 7d3d b887 70bd
00000330: e56b e1bc 738d 253d fb3c 95bd 77f7 2cbd
00000340: 1bce 3dbc 0a42 b53c 40b9 efb8 6389 7fbd
00000350: 84c1 b9bd c65f d03c f310 373c 88a3 663d
00000360: 9f8c 1e3d 7055 173d 7703 753d d952 573d
00000370: 9e2a ea3c 9ee0 ef3c a571 b43c c95e cb3c
00000380: 30e3 4dbd b244 703c fee8 e4bb 347f 00bd
00000390: 3063 d33c 871f 15bd 451a 223c 74f2 983c
000003a0: 3cd6 bfbc 86aa 6f3c a54a febb f73c 3fbd
000003b0: 0116 133c ba80 80bc 1e2d 6a3c a6f1 d6bd
000003c0: 5b58 67bd 3abf e33c 7352 1ebb 6ea4 b93a
000003d0: 71df 103c bc62 db3c ab43 babb 8b78 56bd
000003e0: cca5 a33c e14e f6ba 767f 81bd 24f7 8a3c
000003f0: 5841 29bd a56e 83bd f9ef 3a3d 7130 013b
-0.05453962 -0.00313032 -0.03731689 0.04033524 -0.04884076 0.016059987 -0.045988724 0.05723523
0.060349774 0.047808237 0.03694899 0.031338274 -0.004161558 0.026614744 -0.012077934 0.012480913
0.00023003366 0.04046914 -0.014795225 -0.052230395 -0.02639258 -0.06292111 -0.036850434 0.03690322
-0.014470477 -0.051617812 0.014096508 -0.031957887 0.061779544 -0.04081596 -0.063063465 0.021302413
0.028233336 -0.022230947 0.033954076 -0.026338242 -0.02233037 0.046644904 0.0479429 -0.049564805
-0.043636817 0.042191718 0.01617399 0.016352214 -0.048500955 0.016979959 -0.029813172 0.047113616
0.012421505 -0.10718775 -0.03758073 0.0560989 -0.086974084 -0.05731976 -0.033522435 0.027753998
-0.010412713 -0.027309796 -0.027681554 -0.010380596 -0.051926214 0.045089085 -0.079305544 -0.022511618
-0.041896965 -0.05347019 -0.0034094672 0.060330473 -0.0043642116 -0.05617791 -0.017395189 0.052055255
-0.022079587 -0.039258294 -0.0339827 0.024414262 -0.06157498 0.037360355 -0.043762296 -0.018756116
0.022353522 -0.026595257 -0.06780382 0.05575137 0.02117218 -0.05348941 -0.05842048 0.03631664
0.004095184 0.055135917 0.057885513 0.030053778 -0.028895928 -0.06219858 0.055098176 -0.062902465
0.029401038 0.018519022 -0.05049925 -0.018187528 -0.061584532 -0.07933852 -0.00859337 -0.03983175
-0.04357121 -0.03920687 -0.008318292 0.0058870483 -0.007646844 -0.009747892 0.052945558 -0.03225084
0.050539967 -0.006350818 -0.08380514 0.050014745 -0.066375256 0.051659573 -0.05290135 0.0051794793
-0.031215426 -0.012776909 -0.01344137 -0.057749134 0.021241045 -0.043880925 0.042505693 0.008498514
-0.009949731 -0.040906977 0.020745905 -0.072547354 0.018972896 -0.04228769 0.04747439 0.034065112
-0.06351029 -0.08151692 0.048585385 -0.0097721815 0.024513632 -0.0013131627 0.02573738 -0.025097301
0.019815864 -0.05305488 0.003575706 0.05756498 0.00765047 0.024620684 0.039008293 0.016112767
-0.008851421 -0.031613614 0.045556158 -0.048944846 0.0044198907 -0.09988838 -0.028366808 -0.0029085989
-0.0044577993 -0.07699843 0.012694891 0.039866574 0.049500555 0.004125882 -0.0155866835 0.029432015
-0.056449473 0.0018062086 0.00030651136 -0.063506685 0.018029394 -0.03991228 -0.022703683 0.06062015
-0.09567495 -0.032043062 -0.0043388987 -0.047369603 -0.08626999 -0.026567476 -0.010683803 -0.053886123
-0.012469132 0.050384 -0.021080373 -0.029458651 -0.023596186 -0.017211763 -0.00450359 -0.06384074
0.019918555 0.0391547 0.04542408 0.060262244 -0.096748084 -0.03595836 0.052041527 -0.029676491
-0.061162133 0.031555623 0.061950587 -0.05872318 -0.027517268 0.0404181 -0.07287022 -0.04222819
-0.011584784 0.022126216 -0.000114309136 -0.06238688 -0.09070113 0.025436293 0.011173475 0.0563083
0.038708325 0.036946714 0.059817757 0.052569244 0.028584775 0.02928191 0.022026846 0.02482547
-0.05026549 0.014664816 -0.0069857826 -0.03137131 0.025804132 -0.03640702 0.009893958 0.018670298
-0.023417585 0.014628058 -0.007760363 -0.046689 0.008977414 -0.015686382 0.014292983 -0.104953095
-0.056480747 0.027801145 -0.002415803 0.0014163384 0.008842335 0.026780479 -0.005684336 -0.052361052
0.019976519 -0.0018791818 -0.06323139 0.016963549 -0.041322082 -0.06417588 0.045639012 0.0019712711

backbone.3.weight f4 [256, 256]
00000000: 711f 1b3d 4c1f eabc 62c3 413c dcbe aa3c
00000010: 630f 57bb 2e18 cabc 3bd2 493d e2ea e23c
00000020: bb98 a73c 10ca 223c fa67 c23c 8bb5 9fbc
00000030: eb06 563d 5a50 b0bc 34eb 3ab9 0fa2 893c
00000040: ade8 2b3d 55c5 1cbd a445 cf3b a77c 4b3d
00000050: 7765 42bd e2db 98bc 14d2 1a3d 6286 6d3d
00000060: 96d3 2c3d 7d5d 763d a564 023d 48cb 1fbd
00000070: 0d6c cf3c 7f35 f23c 653d 1dbd 56b3 9b3c
00000080: dbe2 863d 0ba4 babb eb29 183b c585 07bd
00000090: e2ae 993d 4793 54bd f6fa efbb 2832 523d
000000a0: 9a20 96bc eeb7 493d 0a58 04bc e745 093d
000000b0: a10e b7bc 493a 64bd c3e9 f33c 0287 f2b9
000000c0: e97c 35bd c4ab 14bd c064 033c ee75 1bbc
000000d0: 2ff9 d8bc 6b17 0cbd a9ac b7bc ede5 c63c
000000e0: 053f a83c 5afd 74bc 95d7 613c 7b48 7cbc
000000f0: e052 8ebb 3ce4 39bd f2fc 023d 9dfc 5c3d
00000100: e098 453b 32f4 e13c 2c07 50bd 6903 743c
00000110: a408 413d 27a3 01bd 2ca4 5f3d 079c d23c
00000120: b6ee 2d3d d884 1e3c 0b1a a6bc f987 213d
00000130: 4707 f4bc 8a54 efbc 4d5e 7bba 5c7d 97bc
00000140: 6c25 81bc 98ed e43c 9b74 563d 0c7f b4bc
00000150: f60a 673c 11d9 233d 6349 7c3d b664 253d
00000160: ba3e 1fbd 3695 543d 57e1 5e3d 799e 813d
00000170: c89e 723d a567 8f3d 51d1 74bd 6282 32bd
00000180: b546 903d 0a95 63bd 14c6 623d b894 f23c
00000190: 6cff b7bb b996 893d efaa 473d 602e d4bc
000001a0: 9669 8dbc 1990 18bd 9192 eabb edf1 c53b
000001b0: 2d25 1dbd 8f59 05bc 14c8 423d 0dff efbc
000001c0: 6f49 8f3d 2554 0b3c b6b9 e33c 56ef 8a3d
000001d0: 74b0 d0bc 75bd 10bd b176 1cbc 8b70 7e3d
000001e0: e9f6 27bd 4039 3d3d 696e 333d dfab 563d
000001f0: d76e efbb e216 43bc 465b a1bb 969d 6fbd
00000200: aa30 0dbc 4d49 653c 5a17 28bd e5f2 1b3d
00000210: 34c4 2bbd 2f2f ccbc 5493 6cbc 1989 543d
00000220: 8671 513d 427a 473d aeca 8fbb 33cf 4cbc
00000230: 4ae5 b13b 2417 7a3d e108 65bd 05cf 71bb
00000240: 2dbb 5c3d 3c3b 59bd 2df1 893c 66cd 26bd
00000250: cf31 803c 29ea 82bc 04cb 5a3d 8a65 0c3d
00000260: eeae 703d e0f0 423c 8141 3d3b fdbe 5bbd
00000270: d6a6 1cbd addd 803d 0cd8 573d ec9e 0abd
00000280: 21d0 18bd ba74 143b d0e6 9bbb 97ff b73c
00000290: 7ec9 833b 9216 42bc a10c ecbc 6749 1c3d
000002a0: 6a70 2cbd 5199 90bb faa7 ddbc 2233 e13c
000002b0: f41c 09bc 086f 5cbc ddac 2bbd fccd aabc
000002c0: 3e52 c2bc ff96 0fbd 7490 5b3d 98cd 033d
000002d0: 9c26 a53c 863b b73b 16ea 2d3d 909b 4d3b
000002e0: 65e2 1ebd e71e 8a3d 88ea cabc 31ff 35bd
000002f0: 7eff e3bc 974b 15bd ca89 03bd 7a55 03bd
00000300: 682a a3bc 7209 0b3b 8be2 423d 6557 353d
00000310: 51b9 833d 4b4e 903d 2170 4ebd 2774 b6bc
00000320: ca68 833d 8520 883c 0aec ee3c e8d5 52bd
00000330: 48fd 33bd 4d60 613d a5c1 39bd 40af a13a
00000340: 5f55 c8bc ba2f 2dbb e38e 743d d6b6 7d3d
00000350: 7f53 a13c d429 7fbc f7da d03c 7aa9 4cbd
00000360: daa5 c53c 236e 16bd 93c7 33bd e086 e13c
00000370: 11d5 613b e4f2 8d3c 1d44 4cbb 8b15 b9bc
00000380: 5e1e 60bd 9f7c f9bc 33cb 1c3d 4050 12bd
00000390: c874 343c 4ecc 44bd 44c6 053c b8fd a93c
000003a0: 2903 493c c0b4 fabc be42 f3ba 2eb0 713d
000003b0: 66f3 383d 617f f4bc cec6 a6bc 26ed 6e3d
000003c0: 0c1d bbbc f052 c7bc 5fe3 43bd c383 ffbc
000003d0: a076 b9bc 037f 5bbc f961 813c 1643 923d
000003e0: f998 0fbd e56b 1cbd a604 68bc 2bf0 833c
000003f0: b29c be3c 31c6 563c e995 893c a477 1c3d
0.03787178 -0.028579377 0.011826368 0.020842962 -0.0032815568 -0.024669733 0.049272757 0.027699891
0.02045857 0.009935871 0.02373122 -0.019495746 0.05225269 -0.02152269 -0.00017825962 0.016800908
0.041969944 -0.038274128 0.0063254405 0.049679425 -0.047460046 -0.018659536 0.037798002 0.057989486
0.04219397 0.06014775 0.031834263 -0.039012223 0.025320077 0.029566525 -0.03838863 0.019006412
0.06586238 -0.005695825 0.0023218344 -0.033086557 0.075040594 -0.051898267 -0.007323618 0.051317364
-0.018326093 0.049247675 -0.008077631 0.03351393 -0.022345843 -0.055719648 0.029774552 -0.00046258426
-0.044308577 -0.03629662 0.008019626 -0.009488566 -0.026486007 -0.03420202 -0.022421198 0.024279559
0.020537863 -0.014952982 0.013784309 -0.01539814 -0.0043433756 -0.045383677 0.03197951 0.05395185
0.0030150935 0.027582262 -0.05078809 0.014893391 0.04712738 -0.031649735 0.054599926 0.025709165
0.04246398 0.009675227 -0.02027609 0.039436314 -0.029788626 -0.029215116 -0.0009588942 -0.018492393
-0.015764914 0.027945325 0.052357297 -0.022033237 0.014101734 0.040001933 0.061593425 0.04037925
-0.03887818 0.05190011 0.05441412 0.063290544 0.059233457 0.070021905 -0.059769932 -0.043581374
0.07044736 -0.055562057 0.055364683 0.02961193 -0.0056151655 0.06718201 0.048747 -0.02590102
-0.017262261 -0.037246797 -0.0071585854 0.0060408027 -0.03836553 -0.008139028 0.04755409 -0.029296422
0.06996428 0.008503948 0.027798515 0.06783931 -0.025474764 -0.03533693 -0.009549783 0.062119048
-0.041006956 0.046197176 0.043806467 0.052410003 -0.0073069143 -0.011907311 -0.0049242107 -0.058499895
-0.008617559 0.013994527 -0.041037895 0.03807344 -0.04193516 -0.024924843 -0.014439423 0.05188856
0.051133655 0.04870058 -0.004388175 -0.012500572 0.0054289447 0.061057225 -0.05591667 -0.0036897075
0.053889442 -0.053035006 0.016838634 -0.040723227 0.01564875 -0.015980797 0.053416267 0.034276523
0.058760576 0.011898249 0.0028878155 -0.053648937 -0.038245045 0.06292281 0.052696273 -0.033842966
-0.037307862 0.0022652582 -0.0047577396 0.022460742 0.0040218225 -0.0118462015 -0.028814616 0.03815594
-0.042099394 -0.004412808 -0.027057637 0.027490202 -0.008368719 -0.013454206 -0.041912902 -0.020850174
-0.023720857 -0.03505611 0.053604558 0.03217849 0.020160012 0.0055918125 0.04245957 0.003137324
-0.038790125 0.067441754 -0.024770036 -0.044432823 -0.02783179 -0.03644904 -0.032113828 -0.03206394
-0.019917682 0.0021215347 0.04757933 0.0442728 0.06431831 0.07046183 -0.050399903 -0.022272183
0.06416471 0.016617069 0.029165287 -0.05147353 -0.04394272 0.05502348 -0.04535069 0.0012335554
-0.02445477 -0.0026426152 0.05970658 0.061941944 0.019693134 -0.015573937 0.025495036 -0.049966313
0.024126936 -0.03672613 -0.0438915 0.027530134 0.0034459273 0.017327733 -0.0031168528 -0.02259328
-0.05471646 -0.030454932 0.038279723 -0.035721064 0.011014171 -0.048046403 0.008164946 0.020750865
0.01226882 -0.030603766 -0.001855932 0.05900591 0.045153998 -0.029845895 -0.02035847 0.05833163
-0.022840999 -0.02433154 -0.04782426 -0.031190759 -0.022639573 -0.013396981 0.015793787 0.07141702
-0.035057995 -0.038188834 -0.0141612645 0.016105732 0.023268078 0.013108776 0.016795116 0.038200036

backbone.3.bias f4 [256]
00000000: c5b0 34bd 387b 86bd 3d04 60bd f558 8b3b
00000010: a545 1dbc 3c8e 86bd 1f2c 203c 0a73 f73c
00000020: 3098 9a3c 5d94 14bc 479a 663d 47ec a23c
00000030: a1fa 71bd c4a9 42bd 17f7 8fbd d907 05be
00000040: c5b3 a7bd 16a8 293d 95a8 193d 72f2 753c
00000050: 4ced c1bd 5eb6 ec3b 4de8 b7bd 0ada 4c3d
00000060: 34c3 8bbd b259 b53c 7163 96bc c3a7 42bc
00000070: 36c4 2c3d 6021 6ebd b76e f7bb 6fda 94bd
00000080: 4d71 a3bd 5644 ef3b 265b 91bd d415 db3b
00000090: 0211 893b bf3b 15bc a466 c33c 52aa fbbb
000000a0: f5c4 56bd a971 0fbc df35 47bd ead1 3fbd
000000b0: 03ba 4dbd 5648 75bd 129d e93b aa33 63bd
000000c0: ce67 3c3c 0207 cbbc ace9 30bd d197 c0bb
000000d0: a752 c7bd 32cd 343d f88b 5dbd 7e5e 14bd
000000e0: cc6c 76bc a54a 24bc 1141 d5bd cbdd a6bd
000000f0: 7a04 2ebd a25e 41bd 459e 57bc 9958 43bc
00000100: 87ad 923c 9ac8 85bd 0c5b 053d fa77 54bd
00000110: 0889 d4bc eba8 1cbd 9273 1ebd abe5 c23b
00000120: dbb5 82bd 3bf6 d1bc 9f88 76bd e0b9 96bc
00000130: 798f d83c 3d02 d1bd 542c c6bd 47ff 9dbd
00000140: b571 803d c021 eb39 2c16 b23c b9e7 a0bd
00000150: 40e8 553d cd22 70bd e91d 70bd 75bd 93bd
00000160: 19d1 4b3d ada7 7bbc c33e 0d3d b409 78bc
00000170: df9f 68bd d53b 91bd 1faa cfbd c6e0 1f3d
00000180: 7c6e 10bd 82a5 8fbd d56d 55bd 02ac 18bd
00000190: 6097 dd3b f712 9dbd b427 cabd 4319 e13b
000001a0: 5fe9 f3bb e9a7 33bc 0645 063d 8eeb 64bd
000001b0: 2619 8bbd d0d9 8bbd 5d10 87bd a49a c53c
000001c0: fe1c 993c 3410 ef3b d2ca 75bd 0cd2 cd3b
000001d0: 05dd 7bbd 75b8 95bb 9901 3ebd d853 bcbd
000001e0: 0247 87bd 5828 433d e493 2fbd 57e7 53bd
000001f0: 1c2e aabc 0c0c 7c3c a45e 7bbd 52fd cd3b
00000200: 1036 213d 87d3 35bd 9463 46bc 8ab9 a4bc
00000210: c3ae 253c faf8 2abd 8cf2 dc3b 2cd9 03bd
00000220: 1658 54bd 07ed 46bd ca2c 30bd 7b32 1d3d
00000230: d5b1 79bd 23e6 e63b 8e24 06bd b18f 353c
00000240: 9253 82bc 36d5 61bd 18e7 8b3c 5665 1dbd
00000250: c19e 3a3c ca50 0bbd 2178 22bd 511b a239
00000260: 1dbe 733d 32db 3c3c 8dee 1abd ff6d 963b
00000270: 8e4b b0bc cd70 ef3c 7b17 243d 91f3 48bd
00000280: cfef 3bbd 98fb 793d eb39 e1bd 1d17 98bd
00000290: c65b 843c 4612 38bc 694d 01bc ba6a db3c
000002a0: 6ffb 4ebd c43f 3cbd 64a0 46bd b638 d43c
000002b0: 9c3d 97bd f334 0eba 5f8d 50bd b2ad 883d
000002c0: 029b 62bd 1699 943c 3cf3 3a3d 9b3b 94ba
000002d0: 905a 87bd b071 b43c be61 cb3c 22cb a1bc
000002e0: b94a d0bd a919 a5bc 924f 32bd 89ff 6abd
000002f0: b452 4cbd fb22 703d e941 1b3d c0ab 003d
00000300: 6ef7 49bd a356 7e3d b2e4 92bd 2280 9f3c
00000310: 9660 bcbc c216 813d 20df 663b 8a6d e2bc
00000320: db14 2cbd 045b 62bc f4ee 96bd 8755 9abd
00000330: 6af7 91bc fecf fb3c 8106 9ebd f5aa 55bc
00000340: 6c9a c43c 9489 8c3c f502 ea3c f0ac 60bc
00000350: 9842 733c 4144 d8bc 1a25 343d cedd 303d
00000360: e8cd 37bd 8514 ec3c 8925 e1bb a8bb 28bd
00000370: 7c07 0dbd d66a d6bc 9094 9abb 5421 c1bd
00000380: c02f aabd 0859 5abd b29f d0bd 86cf 68bd
00000390: 9a49 593d 9423 43bd 2944 9ebd 82b2 96bd
000003a0: 0601 733c 8831 01bd dcf9 33bd f899 dc3c
000003b0: 40d5 afbb d1d9 513d e2ec 78bd 036c 443d
000003c0: 47b4 8cbd 0a38 aebd 8d8a b43c bfbd 013d
000003d0: 5413 e03c c03a 853c eab1 4cbc fed0 9e3b
000003e0: 80fe 82bd 5dcd bcbc 92e7 76bd 0e11 253c
000003f0: b041 8ebd 935c 0fbd 8047 003d 3f6e 4fbd
-0.044113893 -0.06566471 -0.054691542 0.004252548 -0.009599124 -0.06570098 0.009776144 0.030206222
0.018871397 -0.009068576 0.056299474 0.019888056 -0.05907691 -0.047525182 -0.070295505 -0.12991275
-0.08188585 0.041420065 0.037514288 0.015011417 -0.09469089 0.0072238883 -0.08979855 0.050012626
-0.068243414 0.022137497 -0.018357964 -0.011880818 0.04217931 -0.058137298 -0.00755104 -0.072682254
-0.07980595 0.0073018475 -0.07097463 0.0066859517 0.0041829357 -0.009108483 0.023852654 -0.007680216
-0.052433927 -0.008755126 -0.04863536 -0.04683105 -0.050226223 -0.059883438 0.00712932 -0.055469193
0.011499358 -0.024783615 -0.043191597 -0.005877473 -0.097325616 0.044141002 -0.054088563 -0.036222927
-0.015040588 -0.010027562 -0.10412801 -0.081477724 -0.042484738 -0.04720939 -0.013160293 -0.011922979
0.01790501 -0.06532402 0.032557532 -0.05187223 -0.025944248 -0.03824703 -0.038684435 0.0059477887
-0.063823424 -0.025630107 -0.060188886 -0.018399179 0.0264356 -0.10205505 -0.09676424 -0.07714706
0.06271688 0.0004484784 0.021739088 -0.078566976 0.052223444 -0.05862694 -0.058622275 -0.072138704
0.049759958 -0.015359801 0.034483682 -0.015139032 -0.05679309 -0.0709149 -0.1013987 0.03903272
-0.035261616 -0.0701399 -0.052106697 -0.037273414 0.00676243 -0.07669633 -0.09870854 0.0068694665
-0.0074435915 -0.010965326 0.03278067 -0.055888705 -0.06791906 -0.06828654 -0.06594918 0.02412159
0.018690582 0.0072956327 -0.060007878 0.006281143 -0.061490078 -0.004569108 -0.046388242 -0.091956794
-0.066053405 0.047645897 -0.04286565 -0.051734295 -0.02077394 0.015383732 -0.061369553 0.0062863017
0.0393582 -0.04439118 -0.012108702 -0.020108003 0.010112467 -0.04174135 0.006742781 -0.032189533
-0.051841818 -0.04856589 -0.043011464 0.03837822 -0.06096061 0.0070464774 -0.032749705 0.011081622
-0.01590899 -0.055134974 0.017077968 -0.03842672 0.011390389 -0.034012593 -0.039665345 0.000309194
0.059507478 0.01152687 -0.037825156 0.0045907493 -0.021520402 0.029228592 0.040061455 -0.049060408
-0.045882996 0.061030954 -0.10997375 -0.074262835 0.016157042 -0.0112348255 -0.007891991 0.02678429
-0.050532755 -0.04595925 -0.048492804 0.025905948 -0.07384798 -0.000542476 -0.050916072 0.06673755
-0.05532361 0.018139403 0.045642123 -0.0011309268 -0.0660907 0.022026867 0.02482688 -0.019750182
-0.10170502 -0.020153837 -0.043532915 -0.057372604 -0.04988356 0.05862711 0.037904654 0.031413794
-0.049308233 0.062094342 -0.071725264 0.019470278 -0.022995275 0.06303169 0.0035228208 -0.027640123
-0.042012077 -0.013815645 -0.073697954 -0.07535844 -0.017818172 0.030738827 -0.07716084 -0.013041248
0.023999415 0.017155446 0.028565863 -0.0137131065 0.01484742 -0.026399733 0.043980695 0.04318028
-0.044874102 0.028818378 -0.0068709296 -0.041194588 -0.034430966 -0.02617399 -0.004717417 -0.09430185
-0.08309889 -0.053307563 -0.101867095 -0.056838535 0.053048708 -0.04764135 -0.07727844 -0.073582664
0.014831787 -0.031541377 -0.043939456 0.026928887 -0.0053659976 0.051233117 -0.060772784 0.04795457
-0.06870323 -0.08506782 0.022038722 0.031675097 0.027352966 0.016263366 -0.01249359 0.004846691
-0.06396198 -0.023047144 -0.060279436 0.010074867 -0.06946123 -0.035000395 0.031318188 -0.05064225

backbone.6.weight f4 [256, 256]
00000000: 00df 333d 0c73 273d a372 63bd 7039 613d
00000010: 36b8 85bc b1bb 393d 2c78 6c3c 3c51 c4bb
00000020: 9e65 af3c 5a36 88bd 95f5 3d3c f3ed b1ba
00000030: e2cc 43bb cbde 483d f591 63bc a4bb 063d
00000040: 60ea 85bd 35f3 2e3d 70d3 643d 390d 583d
00000050: ffb9 593c b889 48bc 685d 6739 c497 26bd
00000060: c1b7 0abd 61e6 68bb e17f 6a3d e9b5 463d
00000070: 37d4 583d d90c cabb 525f ae3a 24b1 73bd
00000080: 0130 81bd 5d6c c33c 90ed 38bd 0bbf 81bd
00000090: b624 16bd f41f 16bc aaf7 3b3d c61e 7dbc
000000a0: f05f c7bb 5525 8bbc 53b5 38bd 1536 583d
000000b0: 5751 153d b8d3 e7bc dde4 18bd 5427 81bc
000000c0: 913a 9e3c b6f4 32bd b9c1 1b3c f98a 58bd
000000d0: ebaf 05bd e442 8cbc 6504 36bd 1582 2fbd
000000e0: b427 23bd 840a 403d 0a13 52bd a13a b3bc
000000f0: b186 52bd d2be e7bb e677 cabc f0dc b2bc
00000100: 00d7 b2bc 3879 333d f701 fa3c 58c2 f4bb
00000110: f061 733d 2de3 8bbd 3543 39bd 66e0 b4bc
00000120: c4da a23b 8505 543d ec58 5f3d c34c 1c3d
00000130: e802 b1bb 6257 333d 9a0e 673c 90ac b7bb
00000140: 7521 6b3d c644 8ebc 0fc4 503d 6bc8 0e3d
00000150: d598 983c fa94 82bc 441b 4b3d e864 b7bc
00000160: 123a c13b 1b57 1abd 9911 273d abce 0e3d
00000170: 5e0b 65bc 9355 bcbc 215b 0ebd d676 e13c
00000180: 0c1e 78bc e462 4e3d afb3 36bd 900c 34bd
00000190: c40c 533d 0420 c13a 7240 46bd 4592 063d
000001a0: 3e3d ccbc badd 79bd 9689 0e3d eba3 90bc
000001b0: 93fb 40bc ed90 fdbc f5b2 74bd 2835 4ebc
000001c0: acfc 0abd 71cd d23c 3e49 35bd 5787 4bbc
000001d0: 8d9c 243c 93be 5f3d 2606 7abd ea7c c9bb
000001e0: 3f05 a73b 813c f1bc 3a89 13bd e54b f7bc
000001f0: e632 d33b c44c e43c 2647 efbc 98aa 38bd
00000200: be5e da3c 286e 05bb e71d 60bc 5a00 f3bc
00000210: 787e cc3b f91b b23c 38da 373d 4085 86bc
00000220: fc41 233d 4fb4 a23c 3dbe 66bd 86ec 5b3d
00000230: 3406 5dbd 0203 e2bc 34e4 d7bb 9cf1 cb3c
00000240: 595d ecbc 109d 5cbd 69e4 19bc 1058 46bd
00000250: 3bb7 2e3c 2503 0abd 7951 7cbd 3274 163d
00000260: 3fbe fc3a 1f5e 3d3d cc42 ecbb 5eea 0b3d
00000270: cda0 513d bac8 babb de00 253d 44b9 e93c
00000280: 65eb 6dbc 0503 313d ff53 953c 2299 16bb
00000290: df3e 693d 2255 133c 560d 82bd 7c23 693d
000002a0: 268c 003d 83ff 853c 43f5 31bc 650b 8b3c
000002b0: 11bc 123d b215 0fba 7541 36bc 2af7 7f3d
000002c0: a11a 903c 8a29 833d 82d3 743d b272 f33c
000002d0: ebd6 70bd 8cf7 78bd 3f26 60bb f581 50bd
000002e0: 617b 083d e9a7 f03b 6317 c8bc e80a 89bc
000002f0: ec59 303d 5cbb 3c3d 1381 a8bc bede f53b
00000300: 3a00 b839 58c0 e0b8 6519 a33c b0ab 1dbd
00000310: 0d45 43bd 143b 8bbc 2e0d 65bd 66d9 debc
00000320: e2f7 e3bc ef82 04bd 2240 08bd 5f22 b8bc
00000330: 2923 47bc 8808 033d 8158 b03c 77fa 8abc
00000340: 0846 27bd 7142 80bd 589d 3bbd 10da 1a3d
00000350: f822 863c 3743 67bd 7cb8 31bb c775 5dbc
00000360: 6455 4f3d 7dd9 41bc dd20 1fbd 1b4c ff3c
00000370: 0d74 cabc 51b1 3d3d df65 94bc 6ba3 e53c
00000380: b5b0 2c3d 5ebf 76bd 71f3 50bd ec4b e4bc
00000390: 3007 493d 8ee0 ba3c 70b9 5fbd 97c6 3abd
000003a0: e68c 1cbd 0235 b9bb ea86 173c ebc6 0cbd
000003b0: 96c1 463b fc06 2e3d 2b41 a63c f46f 56bd
000003c0: c33a 523c c69a 69bc 425b febc 12c8 573c
000003d0: 1aec 4c3c 80cd cebb 9866 65bd 05bf db3b
000003e0: 293d 5dbd a294 acbc 1030 bdbc da60 3b3b
000003f0: fda2 773b 38f9 4abd b91a 0d3d df0e 9bbd
0.04391384 0.0408812 -0.055529248 0.054986417 -0.01632319 0.045345012 0.014432948 -0.005991129
0.02141076 -0.06650992 0.011594196 -0.0013574943 -0.0029876758 0.049040597 -0.013889779 0.03289379
-0.06538844 0.04271241 0.055865705 0.052746985 0.013288974 -0.012239866 0.00022064673 -0.04067208
-0.033866648 -0.0035537707 0.05725086 0.048513327 0.05293676 -0.0061660823 0.0013303554 -0.059495106
-0.06307984 0.023855383 -0.045148432 -0.06335267 -0.036656104 -0.009162892 0.045890488 -0.0154492315
-0.0060844347 -0.016985575 -0.0450948 0.05278595 0.036454525 -0.028299198 -0.037327636 -0.015765823
0.019315036 -0.043690406 0.009506636 -0.05286691 -0.03263847 -0.01712174 -0.044437785 -0.042848665
-0.039832786 0.04688503 -0.05128769 -0.021878542 -0.051397983 -0.007072308 -0.024715375 -0.021833867
-0.021831036 0.043816775 0.030518515 -0.0074694566 0.059419572 -0.0683044 -0.04523011 -0.022079658
0.0049699266 0.051763076 0.054528162 0.038159143 -0.005401958 0.043784507 0.014102602 -0.005605288
0.057404954 -0.017366778 0.050968226 0.034859102 0.018627563 -0.015940178 0.04958655 -0.022386983
0.005896815 -0.037680726 0.040788267 0.034865063 -0.013979761 -0.022990024 -0.034754876 0.027522486
-0.0151438825 0.05038728 -0.044604953 -0.043957293 0.051525846 0.0014734273 -0.048401304 0.032854337
-0.024931546 -0.06100247 0.03479918 -0.017656287 -0.01177873 -0.030952895 -0.05974098 -0.012585916
-0.033932373 0.025732728 -0.044259302 -0.012422404 0.01004709 0.054625105 -0.06104102 -0.006148924
0.005097061 -0.029447796 -0.03601954 -0.030187557 0.0064452766 0.027868636 -0.02920873 -0.045084566
0.026656505 -0.0020359848 -0.013679004 -0.029663254 0.006240662 0.021741854 0.044885844 -0.01642096
0.03985785 0.019861368 -0.05633377 0.053692363 -0.053960994 -0.027589325 -0.006588483 0.024895482
-0.028853105 -0.053860724 -0.009392836 -0.048423827 0.010663803 -0.033694405 -0.061601136 0.036731906
0.0019282772 0.04623234 -0.0072101112 0.034159057 0.051178742 -0.005700198 0.04028403 0.028530724
-0.014521454 0.04321577 0.018228529 -0.0022979458 0.056944724 0.008992465 -0.063502 0.056918606
0.031383656 0.016357189 -0.010861698 0.016973207 0.035823885 -0.000545825 -0.011124005 0.062491573
0.017590823 0.06404407 0.059772022 0.029717777 -0.05879871 -0.060782954 -0.0034202484 -0.050905187
0.03332079 0.007344235 -0.024425214 -0.016728833 0.043054506 0.046077117 -0.02056936 0.0075033596
0.00035095384 -0.00010716979 0.01990957 -0.038493812 -0.047673274 -0.016995944 -0.055920772 -0.027203273
-0.02782816 -0.03235143 -0.033264287 -0.022477327 -0.012154379 0.031990558 0.021526577 -0.016965134
-0.04083827 -0.06262673 -0.04580435 0.037805617 0.016374096 -0.056460585 -0.0027118018 -0.01351685
0.050618544 -0.011831638 -0.0388497 0.03116422 -0.02471354 0.04631168 -0.018114982 0.028032025
0.04216071 -0.060241096 -0.051013414 -0.027868234 0.04907912 0.022812154 -0.054620206 -0.045599546
-0.03822031 -0.005652071 0.009248475 -0.03436939 0.0030327789 0.04248713 0.020294746 -0.05235286
0.012831393 -0.014258092 -0.031049374 0.013170259 0.012507463 -0.0063111186 -0.056006044 0.006706121
-0.054013405 -0.021066967 -0.023094207 0.0028591664 0.0037786358 -0.04955408 0.034449313 -0.07571196

backbone.6.bias f4 [256]
00000000: c599 e93c 947d 553d 786c c43c 8c64 55bd
00000010: 0b81 033d 3ffe 2e3d f2b7 82bd 0e2a 2b3d
00000020: 5e74 7bbd 5849 0dbd ef49 663d 9bd6 713c
00000030: 0e0e 183d fa7e b9bc a03b f139 f029 1fbd
00000040: 3d85 4d3d 03b6 203d 11b9 0d3c ab8d 0cbd
00000050: db85 313c 42ac b53d c4d2 b4bd a92d 2dbc
00000060: 12c4 7abd 5aef c0bc e499 173c 8c15 d33c
00000070: 9d7f f23c 94ca 933c 9e3d 213d 396e 103d
00000080: 147b 553d 4704 eabb 04f3 51bd f316 6dbd
00000090: e0d0 263d f076 78bd 221f 473d f1c9 a13c
000000a0: 98de a3bc 9511 713b b086 2e3d 4c0d b2bd
000000b0: 6eaa 06bd d6dd ccbb 38d0 bdbd e0e7 b73a
000000c0: 3ee0 b13c ff9e 763d 09b5 a13c 6471 0cbd
000000d0: 30ec bebc 41f0 98bd 8593 aebd 0878 b4bd
000000e0: 849f 3e3d 8657 46bd 9d15 bf3c 3525 413d
000000f0: d0e0 aabb 3ef2 8e3d 8ba7 e8bd 907b 60bd
00000100: 82a0 2c3c 3884 92bd 99dd bfbc 32d8 f0bc
00000110: 6e5d 863c fc2e 203d 5cef 96bc 6dcb 88bc
00000120: 2c74 16bd 20e4 323d b332 43bc 38ea 72bd
00000130: 91c1 573d 8272 983d 28bd 57bc ea5b 0ebd
00000140: 491d d7bc 5cb2 16bd 402e 383d 138c 393d
00000150: f0fb 873b dba8 503c 9ee3 4c3d 963b a73c
00000160: ca95 10bd d638 82bd 78a1 2fbd 9dcd 58ba
00000170: 3fcc 723c f50f 98b9 880c 02bd 8cbd 99bd
00000180: 9410 37bd baef ac3d 871d 8fbd 8876 c0bc
00000190: bcc0 633c 3949 06bd b796 79ba 4acc 4c3d
000001a0: 4e54 63bd 7140 e8bc 8fe1 f5bd 739a 88bd
000001b0: 1cb5 e73b b7a7 c4bd 5e4a bcbc eb88 56bd
000001c0: 5191 913c 03f2 2a3d 1702 99bc 0f24 27bd
000001d0: f950 43bd 41d9 d83b e438 cabc db17 913c
000001e0: 6ecb 1bbd 7c88 32bc 0563 3bbd e507 9a3d
000001f0: cf19 913d 071a 80bd 9adf b3bc 5b3c 28bb
00000200: a6a1 cc3c 4ead cebc 2fed afbc 62e5 493d
00000210: 2afd 2bbd 1ad2 c8bc 14ce 553d d68a c23b
00000220: 5ed9 21bd c105 2c3d d317 91bc 482b 573b
00000230: 1e16 94bd 0302 dd3c 9a0e 463d acb6 523c
00000240: 2ac5 8dbd ec0c 40bd 5849 433d c575 693d
00000250: 8d5f 82bd 3b6a 5cbc f3d0 46bd 3c93 a2bd
00000260: 8021 bbbd 1110 c3bc 3733 ccbd 692c 99bd
00000270: 2c51 0d3d 91d4 cebd 7fd5 85bd f4d9 e2bd
00000280: 4bc9 183d 723b 60bd e56b c6bc 9a05 57bd
00000290: 7d02 be3c 64e2 1c3c 5186 57bd aa8f 4ebd
000002a0: db4b b1bc 6376 7dbc f501 663d 605b b4bd
000002b0: 5259 673c 580c a8bd 2205 063d e19e 11bd
000002c0: 9cd9 91bd 2c90 8bbd 4b59 34bb 9998 6bbd
000002d0: 3e70 2d3d fb06 3cbd f92c 26bd 70f0 47bc
000002e0: b335 4f3d b565 1b3d 9174 f5bc faa6 fa3c
000002f0: 560c debc 6bb8 543c 45b9 6d3d dc63 673d
00000300: 1cae ac3a 6ab3 cabc 1ebe eebb ed33 5dbd
00000310: a3c2 933b a5c3 8d3c f29b 423c 3a64 5abc
00000320: f6d5 10bd 8cb9 a1bc 8899 f0bc 26c2 c4bd
00000330: 408f 6cbd 8870 fdbc 76c5 57bc 45b7 49bd
00000340: bb32 36bd e8bd 8abd 62fa a13b f421 88bd
00000350: 3d4d 303d 6712 c0bd 983d 77bd 688f 4a3d
00000360: 1b18 3f3d 1dcf f4bd b744 b1bc 793c bb3c
00000370: 7b90 17bd 0b07 8a3d 37ea 18bd 5dd5 b3bc
00000380: c60f 8abd 2445 ac3d 8f9f fbbc 644b a5bd
00000390: 4c11 c13c 03f3 59bc 4283 ef3a 363a c1bb
000003a0: 013f 613d 159a 253c 8db6 17bd 0438 01bc
000003b0: 6c93 60bd d29a ad3c 5fb2 2d3d 0390 333d
000003c0: b192 e73c b7f3 a7bd 83ae 77bd 00d2 5d3d
000003d0: 6681 71bc f56e 283d 59c5 b3bd 6e5a 69bc
000003e0: bd0a cd3d bfab a1bd c0fc a13c 7fd4 85bd
000003f0: 998b 023d b3bb 423d 0c86 f2ba d1a0 cb3d
0.028515706 0.052121714 0.023977503 -0.052097842 0.032105487 0.042722937 -0.06382741 0.041788153
-0.061390273 -0.034493774 0.056222852 0.014760639 0.03712278 -0.022643555 0.00046011526 -0.038858354
0.050175894 0.03923608 0.00865008 -0.034314793 0.010835136 0.08870746 -0.08829263 -0.010569968
-0.061222143 -0.023551632 0.009252999 0.02576711 0.029601866 0.018040933 0.039365403 0.035261367
0.05211933 -0.007141623 -0.05125715 -0.057883214 0.040726542 -0.060660303 0.048613675 0.019749613
-0.020003602 0.0036784161 0.042608917 -0.086939424 -0.03287738 -0.006252031 -0.0926823 0.0014030896
0.021713372 0.060210224 0.019739645 -0.034287825 -0.023305982 -0.074677 -0.08524231 -0.08811957
0.046538845 -0.048423313 0.023325736 0.047154624 -0.005214788 0.06979798 -0.11360081 -0.05480534
0.010536315 -0.07154125 -0.023421096 -0.029399965 0.016401973 0.039107308 -0.018424682 -0.016698563
-0.036731884 0.04367459 -0.011913943 -0.0593054 0.052674834 0.07443716 -0.013167657 -0.034755625
-0.026259081 -0.03679119 0.044965982 0.0452996 0.0041499063 0.012735571 0.05002176 0.020414155
-0.0352991 -0.06358497 -0.042878598 -0.0008270385 0.014819204 -0.00029003588 -0.031750232 -0.07506856
-0.044693545 0.08444162 -0.06988054 -0.02349402 0.013900932 -0.032784674 -0.00095210545 0.049999513
-0.05550032 -0.02835104 -0.120059125 -0.06670084 0.0070711505 -0.096023016 -0.02298468 -0.05237667
0.017769488 0.041734707 -0.018677754 -0.040805873 -0.047684643 0.0066176956 -0.02468533 0.01771157
-0.038035803 -0.010896798 -0.04574873 0.07521037 0.07085001 -0.06254964 -0.021957207 -0.002567074
0.024979424 -0.025229122 -0.021475403 0.049291022 -0.041989483 -0.024514247 0.052198485 0.0059369607
-0.039513938 0.041997675 -0.017711556 0.0032832194 -0.07230781 0.026978498 0.04835377 0.012860935
-0.06922372 -0.046887323 0.047677368 0.05699708 -0.06365881 -0.013453062 -0.048539113 -0.07938239
-0.09137249 -0.023811372 -0.09970706 -0.07479174 0.03450124 -0.100991376 -0.06534862 -0.110767275
0.037301343 -0.05474419 -0.02422137 -0.052495576 0.023194546 0.00957546 -0.05261833 -0.050429977
-0.021642616 -0.01547012 0.05615421 -0.08806491 0.014120417 -0.082054794 0.03271974 -0.03555191
-0.07121584 -0.06814608 -0.0027519043 -0.057518575 0.04234337 -0.045905095 -0.040570233 -0.012203321
0.05058832 0.037938792 -0.02996281 0.030597199 -0.027105492 0.012983422 0.058038015 0.056491718
0.0013174447 -0.024743754 -0.0072858473 -0.0540046 0.0045092865 0.017305205 0.011878001 -0.01332956
-0.0353603 -0.019741796 -0.029370084 -0.096073434 -0.0577538 -0.030937448 -0.013169637 -0.049247045
-0.044481974 -0.06774503 0.004943178 -0.06647101 0.04304241 -0.0937851 -0.060361475 0.04945317
0.04665385 -0.11953566 -0.021639211 0.022855984 -0.03700302 0.067396246 -0.03733274 -0.021952325
-0.0674129 0.08411625 -0.030715732 -0.0807102 0.023567818 -0.013302567 0.0018273371 -0.005896832
0.054991726 0.010107537 -0.03703933 -0.00788689 -0.054828092 0.021191988 0.042406436 0.043838512
0.02826819 -0.08200782 -0.06046916 0.05415535 -0.014740324 0.041121442 -0.087778755 -0.0142427515
0.10011814 -0.07894086 0.01977384 -0.06534671 0.031871412 0.047542285 -0.0018503084 0.09942783
