federated-neighbor/final_backbone.pt (torch, 825321 bytes, 6 tensors)

backbone.0.weight f4 [256, 288]
000000 5f 18 21 bd b1 92 0e bd bd 50 51 bd 9d 8d 24 3c
       -0.039329883 -0.034807865 -0.05110239 0.010043529
000010 fc 0c fe 3b 80 96 ea 3c 1f 43 72 bd ba b2 38 3d
       0.0077530127 0.028636217 -0.059146043 0.045092322
000020 29 2e 00 bd 1d 61 90 3c a9 45 20 bd 71 f8 3a 3b
       -0.03129402 0.017624432 -0.039128933 0.002852943
000030 82 2e 74 bd 0f ac 31 bd fa b5 66 3c e8 76 c2 3c
       -0.059614666 -0.04337698 0.0140814725 0.02373834
000040 e8 1b 6f bd 01 de 70 bb f0 5d 62 bd 02 ef 6e bd
       -0.058376223 -0.0036753418 -0.055265367 -0.058333404
000050 9e 38 39 3c f8 fc b1 bc c6 c7 2a bd 5d 8e 57 3d
       0.0113050025 -0.02172707 -0.041694425 0.052626003
000060 8a 60 4a bd 11 dd 29 3d 85 02 65 bd b8 b4 d0 bb
       -0.049408473 0.04147059 -0.055910606 -0.0063691996
000070 9e 87 80 bb 73 9d dd bc 49 da 0a bd a0 99 9b bc
       -0.003922417 -0.027052617 -0.03389958 -0.018994153
000080 20 35 5e 3d dd f0 01 bd fc 66 cf 3c a7 f6 9c 3c
       0.054249883 -0.031723846 0.025317661 0.019160582
000090 f1 96 93 3c 02 fd 6d 3c 2d 66 50 bd 38 fb d4 bc
       0.01801631 0.014525654 -0.050878692 -0.025998697
0000a0 ca 49 8e 3b 58 db 95 bc 41 fa 26 bd a3 87 23 bb
       0.0043422924 -0.018293068 -0.040766004 -0.0024952672
0000b0 b6 ef 2d bd c6 f5 4a bd 0c db 0e bd 83 7a 68 bd
       -0.042464934 -0.049550794 -0.034876868 -0.05675746
0000c0 0b 7b 6f bc 5f 09 3b 3d 7a 85 5e bc 84 f6 4c bd
       -0.014616738 0.045663234 -0.013581628 -0.050039783
0000d0 a5 7d 67 3d 78 91 53 bc 52 e5 1d 3d 3d 00 d4 3c
       0.05651631 -0.0129131 0.038548775 0.02587902
0000e0 95 62 a7 bc 89 bf b8 3c 5b c6 9f 3c 41 97 46 3d
       -0.02043275 0.022552269 0.019503763 0.04848409
0000f0 1c 49 64 bb 9d 27 cb bb d0 68 25 bc 31 2e 0f 3d
       -0.0034833616 -0.0061997906 -0.01009579 0.03495616
000100 a6 4d a4 bb 7d f5 52 bb 56 23 2b 3c d2 91 9c 3c
       -0.005014139 -0.003218978 0.010445436 0.019112501
000110 79 98 12 3d 5a db d6 3c 32 83 8b 3c a1 68 2b 3c
       0.03578994 0.026227642 0.017030332 0.010461957
000120 af f4 38 bd 22 aa b2 bb a4 17 68 3d fb 8b cf bb
       -0.045155223 -0.0054524103 0.05666317 -0.0063338256
000130 5d 03 cd 3c 81 fb 15 bd 21 72 a0 bc 0e c8 1f 3d
       0.025026018 -0.036616806 -0.01958567 0.039009146
000140 93 7d ff bc 09 02 c2 bc dd 40 10 bc 95 db 18 bd
       -0.031187808 -0.023682611 -0.008804527 -0.037318785
000150 ec fe 4f bd a7 0e 46 bb c8 17 4e 3d 4f b2 2f 3d
       -0.05078022 -0.0030221136 0.05031565 0.042894658
000160 68 93 df bc fd 82 32 3a db c0 aa bc 27 10 25 bd
       -0.027291968 0.000680968 -0.020843914 -0.040298607
000170 b7 b5 18 bd 18 94 2e bd 7a db 2d bc 26 78 99 3c
       -0.03728267 -0.042621702 -0.010611409 0.018734049
000180 ec 56 f7 3c c4 c6 45 bd 48 9b 5b 3d 39 f6 47 3b
       0.030192815 -0.04828526 0.053614885 0.003051175
000190 0a d2 31 bd 37 dd 3c bd e6 a4 44 3d 8a 34 e0 bb
       -0.0434132 -0.046109404 0.048008822 -0.0068422006
0001a0 2d 4e 69 bc b4 61 55 bd 7b aa 64 3d 20 ae 69 bd
       -0.01423983 -0.05209513 0.055826645 -0.057050824
0001b0 22 80 81 bc 54 9d 81 3c d2 1b 4e bd b7 8a 73 bd
       -0.015808169 0.01582209 -0.0503195 -0.05945846
0001c0 1d c6 13 3d 73 93 6f bd 56 2a 2a 3d 7b a6 4e 3a
       0.036077607 -0.058490228 0.04154428 0.0007883084
0001d0 79 80 84 bb e7 d5 0f bc 00 a5 5c 3d 06 68 ec 3c
       -0.0040436354 -0.008779026 0.053868294 0.028858196
0001e0 32 f5 14 3d cc 42 a3 bc 9e 7d 0e bc fa 80 fb bc
       0.03636665 -0.019929312 -0.008696942 -0.03070115
0001f0 48 53 68 3d 43 9c 2e bd 8b c5 42 3d cb c8 67 3d
       0.05672005 -0.04262949 0.047551673 0.056587975
000200 4a 13 4b 3b 64 ea 35 bd 21 bd 01 3d 52 99 4c 3d
       0.003098684 -0.044412985 0.031674508 0.049950905
000210 7b b0 2c bd d2 45 f7 bb d8 7c e9 3a 3e e7 65 3d
       -0.042160492 -0.007546165 0.0017813696 0.056128733
000220 e0 c0 95 bc bd 8f 8b 3c 4a d7 74 3c f3 80 29 3d
       -0.018280447 0.017036313 0.014943907 0.04138274
000230 4e 9c e5 3c 3a 9f 29 bc 77 00 3a bd 75 90 1a 3c
       0.028028633 -0.010352904 -0.0454106 0.009433855
000240 85 81 16 bd 40 d4 05 3c 78 cf 8b bc 94 42 b8 3a
       -0.036744613 0.00816828 -0.017066702 0.0014057928
000250 d8 26 30 bd 21 66 f6 3c d8 c5 b7 bc 94 f5 27 3d
       -0.043005794 0.030077996 -0.022433206 0.041005686
000260 3b 65 40 3d 10 03 27 bd f3 d3 28 3d f7 6e 4e bc
       0.04697154 -0.040774405 0.041217756 -0.012599698
000270 a6 8c 25 3c 08 9a 2d 3d d6 76 1d ba 58 80 25 3d
       0.010104334 0.042383224 -0.00060067826 0.0404056
000280 fa 78 12 bd dd b1 81 bb ef 51 3f bc fd 41 da bc
       -0.035759903 -0.0039579705 -0.011677249 -0.026642794
000290 91 6a 41 3b 3d 47 4b bd dc 96 e5 3c 7d 4c 17 bb
       0.0029512981 -0.049628485 0.028026037 -0.0023086362
0002a0 f2 b2 43 bd a1 8b 3e bc 5a 17 68 bd 37 7e f9 3c
       -0.047778077 -0.01162997 -0.056662895 0.030455692
0002b0 a4 72 ec 3c 63 9f ad 3c 60 96 1e bd 55 b9 2c 3d
       0.028863259 0.021194166 -0.038717628 0.042168934
0002c0 9e 3a 5d 3d 12 7b 5d bd cb 4e 60 bd 86 0a b5 bb
       0.05401098 -0.054072447 -0.054762643 -0.005524936
0002d0 a5 0e 3f 3d de 4c 06 bc 5e 90 2a 3c 3d c5 11 39
       0.046644825 -0.0081970375 0.010410396 0.00013901755
0002e0 95 3d 57 3d 1b b6 4c 3d 9a 1d 40 3d 42 6e 3b bc
       0.052548964 0.049978357 0.04690323 -0.011439862
0002f0 94 85 19 3c d6 6f 76 3c e1 8c 9e bc e6 5b 60 bd
       0.009370226 0.015041312 -0.019354286 -0.05477514
000300 24 28 dd bb 70 bb 0b bd 04 99 66 3c ae 05 3c 3d
       -0.00674917 -0.0341143 0.014074568 0.045903854
000310 ba 61 f9 3b 88 9a 53 3d 09 48 5e 3d 3e f8 42 3d
       0.007610527 0.051661044 0.054267917 0.047600023
000320 6d 90 e8 bc 1e 94 f2 3c f7 65 d1 3a a5 c0 b2 bc
       -0.02838918 0.029611643 0.0015975822 -0.021820376
000330 fb 6f 5c 3d 83 a8 03 bd 20 58 61 3d f6 72 6f bb
       0.05381773 -0.032143127 0.055015683 -0.0036537028
000340 72 35 50 bd 82 32 91 3b 77 4f 9a bc 99 5f 71 bd
       -0.05083222 0.00443107 -0.01883672 -0.05892906
000350 89 01 03 3d 2c eb cc bc ed 24 42 bd e4 17 1c 3d
       0.031983886 -0.025014482 -0.047398496 0.03810872
000360 39 31 7a bc 3f 91 f3 3b 94 c0 76 bc f9 5f 38 bd
       -0.015270525 0.007433086 -0.015060563 -0.0450134
000370 c5 b4 67 bd 1b 83 73 3c 4f df 77 3b 81 57 9d bc
       -0.05656888 0.014862801 0.0037822311 -0.019206764
000380 ca bf 1a 3b 6b 3e 44 bc 6a b2 21 bc 5e d2 8b 3c
       0.002361285 -0.011977772 -0.009869197 0.017068084
000390 d1 57 4a 3c 67 f7 34 3d 7e 5d 5b bd ba 76 c1 3c
       0.012350039 0.044181254 -0.053555958 0.023616184
0003a0 17 28 56 bb 80 72 34 ba c2 7f ee 3c 46 f6 43 bd
       -0.0032677704 -0.0006883517 0.029113654 -0.047842287
0003b0 b1 ee 1f bd 2b 34 20 3c fb 7f 59 3d a5 a4 19 bd
       -0.039045993 0.009778063 0.053100567 -0.037510533
0003c0 38 4f a1 bc fb 43 f2 bc 2c a6 58 bc de 04 9c 3c
       -0.019691095 -0.029573431 -0.013223212 0.01904529
0003d0 e6 07 a2 bc 07 03 19 3d cb 9f 89 3b d0 0d 53 bd
       -0.019779157 0.037356403 0.004199957 -0.051526845
0003e0 44 a4 ba bb 81 fd 3f bd 57 3c 11 3d dd 06 3f 3d
       -0.0056958515 -0.04687262 0.035457935 0.046637405
0003f0 c5 ed 49 bd 2c 59 5d bd 97 dd 5c bc 28 e9 f3 bc
       -0.04929902 -0.05404012 -0.0134805655 -0.029774264

backbone.0.bias f4 [256]
000000 ac 9c 47 bb cc fa f6 3c b0 4b fa bc ed 16 49 bd
       -0.0030458374 0.030148886 -0.030553669 -0.04909413
000010 f8 e4 9c 3c 3c 83 e8 bc d2 1b 1d bd 7a 57 6b bd
       0.01915215 -0.02838289 -0.03835661 -0.05745647
000020 cc 6f 5d 3a 88 66 02 bd ca 1c e0 bb 0b bd 4e bc
       0.000844714 -0.031836063 -0.0068393694 -0.012618314
000030 65 b3 bb 3c 24 a1 0b 3d ca 9e 01 bd 66 14 64 bc
       0.02291269 0.034089223 -0.031645574 -0.013920879
000040 6d 3a 4a bd af 5d d2 3b 28 9a 5f 3d 8e 1e 22 bd
       -0.049372125 0.0064198594 0.054590374 -0.03957992
000050 e8 4c 00 3c 36 75 8e 3b 47 d1 0e bd cd 82 cc 3c
       0.007830836 0.0043474687 -0.03486755 0.024964714
000060 cd 2b 11 be 9f 88 38 bd ba 6e db 3c 5b 5a 88 bd
       -0.14176865 -0.045052167 0.026786197 -0.06657859
000070 67 95 0b be 0a 26 d2 bc b4 e4 6b bd 87 08 48 bb
       -0.13631211 -0.025652904 -0.057591155 -0.003052266
000080 71 09 11 3d ff 7b 64 3d fa 10 1e 3d fe 05 08 3e
       0.035409395 0.055782314 0.03859041 0.13283536
000090 bf a3 08 3b 9b 56 b3 bc dc e1 53 3d ba eb 0d 3d
       0.0020849553 -0.021891883 0.05172907 0.034648634
0000a0 e9 fe 56 3c ef 27 8f bd 1e 48 7d 3d 80 5f 38 3d
       0.013122299 -0.069900386 0.061836354 0.04501295
0000b0 7c 35 4f bd cf ce fe 3d de f4 4a bd 5e 26 2f bc
       -0.050588116 0.12441789 -0.04954993 -0.0106903
0000c0 57 20 5a bd fa bd 73 3d a2 54 29 3d ff 0d c4 bc
       -0.053253498 0.059507348 0.041340478 -0.023932455
0000d0 fd c6 77 bc 81 48 3d bc 22 b3 09 3d fa 7c 0d bd
       -0.015123126 -0.011552931 0.0336181 -0.034543015
0000e0 b8 3c 81 bc d8 8d 57 3c 4f 88 42 3d 2f 2c 5d 3a
       -0.015776023 0.013156377 0.047493275 0.0008437065
0000f0 e5 c5 1b 3c 09 d3 86 bc 97 da 2a bc 0c dd 5e bd
       0.009507631 -0.016458051 -0.010428092 -0.054410025
000100 ca 3d dc 3b fe a8 c0 ba c7 4f 8f bd dc e7 1f 3d
       0.006721233 -0.0014698801 -0.06997638 0.039039478
000110 02 ef df bd 9d b6 83 3d 64 97 4d bc 7d 87 ed bc
       -0.10934259 0.06431315 -0.012548301 -0.02899527
000120 a9 ae 19 bd 36 6f 00 bd 9e cc c6 3b e9 2f 0e be
       -0.037520085 -0.03135606 0.0060668727 -0.13885464
000130 a2 db 32 bb 1d 64 45 3c b4 bd 5b bd 54 da bb bd
       -0.0027291556 0.012047795 -0.053647712 -0.09172502
000140 e0 82 1e 3d f4 8f af bb bf 2b 30 bd 1b 9b 15 3d
       0.03869903 -0.0053577367 -0.04301047 0.036524873
000150 ae 46 06 bd ed 45 22 3d d7 74 d2 3b f4 79 02 bd
       -0.03278225 0.039617468 0.00642262 -0.031854585
000160 10 27 04 bd 76 b7 b3 3b b4 69 60 bd 0c 82 b3 3c
       -0.032263815 0.0054845167 -0.054788306 0.021912597
000170 c8 49 1b bc bf 6c 34 bd c6 81 68 bc 88 55 ef bc
       -0.00947804 -0.04404902 -0.014191097 -0.02921559
000180 7f 65 f8 bc 90 3f 4d 3d 1d c1 b1 3c 64 5f b0 3c
       -0.030321835 0.050109446 0.021698529 0.02152986
000190 8e 67 03 be 02 48 d0 bc b2 c5 a3 3b 7f 10 d6 bb
       -0.12832472 -0.025424961 0.0049979324 -0.006532728
0001a0 8c 03 59 3d 0c 79 36 bd ae 5a 48 3d 5b fc 30 3d
       0.0529819 -0.044549033 0.048914604 0.043209415
0001b0 30 b2 14 bd a4 1f 15 3e 28 5f f5 3c b6 77 23 3d
       -0.036302745 0.14562851 0.0299526 0.039909087
0001c0 e7 ed cc 3d 21 e7 35 bd a5 41 02 3d cb b3 e4 bd
       0.10006314 -0.044409875 0.031800885 -0.11167105
0001d0 b0 04 82 bd b7 c8 00 bc 59 11 05 bd 07 50 a8 bb
       -0.0634855 -0.007860354 -0.032487247 -0.005136493
0001e0 c7 c8 a9 bc b2 92 a9 bc 34 89 8f bc 5e 15 52 3d
       -0.02072562 -0.020699833 -0.017521478 0.05128991
0001f0 36 53 75 3c ce 85 b0 3c 2b 68 31 bc 8b d0 48 3d
       0.014973452 0.021548178 -0.010828058 0.049027007
000200 60 39 6e 3b 55 38 8a bc 43 8d 63 3d ae bc 02 bc
       0.0036350116 -0.016872564 0.05555464 -0.007979555
000210 2a a2 30 bc 12 5b 8c bd af 7e 41 3c 67 f4 61 3d
       -0.01078085 -0.06853308 0.011809989 0.05516472
000220 d8 04 0a bd 50 f7 1a 3d 8b b5 40 bd 97 4e 2b 3c
       -0.033696026 0.03783351 -0.047048133 0.010455749
000230 7b 1e 48 bc 88 e2 46 3d af fc 75 bd 22 5e bf bc
       -0.012214298 0.04855588 -0.06005543 -0.023360316
000240 64 7a 53 bd db 4b e9 bc f6 b0 3c 3d 84 98 8e bc
       -0.051630393 -0.028478554 0.0460672 -0.01740671
000250 3e 24 91 bd bf a2 b8 bc ba 17 a6 bc a2 7c 23 bd
       -0.07086991 -0.02253854 -0.020274986 -0.03991378
000260 fe 04 21 bd 11 35 f2 bc e4 c0 66 bc 64 93 57 3d
       -0.0393114 -0.02956632 -0.014084075 0.052630797
000270 2c c5 4f 3d 8f eb b6 3c 1f 22 36 bd 3b 77 e6 3c
       0.050725147 0.02232912 -0.044466134 0.028133025
000280 f4 a1 26 bd c3 b2 6e 3d 32 29 08 3d 7a 21 6d 3c
       -0.040681794 0.05827595 0.033242412 0.0144733135
000290 dc 40 0f bc b3 e6 5c bc 96 b6 02 bd 8a ef da 3c
       -0.008743491 -0.013482737 -0.03191241 0.02672555
0002a0 48 b0 3e 3c 19 5b b3 bd 47 66 73 bb e8 59 9a bb
       0.011638708 -0.0875761 -0.003713982 -0.0047104247
0002b0 61 3d 91 3b 99 aa 05 bd ed f9 6a 3d 3b a8 41 bd
       0.0044323658 -0.032633398 0.057367254 -0.047279578
0002c0 e9 20 cb ba 48 e2 10 be a1 91 4c 3b 4f 96 26 bc
       -0.0015497479 -0.1414882 0.0031214731 -0.010167672
0002d0 48 16 a6 3c 0d 66 04 bc bc eb a1 ba e3 87 4e 3d
       0.020274296 -0.008080971 -0.001235358 0.05042256
0002e0 5c 70 d0 bc f5 fb 5a bd 17 fb ae bc 3a 5d 1d bd
       -0.025444202 -0.05346294 -0.021359963 -0.038418986
0002f0 5e 2a b5 bc 55 2d 1e ba d0 19 45 3d ad 33 02 3d
       -0.022114929 -0.00060339767 0.04812032 0.031787563
000300 f2 62 60 bc b2 d1 80 3c 2a bc e2 3c 7f c6 a3 bc
       -0.013695465 0.01572499 0.027677614 -0.019992111
000310 cd 0e 2b 3c d9 07 e5 3d 23 2e 8e 3c 0a 86 6f bd
       0.0104405405 0.111831374 0.017355984 -0.05847744
000320 17 07 0c bd 39 8c 96 3c e2 e6 27 bd 96 c2 d4 bc
       -0.03418645 0.01837741 -0.04099167 -0.025971692
000330 14 28 1c 3d 33 8f 6a bc 50 8e c6 bc 83 e1 63 3d
       0.03812416 -0.014316368 -0.024237782 0.055634987
000340 86 b4 1c 3c ee 15 bd bd b0 c8 a3 3b b3 09 29 bd
       0.0095645245 -0.092326984 0.004998289 -0.041269016
000350 d4 b0 94 bd b5 75 48 3d 30 b0 3d 3d 69 c5 6e bd
       -0.0726029 0.04894038 0.046310604 -0.058293734
000360 7b 62 c0 3c 79 df 1e bd 9a 19 90 bd 82 04 61 bd
       0.02348446 -0.03878734 -0.07036133 -0.05493594
000370 d7 99 67 3d 69 d0 4d bd 17 ab 1c bd ad 16 18 bd
       0.056543197 -0.050247584 -0.0382491 -0.037131
000380 20 37 0b bb 17 d8 ab 3c 40 a8 3e bc 64 bb 46 3d
       -0.0021242574 0.020977063 -0.011636794 0.048518553
000390 17 5b 1a bd 29 2c 5a 3d c6 51 f2 bc 82 0d 58 bd
       -0.037684526 0.05326477 -0.029580008 -0.052747257
0003a0 47 3b ea 3c 6a 5b 07 bb 03 73 07 3e 58 a6 90 bc
       0.028592719 -0.0020653852 0.13227467 -0.017657444
0003b0 1e 4b f6 3d 1a 3c 76 bb 87 59 5f 3c 20 32 1d be
       0.12026046 -0.0037572444 0.013632185 -0.15351152
0003c0 d8 e4 68 3d 78 83 5f bd 06 00 84 3c 5b 62 10 3d
       0.056858867 -0.054568738 0.016113292 0.03525005
0003d0 1c ba e3 bc e6 2d 99 3c fe 3a f7 bc 96 5d 7d 3c
       -0.027798705 0.018698644 -0.030179497 0.015464207
0003e0 a8 17 82 3c 57 f3 52 bd d4 aa 3e bc 80 00 df bb
       0.01588042 -0.0515016 -0.011637408 -0.0068054795
0003f0 e5 4a cb bc 9e ee 6e 3a 46 37 6e bc 39 fb 39 bb
       -0.024815986 0.0009114536 -0.014539545 -0.00283785

backbone.3.weight f4 [256, 256]
000000 d0 89 0d bd b7 a5 d4 bc b3 db cb ba fd 05 ee bc
       -0.034555256 -0.025957925 -0.0015553146 -0.02905559
000010 d8 91 19 bd 8c 19 82 bb 51 23 e5 bc 50 4c 1c bc
       -0.037492603 -0.0039703306 -0.027970942 -0.009539679
000020 61 e6 55 bd 05 9d 5d 3d 96 0c 35 bd 48 79 33 bc
       -0.05222166 0.054104824 -0.044201456 -0.010954209
000030 42 b9 6f bd ac 13 86 3c d6 ee 03 bb 6e 39 18 bb
       -0.058526285 0.016366802 -0.002013137 -0.002322759
000040 51 69 ec 3c 55 d0 59 3d c3 61 73 3d 94 7c 6e 3c
       0.028858813 0.053177197 0.059419405 0.014556069
000050 18 10 0a bd bd f0 9e 3c 8f 91 3e bd 4b bc 3b 3c
       -0.033706754 0.019401902 -0.046525534 0.011458467
000060 34 ee be 3c c6 25 36 bd 50 c4 55 3d 4c d9 4e bd
       0.023306943 -0.044469617 0.05218917 -0.0505002
000070 9d e4 77 bd e6 dc 3a 3d c6 de 48 3d 03 1b cf bc
       -0.060520757 0.04562082 0.04904058 -0.025281435
000080 c0 ff f7 3c 22 aa 7a 3c ae e7 5b 3d 62 20 19 bc
       0.030273318 0.015299352 0.053687744 -0.0093461
000090 02 53 1f 3d 70 88 1c bd 38 e0 d2 bc bc f0 17 bd
       0.03889752 -0.038216054 -0.025741681 -0.037094817
0000a0 80 ea bb 3c 37 03 77 bd aa 0b df bc 70 92 0c 3d
       0.022938967 -0.0603058 -0.027227242 0.03431934
0000b0 fd 7f df 3c 38 d0 5a 3b f9 1a 34 3d c9 99 67 bd
       0.02728271 0.0033388268 0.043971036 -0.056543145
0000c0 fb 69 38 3d 12 c9 a2 bc 7e ef a1 bc ce fd 5a 3d
       0.045022946 -0.019871268 -0.01976752 0.053464703
0000d0 f8 91 02 3d 3d 07 53 3d d6 27 57 bd bf d1 69 bd
       0.031877488 0.051520575 -0.052528225 -0.057084795
0000e0 76 2f 04 3d 4a db 5e 3d e2 f2 8c bc 9a 14 e4 bc
       0.032271825 0.05440835 -0.01720566 -0.027841855
0000f0 36 02 38 3c 8a f7 66 3d 06 c8 30 3d d5 9b 16 bd
       0.011230996 0.056388415 0.043159507 -0.036769707
000100 d4 48 2f 3c 41 93 0a 3d c7 e7 80 bd db e7 21 bd
       0.010698516 0.03383184 -0.06294208 -0.039527755
000110 43 29 47 bd 4b 26 73 bc c4 32 1d 3d 64 40 9d bc
       -0.048623335 -0.014840673 0.038378492 -0.019195743
000120 7a bd 2e 3c 9c 0b e8 bc 4d 12 5b bd f9 63 9c 3a
       0.010665292 -0.028325848 -0.05348425 0.001193165
000130 51 51 2d bd 73 e1 4a bd af 88 72 3d 4d 50 4a bd
       -0.042313877 -0.04953141 0.059212383 -0.049392987
000140 6e ec 83 3b f3 ea e1 3b 31 28 f9 bc b2 32 10 3c
       0.0040259873 0.006894463 -0.030414673 0.008801149
000150 6f 5b 7c bc 7b d4 20 bd 59 ff 12 bd 8d 25 fc 3c
       -0.015402659 -0.039265137 -0.03588805 0.030779624
000160 17 d5 52 3c a5 ba 2f bc 36 51 7d bc d4 10 65 3d
       0.012868187 -0.010725652 -0.015461257 0.05592425
000170 dd 1d 35 3d e2 f7 e1 bc 98 00 2a 3d 68 cc 17 3d
       0.044217933 -0.02758402 0.041504472 0.03706017
000180 fc 4e a1 bc 8e 55 0f 3d cd 7f c2 39 d3 b0 2c bc
       -0.019690983 0.0349937 0.00037097782 -0.010540205
000190 8e 8b b6 bc cb 6c 19 bd 7d 38 44 bd 2d 95 11 bd
       -0.022283342 -0.03745727 -0.047905434 -0.035542656
0001a0 d1 2f 6b 3d 8f 58 01 3d de d1 36 bd 3b 0d 35 bd
       0.05741865 0.031578597 -0.04463374 -0.04420207
0001b0 61 e4 2b bd 4f f6 c6 ba 49 1c 4d 3c fe ce 88 bc
       -0.041965846 -0.0015179607 0.012518951 -0.016700264
0001c0 d0 e8 f6 3c 12 aa 23 bd e7 1e 87 3c bb f3 2f bd
       0.03014031 -0.039957114 0.016494228 -0.04295705
0001d0 42 8c 21 bb 26 63 48 bd 00 a7 c3 39 d6 60 29 bd
       -0.002465025 -0.04892268 0.00037317723 -0.041352116
0001e0 97 0e d9 3c af 0a a9 3c d9 18 8d 3c d8 48 88 bc
       0.026496215 0.020634977 0.017223762 -0.016636297
0001f0 2e 26 33 bd 0d 77 c4 3c d7 65 6d 3d 60 e6 43 bc
       -0.043737583 0.02398255 0.05795845 -0.011956781
000200 37 ce 61 3c 70 64 59 3d 6b db 43 3d db 75 6b bd
       0.013782076 0.0530743 0.047816675 -0.057485443
000210 b5 6a 3d 3d 77 2c 29 ba 32 cd 67 bb 7f b2 4c 3d
       0.046244342 -0.0006453464 -0.0035370109 0.049974915
000220 fb f5 3e 3d 42 ff 75 3d a1 5f 17 bd 10 b8 08 bd
       0.046621304 0.060057886 -0.036956433 -0.03337866
000230 2d 77 0c 3d c2 7c de 3c bd 64 48 3d 63 60 2c bd
       0.034293342 0.027159099 0.048924197 -0.04208411
000240 ed 1e 2d 3c 74 15 58 bd 5c 1f ca 3c 78 f4 5e bd
       0.010566455 -0.052754834 0.024673156 -0.054432362
000250 48 8c 44 bd 06 77 cb bc 69 06 47 3c ab 0f d6 3c
       -0.047985345 -0.024837028 0.012147524 0.026130518
000260 26 72 df bc f7 a6 eb bc ad 13 40 bd dc b3 80 bc
       -0.02727611 -0.028766138 -0.046893764 -0.015710764
000270 f6 bf 64 3b 07 71 d9 bc 1e eb bf bb 06 6f 08 3d
       0.0034904457 -0.026543153 -0.0058568856 0.033309005
000280 04 34 df bc 37 7c c5 bc dd 9e d2 3c 72 08 ef bc
       -0.027246483 -0.024107082 0.025710518 -0.029178832
000290 ce fa 8c bc e3 bd 36 3b b2 13 ad 3c 22 b0 02 bd
       -0.017209437 0.0027884177 0.021127556 -0.031906255
0002a0 c8 fe 9d 3c 06 2f 34 bd c9 89 5a bd d7 20 82 3d
       0.019286528 -0.043990158 -0.05335406 0.0635392
0002b0 ca 09 71 bd 7c 94 5a bd cd 35 27 bd 59 ed 24 bd
       -0.058847226 -0.053364262 -0.040822793 -0.040265415
0002c0 65 ca 52 3d c9 1e 13 bd 0d 68 63 3d a9 8e f8 3c
       0.05146255 -0.03591803 0.055519152 0.030341463
0002d0 46 5d 23 3d 77 81 67 3d 76 f6 56 bd d3 f6 73 bd
       0.039883874 0.05651995 -0.052481137 -0.05956156
0002e0 3a b4 e9 3c 6f fd 25 3d f4 21 26 bc a0 7f 78 bd
       0.028528322 0.040524896 -0.010139931 -0.060668588
0002f0 8d ec 2a 3c 02 6b 81 3a 96 2d 45 bd ab a0 31 3d
       0.010432375 0.000987381 -0.048139177 0.043366116
000300 c7 9a 26 bd 0e 51 09 bd 42 d4 45 bd 42 17 6e bd
       -0.04067495 -0.033524565 -0.048298128 -0.05812765
000310 28 4e d6 bc 80 0d 5c 3d 70 00 cc 3c b4 1c f7 3b
       -0.026160315 0.053723812 0.024902552 0.0075412635
000320 fb b4 12 3d ba 06 94 bc 17 84 fd bc b7 f3 6c 3d
       0.035817128 -0.018069614 -0.030946774 0.057849612
000330 44 e3 3b bb 43 d2 ff bb 25 af c6 3b 46 54 b7 bc
       -0.0028669396 -0.0078070476 0.0060633593 -0.022379052
000340 ce df 4e bd bc a2 bb bc 95 25 39 bd 8a f6 44 bc
       -0.050506406 -0.022904746 -0.045201857 -0.01202167
000350 b7 05 35 3d 1b 9b 15 bc 6a f6 76 bd dc f7 ac 39
       0.044194903 -0.009131218 -0.060293593 0.00032991066
000360 40 f3 5c bc f8 14 bb bc 74 7f a2 bc b6 bf 65 3d
       -0.01348573 -0.022837147 -0.019836165 0.056091033
000370 9d c1 50 bd 88 20 36 bd 23 95 55 bd f2 87 90 bc
       -0.050965894 -0.044464618 -0.05214418 -0.017642949
000380 0c b8 1c bc 3c c7 27 3d 96 80 d4 3c cb 6d b1 3c
       -0.009565365 0.04096149 0.02594022 0.021658799
000390 ac cf 36 3d 5c 50 61 3d 02 f1 61 bb 62 74 5f 3d
       0.044631645 0.055008277 -0.0034475927 0.05455435
0003a0 09 af ef 3c 1e 9d 01 3d a1 ea 24 3c 94 3f 08 bd
       0.029258268 0.03164398 0.0100657055 -0.033263758
0003b0 11 c5 83 3d 0d 0f 37 bd f1 b4 67 3d 0e 0c f7 3b
       0.06434072 -0.044692088 0.056569044 0.007539279
0003c0 ee bf 6b 3d 9a 69 87 3c dc aa 62 3d 40 54 51 3c
       0.057556085 0.016529847 0.055338725 0.012776434
0003d0 6e bb 57 3d 7e e7 ce bb 6e 76 c7 3c 13 de ee bb
       0.05266898 -0.006314217 0.024348464 -0.007289657
0003e0 80 20 32 bd 0d 96 f8 3c 88 b7 e8 bc ab 61 6c bd
       -0.043488026 0.030344987 -0.028407827 -0.05771033
0003f0 f2 db 70 3d 23 b7 c6 3c 48 78 a6 bc 03 c2 a4 bc
       0.058803506 0.024257248 -0.020321026 -0.020112043

backbone.3.bias f4 [256]
000000 8b 5a a7 3b d4 46 12 bd 47 b6 13 bc f2 a7 75 bc
       0.005107229 -0.03571208 -0.009015626 -0.014993655
000010 66 ae 9e 3d d3 78 de bd e8 f9 11 3e 6d 9e c9 bd
       0.077481076 -0.10862889 0.14255488 -0.098446704
000020 3a 5f 6f 3d d2 53 4a 3d 56 7d 88 3c ab e7 a6 bd
       0.058440425 0.049396344 0.016661327 -0.08149656
000030 88 03 67 bd 43 2a c1 bc fa b1 47 3d 0f c4 b7 3d
       -0.056399852 -0.023579722 0.048753716 0.08972942
000040 e7 85 c1 bb 82 11 0a bd 05 1e de bc 85 67 c4 3d
       -0.005905855 -0.033708103 -0.027113924 0.09590057
000050 b5 e6 45 bd 33 27 a4 3c 29 c2 ff 3d 17 3a 8c 3d
       -0.048315722 0.020038223 0.12488205 0.06847017
000060 da 01 53 3c 72 78 27 bd bc fb ee 3c c7 a2 86 bd
       0.012878859 -0.04088635 0.02917277 -0.06574016
000070 e1 d1 91 3c a8 7c 5a 3c f8 ec fa bd 02 ee 52 3d
       0.017800273 0.013335384 -0.122522295 0.051496513
000080 3e 3b 9d 3d bf e4 fd 3c 9e ad 67 bd a3 45 8a 3c
       0.07677315 0.030992864 -0.05656206 0.016878909
000090 d4 cb d3 3d f4 03 9a 3c 76 fc 42 bd 3c d2 a6 3b
       0.103416115 0.018800713 -0.047604047 0.00509098
0000a0 5c 8a 3a 3c cb 41 75 bc 5c 65 29 bc e9 5a d3 3d
       0.0113855265 -0.0149693 -0.010339107 0.10320074
0000b0 28 3d dc bb c9 bf 97 bd 1a af ca 3b 5a 69 71 3c
       -0.0067211576 -0.07409627 0.0061854245 0.01473459
0000c0 04 54 61 bc 44 97 48 bd 9a c1 32 bd f9 28 d3 bc
       -0.013752941 -0.048972383 -0.043641664 -0.025776373
0000d0 49 ce 9c bd 94 72 d1 bd d0 87 15 3e 04 33 c7 bc
       -0.07656533 -0.10226932 0.1460259 -0.024316318
0000e0 1a a2 df 3c 33 11 63 bd 99 c7 1c 3e 9e 2d 14 3e
       0.027298976 -0.055436324 0.15310515 0.14470527
0000f0 6a c3 b0 3d ee 0c 7a bd c7 a7 38 3c cf 51 9b bd
       0.08631022 -0.061047487 0.01127047 -0.07583963
000100 c6 b3 f5 3d 26 7f 66 bd e1 38 bc 3d b5 36 8c 3d
       0.1199718 -0.056273602 0.09190536 0.06846372
000110 db 70 b5 3d f8 3b 51 bd 14 77 1a 3c e4 a3 c1 bd
       0.08859416 -0.05108258 0.0094278045 -0.09455088
000120 30 25 a5 3c 22 66 b9 3d 09 bb 15 3e 46 a1 9f bd
       0.020159334 0.090526834 0.1462213 -0.07794432
000130 ac 84 b7 3d 90 ae 29 bd c6 2e 23 bd 99 7c 41 bd
       0.08960852 -0.04142624 -0.03983953 -0.047237966
000140 8a 6b 82 bd 62 f2 ca bc b8 09 8e bd 57 c4 41 bd
       -0.06368168 -0.02477378 -0.069354475 -0.047306385
000150 32 c3 d7 bd 91 ec b3 bc 0f a1 1c 3e be 6f 33 bd
       -0.105352774 -0.02196339 0.15295814 -0.043807738
000160 5d 41 f2 bc ac 22 57 3d 75 05 94 3b 14 b9 99 bd
       -0.029572183 0.0525233 0.004517252 -0.07506004
000170 90 a2 b1 bd 5a 3c c7 bc 06 1c 9d bd 2f f4 85 3d
       -0.086735845 -0.02432077 -0.07671361 0.06540715
000180 a6 86 1b 3e b5 fa d5 bc a7 78 f0 3d 34 c7 9b 3d
       0.15188083 -0.026120523 0.117417626 0.07606354
000190 1d dc c2 bd 24 47 a9 bd ea b5 c4 3d 88 ae d6 bd
       -0.095146395 -0.08265522 0.0960501 -0.10482508
0001a0 d1 72 a2 3d 4b 98 7e bc d3 c0 b1 bd a2 f2 e3 3d
       0.07932056 -0.015539239 -0.086793564 0.11130263
0001b0 b9 1f 8c bd dc ee 8e 3d 0b 20 0f 3e 94 6d ea bc
       -0.06841988 0.069791526 0.13977067 -0.028616704
0001c0 35 18 c5 3d 04 a4 e4 3d ce 59 e5 3d 07 bd 94 bd
       0.09623758 0.11164096 0.111987695 -0.072626166
0001d0 94 a2 10 bb 2f df 0d 3e 04 ac f2 3d 6c f2 f9 3d
       -0.002206956 0.13854669 0.118492156 0.122044414
0001e0 1d 4a 14 bc c1 54 31 3d fc 41 ae bd 3e 7b a2 3d
       -0.009050873 0.04329372 -0.08508679 0.07933663
0001f0 90 f1 97 38 2d 8a b9 bd 66 f0 49 bd 0c 37 e0 bb
       7.2452356e-05 -0.09059558 -0.049301527 -0.0068424996
000200 c6 c9 9f 3d 3a c3 1b bc d3 66 f7 3a fc 36 31 3d
       0.07802157 -0.009506995 0.0018875248 0.043265328
000210 36 c1 f5 3c 97 f2 4d bd c9 d8 57 3d ed 2f bf 3c
       0.029999357 -0.05028018 0.052696977 0.023338282
000220 88 08 c2 3c 7d bb e8 3d bb ec 58 bd 7f 0d cf bc
       0.023685709 0.113638856 -0.05296014 -0.02527499
000230 a5 b5 0e 3d ff eb 90 3d d0 0a fc 3a 08 14 c4 bd
       0.0348412 0.07076263 0.0019229297 -0.09574133
000240 d2 78 ba 3c aa 51 34 bd a2 b0 93 3d 45 71 2b 3e
       0.02276269 -0.044023193 0.072114244 0.16742428
000250 e0 af 12 bc fe e0 38 3d 97 97 09 bd 49 ca 37 bd
       -0.008953065 0.045136444 -0.033591833 -0.04487065
000260 93 34 ad bd 7e bc 9c 3d 2e 8a 50 3d 13 5f 8c 3d
       -0.08457293 0.076531395 0.05091303 0.068540715
000270 2e 98 79 bd 1e ae 6c bc a4 79 0c 3e 18 df 35 3d
       -0.060936145 -0.01444581 0.13718277 0.044402212
000280 4d e0 01 3e 44 69 25 3e e6 0c 48 3d f8 21 8e bd
       0.1268322 0.16153437 0.048840426 -0.06940073
000290 52 1d 2c bd 8a 6a e5 bd 3f 4d 8e 3d 13 a6 1e bd
       -0.04202015 -0.11201961 0.06948327 -0.0387326
0002a0 f5 b1 da 3d dd 28 0f bd ec f9 04 be e6 2e 97 bc
       0.10678474 -0.03495108 -0.12985963 -0.01845498
0002b0 07 2d 7c bd f2 5b c3 bd de 57 04 3c 5a df 21 3c
       -0.06156638 -0.095390216 0.00807759 0.009879911
0002c0 0a 54 ee bd c4 78 8e bc a3 f0 3c bd 58 51 ac bd
       -0.11637123 -0.01739157 -0.046127927 -0.084139526
0002d0 58 2b bc 3d 33 9d 24 3d 12 02 42 3b 84 d9 b1 bd
       0.09187955 0.04018898 0.0029603285 -0.08684066
0002e0 43 a5 db bd c1 eb d1 3b 92 cc c1 bd 81 aa 69 3d
       -0.107248805 0.006406278 -0.09462847 0.05704737
0002f0 a5 7f 92 3b c5 91 cf bd a7 d6 86 bd c5 65 c5 3c
       0.004470783 -0.10135225 -0.065839104 0.024096379
000300 82 75 20 3d bb 0f 6e 3b 51 65 b4 bd 43 19 a1 bd
       0.039174564 0.0036325294 -0.08808387 -0.078661464
000310 d9 e4 3f bc fa 37 d7 3d 88 f4 ef bc 2b 43 e0 3d
       -0.011712276 0.105087236 -0.029291406 0.10950311
000320 46 dc a6 bd 4e c5 f5 bd 86 23 23 3d d8 59 71 3d
       -0.081474826 -0.120005235 0.0398288 0.058923572
000330 d5 ab d7 3d 4d 65 39 3c 83 33 f1 3c 44 6a 2d bd
       0.10530821 0.011315656 0.029443508 -0.04233767
000340 ea 5b 55 bd f5 be d5 3d a0 24 d9 bc 74 81 44 bd
       -0.05208961 0.10436813 -0.026506722 -0.04797502
000350 6d 13 42 3d 08 7d b4 bc 70 ac 79 3d 22 36 9d bc
       0.047381807 -0.022032276 0.060955465 -0.019190852
000360 6d 91 e7 3d b0 41 fd 3d cd f8 bf bd 7e ec 7a bc
       0.11307035 0.123660445 -0.09373627 -0.015315173
000370 6a 56 74 3d ba 75 ee bc 39 54 03 bd cf 4d 1e bd
       0.059652723 -0.02910887 -0.032062743 -0.038648423
000380 91 5f 11 3e 40 5b e2 bb 65 7a 1c bb dc 2c dc 3d
       0.14196612 -0.0069078505 -0.0023876664 0.10750744
000390 45 5d 1d bd 7f 34 c4 bc d0 c4 ed 3c 9c 33 c5 bd
       -0.038419027 -0.023950813 0.029024512 -0.09628984
0003a0 7b d0 a6 bd a1 5e 87 3d 2e 90 fc 3d fd 99 13 3e
       -0.08145233 0.06609846 0.123321876 0.1441421
0003b0 54 61 98 bc 07 f8 3e 3d 47 1f cc bd e3 c9 68 bd
       -0.018601097 0.046623256 -0.09966903 -0.05683316
0003c0 92 a4 97 3d c5 73 d0 bd 83 6d 88 3d 81 89 68 bd
       0.07404436 -0.10178331 0.06661513 -0.05677176
0003d0 b5 65 02 3e db c7 fe 3d 1b 62 d0 3d b8 fe 74 3d
       0.1273411 0.12440463 0.10174962 0.05981323
0003e0 42 4a 9e 3c 68 00 14 bd e1 23 be 3d 3f c9 f4 3d
       0.019322518 -0.0361332 0.09284187 0.11952447
0003f0 9c 04 27 bc 4a 44 42 3d 54 03 09 bd 55 87 bb bd
       -0.01019397 0.047428407 -0.03345044 -0.09156672

backbone.6.weight f4 [256, 256]
000000 a3 33 86 3d f6 c4 93 bc 66 2d 0a bd 22 1d ab bc
       0.06552818 -0.018038254 -0.0337347 -0.020887915
000010 02 87 02 3d d4 72 9c 3c fe 7e ed bc f9 63 2d bd
       0.031867035 0.019097723 -0.028991219 -0.04233167
000020 f9 92 33 bc db 13 8b 3a 26 a2 2f 3c 21 d6 3c bc
       -0.010960334 0.0010610776 0.010719812 -0.011525662
000030 34 1c a3 3c f1 ba ca bc 5a 55 47 3d 63 5c 8e bb
       0.01991091 -0.024747344 0.048665382 -0.0043445094
000040 2e 56 69 3d ca d2 a8 bc 0e 42 80 3d 54 be 93 3c
       0.056966953 -0.020608325 0.06262599 0.018035091
000050 c6 96 48 bd 40 ff 9c 3c 14 36 e2 bc 8e 71 05 bc
       -0.048971914 0.019164681 -0.027613677 -0.008144749
000060 ca 8e 8e 3d 01 4b 7f bc 21 bf d2 bb 38 d5 1c bd
       0.069608286 -0.015581847 -0.0064314757 -0.03828928
000070 ed 67 d2 bc 8f 1c 8e bc ac 12 80 3d b0 c0 f6 ba
       -0.025684321 -0.017347602 0.062535614 -0.0018825736
000080 15 cf 08 3d 76 91 7b 3c 71 95 95 3d ef ab 98 bd
       0.033400614 0.015354505 0.07303894 -0.07454669
000090 f9 b7 20 bd 01 69 be 3c 20 f3 61 3c 97 d7 97 3b
       -0.03923795 0.02324343 0.013790876 0.0046338546
0000a0 04 e1 ba 3c a5 5b 49 bd 55 eb 75 3d 6a f2 c0 bc
       0.022812374 -0.049159665 0.060038883 -0.023553092
0000b0 6b 27 b3 3c d3 f7 4a 3d a6 33 b0 3c 3a 95 34 bd
       0.021869382 0.04955275 0.021509003 -0.044087626
0000c0 3e be 0a 3d 96 f2 d7 bc a0 f6 59 3d b1 e2 48 bd
       0.033872835 -0.026360791 0.053213716 -0.049044315
0000d0 fc 67 a9 bc 15 c7 06 bd b2 18 85 bd 0f c8 36 bd
       -0.020679466 -0.032904703 -0.06498851 -0.044624384
0000e0 6a be 81 bc fd 5e 1f 3c be 66 0f 3c 8a 41 ef 3b
       -0.015837867 0.009727237 0.008752523 0.007301514
0000f0 40 73 b8 bc 30 71 5d 3d 3c 99 0e 3d 50 2d c4 bc
       -0.022515893 0.054063022 0.034814104 -0.023947388
000100 0a f1 e4 3c 20 20 50 3d 9c c2 78 3d 3a 5a df bb
       0.027946968 0.050811887 0.06073247 -0.0068161758
000110 70 94 1a bc 21 48 71 bc 6c d0 a7 3c 71 48 d6 bc
       -0.009434804 -0.0147266695 0.020485125 -0.02615759
000120 4d 74 ae bc b0 f9 25 3c 9a 96 51 3d e2 bd 93 3d
       -0.02129569 0.010130331 0.051169015 0.07213952
000130 c3 d9 26 bd b8 62 5f 3d b2 62 69 3d e2 30 15 3d
       -0.040735018 0.054537505 0.05697889 0.03642357
000140 b0 aa f7 bc ce 5f 2e 3d 5e 01 db bc f4 9d 00 3d
       -0.030232757 0.042571835 -0.02673405 0.031400636
000150 73 f1 34 3b b3 e4 6c 3d 66 23 21 bd 10 e8 82 3d
       0.0027609735 0.057835292 -0.0393404 0.06391919
000160 b8 e1 96 3d d3 14 29 bc 7f 49 4c bd 3a 2d 05 bd
       0.07367271 -0.010319906 -0.04987478 -0.032513835
000170 ff 54 2c 3a 62 80 9e 3c 16 a2 69 3d bd 96 05 bd
       0.00065739447 0.019348327 0.057039343 -0.03261446
000180 b2 e2 0f bd 21 bd 2c 3d 8b 50 95 bd 18 6a 46 3d
       -0.035128303 0.042172555 -0.07290753 0.048441023
000190 7c 28 9f 3d d4 40 6c 3d 16 cd b1 bc f9 51 04 3d
       0.07771394 0.057679012 -0.021704238 0.032304738
0001a0 74 5a 01 3d e5 19 79 3d d0 6b 66 3d 1b 7c 93 3c
       0.031580403 0.06081571 0.05625516 0.018003514
0001b0 a3 80 a1 bc 65 6f 3e 3d bd a1 5d bc 06 9d 26 3d
       -0.01971466 0.046492953 -0.013527331 0.040677093
0001c0 44 5e e6 3c 53 39 ab 3b bc 6c 17 bd 6e 3f 2f bc
       0.028121121 0.0052253394 -0.03696893 -0.010696275
0001d0 4a ce 8a 3d 6c 65 35 bd 9d 99 30 3b b6 d8 75 3d
       0.06777628 -0.044286177 0.002694703 0.060021125
0001e0 e6 9d 4a 3d bb 70 e4 bc d8 0e 87 3d a5 0f 9b bc
       0.04946699 -0.027885785 0.06594628 -0.018928358
0001f0 71 08 51 3c c4 6b d4 3b 20 d8 e8 3c 5c 59 13 bd
       0.01275836 0.006482573 0.028423369 -0.03597389
000200 3a 8b e2 bc c1 91 8f 3c a4 89 5f 3c b6 9e 61 3d
       -0.027654279 0.017525556 0.013643656 0.055083
000210 9c c2 05 bd 39 cc 96 bc 55 5b 50 3d ce e8 1e 3d
       -0.032656297 -0.018407928 0.05086835 0.03879624
000220 57 05 87 3c ae 0e aa ba f1 ff 9e 3d 00 80 89 3d
       0.016482038 -0.0012974346 0.07763661 0.06713867
000230 d4 ee 85 3c 17 99 4b 3d 50 03 7f 3c dc 04 bf 3c
       0.016349234 0.049706545 0.015564755 0.023317747
000240 61 6e 57 3b be bd 89 3c 3e 0a 51 3d 33 a9 7b bc
       0.0032872187 0.016814109 0.05103516 -0.015360164
000250 18 3d 76 3d 67 47 b3 bd 83 d2 23 3d 70 76 10 3d
       0.060116857 -0.08753853 0.03999568 0.0352692
000260 c0 60 1f 3d 74 3c 19 bd 4b d7 8c 3d 15 3a 22 3d
       0.038910627 -0.03741117 0.068770014 0.039606173
000270 cd e6 31 bd ec c0 0d 3d 9d f9 5b 3c 65 6c 3e 3d
       -0.043433 0.034607813 0.013426212 0.04649009
000280 93 c2 d6 3c 72 4c 84 3d ed 3e 33 3c d4 b7 fd 3c
       0.026215827 0.06459893 0.010940296 0.030971445
000290 f7 7b 43 bd c0 76 1f 3d 12 b1 e8 3b c4 0e 58 bc
       -0.047725644 0.03893161 0.0071011866 -0.013187114
0002a0 51 54 86 3c 25 4e 21 bd 54 74 95 bc 46 29 3e bd
       0.016397627 -0.039381165 -0.018243946 -0.04642608
0002b0 84 16 44 3c f9 5c 93 3d 38 d3 5f bc c6 6f 12 3c
       0.011968259 0.071954675 -0.013661198 0.008937782
0002c0 57 da 88 3d 51 58 9e bc cb eb 50 3d a0 7f a6 3b
       0.0668227 -0.019329222 0.05100612 0.005081132
0002d0 9c b9 26 3c 0a 51 d5 3c 59 51 b8 ba 3b 3c fd 3b
       0.010176089 0.026039619 -0.001406233 0.0077281273
0002e0 7a 19 80 bc 53 2a aa bc 49 43 ea 3c be 40 e5 3c
       -0.015637148 -0.020772135 0.028596537 0.027984973
0002f0 44 cb 83 3d 59 ce 1d bd f0 4d a2 3c f6 d3 97 3d
       0.06435254 -0.038526867 0.019812554 0.07413475
000300 ef b7 07 bd ff 02 f4 bc 08 e0 10 bd fb ab 1c 3d
       -0.033134397 -0.029786585 -0.035369903 0.03824995
000310 12 f4 54 bd d7 ab a3 bc 1c 4f 16 3d 1a 35 2e bc
       -0.051990576 -0.0199794 0.03669654 -0.010632778
000320 67 c6 87 3d 32 ac e3 bb 5e 89 c2 bc 2c 1b 24 bd
       0.06629639 -0.0069480175 -0.023747142 -0.040064976
000330 80 9d 26 bd 48 fd 3e bd 47 56 20 3d 9c cb f9 bc
       -0.040677547 -0.046628267 0.03914478 -0.030492596
000340 bb 33 e9 3b 84 70 16 3c 30 19 d0 3c 1d 8a 2a 3d
       0.0071167625 0.009182099 0.025402635 0.04163562
000350 91 b8 0f bd 0b 74 9c bc d0 91 3b 3d 9c 37 89 bc
       -0.035088126 -0.019098302 0.045793355 -0.01675015
000360 b2 7a a2 bc 68 8a 30 bd 56 a5 30 3c 3d db 8b 3b
       -0.019833896 -0.043100744 0.010781607 0.0042680786
000370 fe 0d 6b 3d 5d d9 71 bc cc da 3b 3d b9 c7 99 3c
       0.05738639 -0.014761296 0.045862958 0.018771993
000380 75 cf 20 3d 84 1a 4a 3d dc 0e 3f 3d 54 f7 2a 3d
       0.039260346 0.049341694 0.04664503 0.041739777
000390 81 28 cf 3c ce 52 96 3b ab d0 3a bc da 50 71 3d
       0.025287868 0.004587508 -0.011402289 0.058914997
0003a0 a3 85 4d 3d 16 ae 44 3d de 74 1d 3d a5 7d 47 3c
       0.050176274 0.048017584 0.03844153 0.012175952
0003b0 8d 0b 33 3d 8c 25 d2 bc 9b 17 c4 3c 6a 1b 07 3d
       0.043712188 -0.02565267 0.023937037 0.03298513
0003c0 8c f6 89 bd 8a f0 24 3d cf d9 1d bd d0 97 89 3d
       -0.06736478 0.04026846 -0.038537797 0.06718409
0003d0 0c 0a 5a 3d 0a 9f 40 bd ab af b1 3a 9b 35 3c bd
       0.053232238 -0.04702667 0.0013556381 -0.04594956
0003e0 01 17 d8 bc 5a 01 10 bb 74 7f 12 3c c4 db 21 3d
       -0.026378157 -0.0021973462 0.00894152 0.039516225
0003f0 c1 8d 17 3b d4 97 87 3d 7c 7c 65 bd 30 d5 70 3c
       0.0023125263 0.06620756 -0.05602692 0.014699265

backbone.6.bias f4 [256]
000000 6b ee e1 3c c7 06 e8 bc 60 1f 0a 3e 48 a9 08 3e
       0.027579507 -0.028323544 0.13488531 0.13345826
000010 05 d3 81 3d 6c ff 4a bc e7 de 8d 3a a3 63 82 3d
       0.06339077 -0.012389999 0.0010823876 0.063666604
000020 10 7b 57 3d 18 a3 d0 bc 78 9e 86 3c d7 66 d4 3d
       0.052607596 -0.025468394 0.016432986 0.10371178
000030 47 53 17 3d 7c 5e 89 3d 29 bf 7e bd 41 bf 24 3c
       0.036944654 0.067074746 -0.062194023 0.010055364
000040 32 06 84 bb 22 3f 23 3d 75 aa b1 bd 8b 81 4a 3d
       -0.004029059 0.03985513 -0.0867509 0.049439948
000050 0d cd c3 bc 35 24 50 bd 47 d7 d7 3c 82 c2 d0 3d
       -0.023901487 -0.05081578 0.02634777 0.101933494
000060 de 91 0b 3d 2a 49 fc 3d d8 14 95 bd e4 d1 71 bc
       0.034074657 0.123186424 -0.07279366 -0.0147595145
000070 92 1a 49 bd 8f 4e 0a 3c f1 57 9c 3d 67 60 42 3d
       -0.049097605 0.008441581 0.07633961 0.047455218
000080 25 97 ba bc 9c 51 df 3c 16 5d 87 3d 3e ea 06 bd
       -0.02277715 0.027260594 0.066095516 -0.032938235
000090 04 db 1d 3b 12 89 b0 3d 8d df 2d bd 63 04 3a bd
       0.0024086842 0.08619894 -0.042449523 -0.04541434
0000a0 e6 89 aa 3d d5 5f 9f bb 2c 26 5e bd 39 3a e1 3d
       0.08327083 -0.004863719 -0.054235622 0.10997433
0000b0 06 ac 4a bd 34 eb 2d bb a1 f5 af 3d 2b 01 ee 3d
       -0.04948046 -0.0026537897 0.08591772 0.116213165
0000c0 1e a8 49 3c 0c 2a 8e bd 42 9b 82 3d 6c d1 8a 3d
       0.012308149 -0.069416136 0.06377269 0.06778225
0000d0 7a 87 d1 3d 05 d0 aa 3d f4 9b fd 3c e2 d4 1e bd
       0.10230918 0.08340458 0.030958153 -0.03877724
0000e0 2c 3c 27 3e ec aa df 3d b2 fe 9c bd c8 b8 41 bd
       0.16331547 0.10921273 -0.07665767 -0.04729536
0000f0 fa d6 02 3d d2 51 e6 bc 2c 13 db bc 7a 76 6e 3d
       0.0319433 -0.028115187 -0.02674254 0.058218457
000100 6f ae 17 3e 31 d5 c7 3d 6f 89 8f 3d 98 c4 46 bd
       0.14812635 0.0975746 0.07008635 -0.04852733
000110 05 22 ae 3d 93 4a 9e 3d f2 61 0a bd 52 83 08 3e
       0.085025825 0.07729068 -0.033784814 0.13331345
000120 37 97 1d bd 5d 1e 24 3d fa d1 e5 3b c1 97 01 bc
       -0.038474288 0.04006802 0.0070135565 -0.007909716
000130 d4 e0 c7 3d 85 e4 4d 3c 50 7d 3f bd d7 cf 81 bc
       0.097596794 0.01256669 -0.046750367 -0.015846176
000140 f4 a1 59 3d ef d2 b3 3b 14 23 f2 3d 28 eb ca bd
       0.053132966 0.0054877917 0.11823097 -0.09908134
000150 7c 8d a4 bd 60 62 01 3d d7 77 28 3d d4 c7 06 3d
       -0.080347985 0.03158796 0.041129913 0.032905415
000160 96 63 7b 3d df c2 e6 3c 46 46 a8 bd 02 25 ad 3b
       0.06137427 0.028169094 -0.082165286 0.0052839527
000170 24 51 81 bd 6c 54 23 3d 10 4e b3 bd 4e 11 61 3d
       -0.063143045 0.039875433 -0.087551236 0.054948144
000180 4a 48 81 bb 94 e7 8c bd 60 66 73 bd 1d 21 57 3d
       -0.003945385 -0.068801075 -0.059423804 0.052521814
000190 e2 bb 8e bd 8d 79 bf 3c 7c 46 9d bc 0d 02 b8 bd
       -0.069694296 0.02337339 -0.019198649 -0.08984766
0001a0 11 04 01 3d 7e 61 d2 bc 89 7c 1b 3d 99 71 db ba
       0.03149802 -0.025681254 0.037960563 -0.0016742229
0001b0 cf af 88 3d 09 f2 fa 3d ba 23 dc 3d 80 f1 3b 3d
       0.06674158 0.12253196 0.10749002 0.04588461
0001c0 b6 7b 68 bd 33 d9 34 3d b4 a7 66 bb bb c6 29 3d
       -0.056758605 0.04415245 -0.0035195174 0.04144929
0001d0 70 53 60 3d dd 98 21 3d 85 cf b7 3d 41 5c 9c 3c
       0.054767072 0.039452422 0.08975128 0.019086959
0001e0 8d 55 0d 3e 44 c9 b4 39 45 0a af 3d a3 26 fa bc
       0.13802166 0.0003448223 0.08546881 -0.030536002
0001f0 90 85 68 3d 88 3d 0e 3e 6b d4 77 3d 85 06 6a 3d
       0.056768 0.1389066 0.060505312 0.057135124
000200 81 37 98 bb be 1d 97 3d 55 3c 0c 3e fe c7 04 3e
       -0.0046452885 0.0737872 0.1369489 0.12966916
000210 a8 29 85 3d 37 e6 e9 bc 3b 6a aa 3d 81 1d 94 3d
       0.06502086 -0.028552158 0.08321043 0.0723219
000220 3e 42 c5 3d ca 78 bd bd 5a 8c 34 3d 2c f4 ce 3b
       0.09631775 -0.09251554 0.044079162 0.0063157286
000230 94 ed 07 3e 04 ba 04 3e 3d 38 62 3d 08 57 79 3c
       0.13274223 0.12961584 0.055229414 0.015218504
000240 e4 64 51 bd 43 2d 90 bb bd ec bb bd 35 b7 c1 3d
       -0.051121607 -0.004399927 -0.091760136 0.09458772
000250 f9 03 9f bd 2e 89 c2 3d cb 68 07 3e b4 66 b5 bd
       -0.077644296 0.09498821 0.13223569 -0.0885748
000260 ee 2b ef 3d 23 e9 aa bd 0a b5 fd 3c 06 e1 fc 3d
       0.11678301 -0.083452486 0.030970115 0.12347607
000270 a2 64 5d 3d d1 06 a4 3d 3d 08 b8 3d 21 19 e6 bc
       0.05405105 0.080091126 0.08985946 -0.028088154
000280 46 ad 1d 3d a2 1e 3d bd 45 2d 7a bd 2e cd 32 bd
       0.038495325 -0.04617179 -0.06107833 -0.043652706
000290 38 2d 97 3c 8c 61 b6 3d 78 42 1b 3e 9e 5c 9a 3c
       0.01845418 0.08905324 0.15162075 0.018842991
0002a0 ed ef 7c 3d bd 58 b2 3d 9a dd c1 3a e8 75 00 3e
       0.06175225 0.08708332 0.0014790774 0.12544978
0002b0 6b 61 af 3d ee ee 9c bd b7 ee 82 bc ca 82 5e 3d
       0.08563503 -0.0766276 -0.015982969 0.05432395
0002c0 35 e7 ef 3c b9 61 2a bb 65 45 35 bd 11 cd 5c bc
       0.029285053 -0.0025998189 -0.044255633 -0.013476626
0002d0 48 36 07 bb 34 68 80 3c 4f b4 df 3c 6f 3d 36 3c
       -0.002063172 0.015674688 0.027307658 0.011123045
0002e0 b3 64 66 bd 79 b9 38 bc 18 8d 1a bc 22 42 e2 3c
       -0.056248378 -0.011274689 -0.009433053 0.027619425
0002f0 8c c4 86 3d ad 43 36 bd 1b 69 9f 3d 5b 9c 94 bd
       0.06580457 -0.044498134 0.07783719 -0.07256385
000300 54 5c 1d 3d 36 5e 07 3d 87 57 b9 3d 5f 31 a5 3c
       0.03841813 0.03304883 0.09049898 0.020165144
000310 4a 2b ab bc 17 99 b9 3d db d7 33 3d 56 ac d5 bc
       -0.020894665 0.09062403 0.043907028 -0.026083153
000320 47 41 7d bc 62 51 d4 3b 13 75 d9 3d cb a7 33 bd
       -0.015457458 0.006479428 0.10618033 -0.04386119
000330 32 4f 93 3d f2 35 c6 bc fb 49 18 3d 71 cf 2f bd
       0.0719284 -0.024195645 0.03717993 -0.04292244
000340 57 fa e4 bc e3 18 9e 3d 52 68 5a 3d 18 4e d0 3c
       -0.027951403 0.077195905 0.053322144 0.025427863
000350 93 53 cb bc c0 0b a9 bc ed 07 1b bd 69 53 82 bc
       -0.024820125 -0.020635486 -0.037849355 -0.015908914
000360 82 58 80 bd 24 db ac bc 25 43 7b bd 64 73 cf bb
       -0.062668815 -0.021100588 -0.06134333 -0.0063308943
000370 50 a3 ce 3d 1a 87 fb 3d 4a d0 02 3e 69 c8 01 3e
       0.10089743 0.12281628 0.12774768 0.12674107
000380 68 ba 20 3c 44 0e 23 3e 1f 34 0c 3e ac c3 a4 bd
       0.009810068 0.1592341 0.13691758 -0.08045134
000390 05 1b 11 3e 5c 7f 71 bd 40 f4 df 3d ad 7f 10 bd
       0.14170463 -0.05895935 0.10935259 -0.03527801
0003a0 9d a5 19 bd bb dd 95 3d 88 39 a4 3d 5f a6 94 3c
       -0.037511457 0.07317682 0.08018786 0.018145738
0003b0 0f 5d 76 3b fb 1d 40 3d b7 87 bf 3d 97 91 7a bd
       0.0037592088 0.04690359 0.093520574 -0.061174
0003c0 51 50 ce 3d c3 fb 9b bd 0e fe ef 3d d1 6b 91 3b
       0.10073913 -0.07616379 0.11718379 0.0044379015
0003d0 a5 0b d3 3d 90 17 a8 3d 4b 04 a8 bd 72 bd 48 bd
       0.103049554 0.08207619 -0.08203944 -0.049008794
0003e0 1e 9a 1f bd 10 53 9f bd 54 ad 9e 3c a8 4f 55 bd
       -0.038965337 -0.07779515 0.019369759 -0.05207792
0003f0 19 5e 61 3d 06 1e 78 bd b4 d4 11 bd be c7 cd bc
       0.05502138 -0.060575508 -0.03560324 -0.025119659
