federated-linkutil/heads/CHIN_head.pt (torch, 38837 bytes, 2 tensors)

head.weight f4 [36, 256]
00000000: cddd 1f3c 8217 a83d 6425 4b3d 30a8 303d
00000010: 383f 04bd b7a6 dfbc c122 b0bc 2fe2 e5bc
00000020: 65d4 953c 7fd2 873d 6df7 a23c fe10 773d
00000030: 26ef 243d 6741 b93b 7219 0b3d 7fee c43c
00000040: 288e 153d 985f 823c 0b86 9a3d 5a9f 7abc
00000050: b578 873d 09e8 923d 9940 613c 2185 4abd
00000060: 4b11 033c 933b 263d ac92 02bd 7742 9bbc
00000070: 4b7f afbb 73b5 8abc d0bd 4b3b 05d4 453b
00000080: 6d8d 3dbd 09e0 b93b ecd0 6bbd 7e8e 983d
00000090: 27bf b2bc b977 a0bb 8c13 943d 8901 763c
000000a0: 8b48 5abd d9c0 4c3d 208c 6ebd 5180 a83d
000000b0: 4cfc 1abc 8eab 953d 3130 563d 7d1c f0bc
000000c0: 2e46 31bd 43cb a03d 4686 3c3d dd1a 94bc
000000d0: c2b6 663d da63 763d 0923 7f3c cc8c 25bd
000000e0: 2c67 c3bc bebf 823d 4588 06bd 77c3 393d
000000f0: a85b 423d ca48 c9bb 1892 8c3d 9a47 10bd
00000100: 8c05 9d3d cbf4 f6bc 9185 e0bc 2cb0 853d
00000110: deaf 873d e30c 08bc e30a 623a f054 8a3d
00000120: 4acf 52ba 1ff8 943d b202 1c3d 0fbd 933d
00000130: 7bae d9bc 6a2c d73c 872d 9a3b cc37 57bb
00000140: 6d2e 4f3c 4450 00bd 6ca9 cbbc a069 133d
00000150: e01c 6a3c 6ae9 3b3d b66f 1cbd 22c0 063d
00000160: e48f 23bd b988 c6bc 5039 eabc 373a 01bc
00000170: 9980 0f3c dfc9 02bc a678 863d c62d c4bc
00000180: 10a3 b83c 9a72 f4bc 145e 383d 7db4 b73c
00000190: d5f7 e43b d61d 8e3d ca79 7b3d f471 883d
000001a0: 2370 993c d57c a33d 7306 4f3d ad4f 5a3d
000001b0: 6496 8f3d 706b 0c3d 2e62 63bd 0f26 023c
000001c0: 4dea a83d 55fa 343d 655c 3b3d 7e68 2c3d
000001d0: a363 3f3c 5700 613d eb6b a5bc f826 ce3c
000001e0: eaef 4f3c bb58 3bbd ffb4 c03c 29b5 743c
000001f0: dafc 083c 8c05 1bbd 8f77 02bd dd4e 893d
00000200: 088b 8dbc 984e 843d 971d 993d aa5c 4cbc
00000210: ba34 5a3c bda3 f1bc 99fd dd3c 0377 60bd
00000220: 423c 50bd 69d5 0fbd fba8 31bd 3a2f 723d
00000230: ebbd 18bd b31e c0bc c40b 353c 9254 873d
00000240: 2a22 373c c424 5abb c543 713d af89 383d
00000250: 3d9b 403d 6de7 27bc 1056 1cbd 5996 9fbc
00000260: e31c 9a3d da83 74bc 2e01 2d3c a1b1 1a3b
00000270: feed ea3c d27e 943c 1bc3 d2bb b7f2 a0bc
00000280: 78dc 093c bcdc d53c 9c1f 953d 480d 843c
00000290: c346 4dba ff0c 9dbc 93a7 893c 4f0f dfbc
000002a0: 4013 0dbd d79f 9fbc 3da6 9e3d 1b04 1e3d
000002b0: 7164 0ebd 79f8 7c3d 5266 433d 75d3 09bd
000002c0: 10bc 31bd 8079 3a3d 88a6 393d de53 e3bb
000002d0: cd3d 82bc 3c9c 1abb 36a5 a13d d272 a33c
000002e0: 4c42 d13c 4148 163c 9e38 153d d96b 8c3d
000002f0: 4c3a 3ebd 7f9a debc 2876 acbc c080 19bd
00000300: 1e68 403d 8100 8a3d 4377 b5bb 7aef 6f3d
00000310: 6265 433d c45e dbbc 6e9b 6f3d a61a 9abb
00000320: bfd3 3f3d dc1f 3f3d 6832 ca39 dd82 703d
00000330: 70ca 7ebc 13bd 863d de92 9b3d 4e6e 83bc
00000340: 495a 553d 493d 99bc cc8f 5e3d 2432 1fbd
00000350: 2746 693d a2c4 b03c c791 ee3b 5098 a93d
00000360: 8910 32bd d1f0 273d 4866 8a3c 8544 933c
00000370: df62 f1bb f8ce 8c3d e8c2 23bd 3d0c 033c
00000380: 95f5 563d 0c46 a63c 5394 943d 1348 973c
00000390: 819b 553d 2376 353d 3cef 383d f0de 523d
000003a0: 0b7b 0bbc b420 503a 0a04 1dbd e14f 7739
000003b0: 196e 16bd a1c9 82bb 8e12 03bc d89a a33c
000003c0: d19f 053d 1f43 cb39 c8cf 303c f9ec 7d3d
000003d0: dfc2 5b3d ebee 473d 5646 54bc a7fd 413d
000003e0: 109e 263d dde0 07bd 75f1 653d 609b 193d
000003f0: fc10 e4bc 07bf eb3c bb53 a0bb ed6a 1c3d
0.009757471 0.08207609 0.049596205 0.043129146 -0.032286853 -0.027301176 -0.021500947 -0.028061954
0.018289754 0.06631946 0.019893372 0.06031894 0.040267132 0.0056535485 0.033959813 0.024039505
0.036512524 0.015914723 0.07545098 -0.015296781 0.0661482 0.071731634 0.013748311 -0.049443368
0.007999728 0.04058416 -0.03187816 -0.018952591 -0.0053557507 -0.016932225 0.003108848 0.0030186188
-0.046277452 0.005672459 -0.05757229 0.07449053 -0.021819664 -0.0048970846 0.07230291 0.015015014
-0.05329184 0.0499886 -0.058239102 0.082275994 -0.009459566 0.07308112 0.052292053 -0.02931046
-0.04327982 0.07851269 0.04602649 -0.018079216 0.056326635 0.06015382 0.015572318 -0.040417477
-0.023852907 0.06384228 -0.0328448 0.045352425 0.04745069 -0.0061427103 0.06863803 -0.035224535
0.076670736 -0.030146023 -0.02740744 0.06527743 0.06625341 -0.008303854 0.0008622838 0.06754482
-0.0008041753 0.07273888 0.038088508 0.072137944 -0.026572457 0.026266295 0.0047051343 -0.0032839654
0.012645346 -0.031326547 -0.02486106 0.035989404 0.014289111 0.045876898 -0.038192473 0.032898076
-0.039932147 -0.024235116 -0.028591782 -0.007887415 0.008758687 -0.0079827 0.065659806 -0.023947608
0.022538692 -0.029839803 0.045011595 0.02242493 0.0069875517 0.069392845 0.061395444 0.0666236
0.018730229 0.07982794 0.05054326 0.05329864 0.070111066 0.034282148 -0.055513553 0.007943644
0.08247814 0.044184048 0.04574241 0.04209184 0.01168147 0.054931965 -0.02019306 0.025165066
0.012691477 -0.045738917 0.023523806 0.01493577 0.008361066 -0.037847087 -0.0318523 0.06704495
-0.01727821 0.06460303 0.07476347 -0.012473265 0.013318235 -0.029497022 0.027098464 -0.054801
-0.050838716 -0.035115633 -0.043374043 0.05912707 -0.037290495 -0.023452139 0.011050168 0.066079274
0.011177579 -0.0033286074 0.05890252 0.04505318 0.047023047 -0.010248047 -0.038168013 -0.019480871
0.07525041 -0.014924014 0.010559363 0.002360441 0.028677937 0.018126879 -0.00643195 -0.019646985
0.00841438 0.02610623 0.0728142 0.016119614 -0.0007830674 -0.019171236 0.016803538 -0.02722898
-0.034442186 -0.019485397 0.07746551 0.038578134 -0.034763757 0.0617604 0.047705002 -0.033648927
-0.04339224 0.045526028 0.045324832 -0.006937488 -0.01589861 -0.0023591658 0.078928396 0.019952212
0.025544308 0.0091725 0.036430947 0.06856508 -0.046442315 -0.027173279 -0.021052435 -0.0374763
0.046974294 0.06738377 -0.0055378987 0.058577992 0.047704108 -0.026778586 0.05849784 -0.004702884
0.046832796 0.046661243 0.00038565998 0.05871855 -0.015551195 0.06579032 0.07596372 -0.016043808
0.052088056 -0.01870598 0.054336354 -0.038866177 0.056951668 0.021578137 0.0072805616 0.082810044
-0.0434728 0.041001145 0.016894475 0.017977009 -0.0073665227 0.06875414 -0.0399808 0.007998523
0.0524803 0.020297073 0.07254853 0.018466985 0.052150253 0.044302117 0.045150027 0.05148214
-0.008513222 0.00079394435 -0.03833393 0.00023585513 -0.03672609 -0.003991321 -0.008000029 0.019971296
0.032623116 0.00038769186 0.010791726 0.061993573 0.05365264 0.048811834 -0.0129562225 0.047361042
0.040678084 -0.03317343 0.056138474 0.037501693 -0.02784013 0.028777612 -0.004892794 0.03818791

head.bias f4 [36]
00000000: eed5 393d 9fc9 033c 072b 093d 0470 183d
00000010: 0193 0f3d 587f 383b 6078 ccbc 016a 463c
00000020: 6459 563c f259 bd3c 84a5 cebc b22a 9fbd
00000030: 68ce 1cbd 3e06 6abd 2552 2d3d b5ac f53c
00000040: 3b6a 1fbd bfe6 e53c d04f 0c3c 08f9 b9bb
00000050: e823 d03c 3596 543b c72c 303d a6af 8fbb
00000060: be82 26bd 98ec a5bd b42c 2a3d 570f 64bc
00000070: 9d07 29bd e71a 16bd c711 863d e14e 5cbc
00000080: 2f8d 5c3d 3163 01bd 6186 b1bc 6330 813d
0.045370035 0.008043676 0.0334883 0.0372162 0.035052303 0.0028152075 -0.024959743 0.012110234
0.013082836 0.023114178 -0.025225408 -0.07771815 -0.03828278 -0.05713486 0.042314667 0.02998958
-0.03891967 0.02806413 0.008563951 -0.005675439 0.025407746 0.0032438163 0.043011453 -0.0043849526
-0.04065203 -0.08101767 0.04154654 -0.013919673 -0.041267026 -0.03664675 0.065463595 -0.013446541
0.05384558 -0.031588737 -0.021670522 0.06308057
