federated-linkutil/heads/DENV_head.pt (torch, 36789 bytes, 2 tensors)

head.weight f4 [34, 256]
00000000: 4a05 bb3c e9ed d8bd d76c a53b 27bf 0fbd
00000010: 9546 3ebd 5c2c a8bc 2cd1 c9bc 8434 0a3c
00000020: f26f 5abd d208 f9bc 8139 283c 429e a9bd
00000030: b4c1 2b3c 5f55 a5bc b34a a8bd 1aa6 bdbd
00000040: 76e4 c13c 26dc c7bd ff1a b8bc 32c1 03bd
00000050: f9d5 7fbd 3bee d7bd ca17 3fbd 0e22 363c
00000060: e4b0 5f3d 07f1 053d c3ae 633d b8d8 c0bd
00000070: c5aa 963a 1820 813c 66a3 50bd 03df a2bc
00000080: 2c9c 493c fecd a7bd 1ea4 d93c 08fb abbd
00000090: 8631 79bd 1d39 b3bb cf3b 70bd a2de 033d
000000a0: 8e92 273d b737 f8ba 9705 afbd 5db2 dabd
000000b0: d7a5 c43b 5642 953c 9452 be3c 4088 46bc
000000c0: 7691 e4bc 234c f0bb 089c 4cbd 017a 34bd
000000d0: 5733 cbbd 1049 3d3d 8ee8 16bc 07ff 7a3c
000000e0: 7214 52bd 4be8 b23c 801b 833c 83c2 1dbd
000000f0: 3124 c9bc 88b0 423d b863 f43a 2c40 14bd
00000100: 9930 94bd 104c 20bd 395d abbc 4f7d 1ebc
00000110: 139c 373c 2994 9dbd 9d34 50bd 36ea 56bd
00000120: 4699 d9bc 7766 6cbd 80de a4bd c845 223d
00000130: 9e93 253d 7cbf 0cbd 57cb ecbb 1429 813c
00000140: 43cf 93bb a1e6 91bc 0841 3dbb 4c77 ed3c
00000150: 7fba 5a3d 25cd 6ebc bc0f 20bd abce 22b8
00000160: 487f 3cbd baef 163c dd6c 823c 8204 52bd
00000170: 643b a4bd 43fc aa3c e40e 8ebd d98b 82bc
00000180: ff71 2dbd 3aee a1bd 2bdd 093d e129 4fbd
00000190: b593 cbbc e3a6 b0bc cc4d 54bd d3e5 acbd
000001a0: 6612 5c3d 4704 2cbc 1e6c aebd 8d17 233c
000001b0: c847 a0bd 47c6 3b3c 443f 5abd 898f 43bc
000001c0: a82b 84bd 163b 3abd 402a 94bc 6c52 8abd
000001d0: ec06 8dbd 5820 5abd 7d80 1a3c 3f1a 173d
000001e0: a59d 62bc c707 4d3d 6c4b 89bc 72d0 03bd
000001f0: 9b38 0d3b cc99 5bbc 1c11 58bd cd73 87bd
00000200: 722a 81bd 995e 293d 3335 533c 5f3d 32bd
00000210: 516c 5cbd 2310 8bbd 2f17 9b3c f266 6ebd
00000220: 09da 60bd 8bb0 a43c c628 68bd 00d9 c93c
00000230: 5556 663d a276 f63c 8eb9 3cbc 4b8f 0cbd
00000240: af39 bcbb 4cc5 7f3c 1775 163d 49d6 5dbd
00000250: 5f42 90bd 12a1 703c 9623 3b3c d79e f53a
00000260: a0e0 9d3c 86c0 5f3d aa5e eb3b 5a11 23bd
00000270: 3057 d9bb 7330 7cbd e2e8 0dbd 4b74 7cbd
00000280: 99a4 413d 7ead 113d a31e 81bd df6a 463c
00000290: 2c40 443d 0fb8 7b3b efa1 ba3c f4f6 37bd
000002a0: ea1f 363c cf4b 43bd e312 b3bc b3f2 cabc
000002b0: 8100 2b3c 35f4 9ebc 64db 0c3d 5845 62bd
000002c0: 8a8b 433c 21ea dcbc c062 7ebd ea5d cdbd
000002d0: 5f96 033c fa16 023c 5732 c2bc cf03 a5bd
000002e0: 2fee b93c c728 26bd 9ddb 54bd 40d6 84bc
000002f0: e45b 203d bcd1 923b baef 0abd 9ecf 2abd
00000300: db3d 39ba e3be bebd 1c06 71bd d59f ebbc
00000310: 30ab e53b ca4d 2d3d 2bd5 d2bb 4a9a 2ebd
00000320: bd41 6abc cc9c d93c 2a1e 2bbd 0d0f b9bd
00000330: 38ca 39bd fa3f a6bd b609 9dbd ac01 85bd
00000340: b28b 38bd 7f4e e0bd ad39 d33b 1000 c33c
00000350: 9e3b 13bd a67a 94bb 18c2 5abd 09cf f13b
00000360: 54e1 91bd 5b59 9fbd f26c 94bd a104 373c
00000370: bbed 413c b55e e6bc a88d 49bd d9f8 81bd
00000380: 08b0 943c f7d8 a3bd b0b6 acbd cd34 423d
00000390: 351b 9ebd 38a2 b2bc 981d e7bc 96b1 8fbd
000003a0: b339 963a cfed efbc c001 6abb 58ec 293d
000003b0: 6d6d 95bd c6e7 5ebd 08ec 93bd 2888 94bb
000003c0: 0d85 81bd b9c1 acbd 9e8a 953c 9da8 3abc
000003d0: 3afa b9bd 388c 20bd 9602 2fbd 28ff aaba
000003e0: 2d3f 25bc c1e4 86bd 3a6d ddbc b216 973c
000003f0: 6c3f a43c 0409 1bbd bc25 893c ed2c 06bd
0.02282967 -0.10592253 0.005048375 -0.035094406 -0.04645403 -0.020528965 -0.024635874 0.008435372
-0.053329416 -0.030399714 0.010267616 -0.082821384 0.010483194 -0.02018231 -0.08217373 -0.09260197
0.023668509 -0.09758787 -0.02247381 -0.032166667 -0.06245992 -0.10543486 -0.046653546 0.011116518
0.054612055 0.032700565 0.055586588 -0.09416336 0.0011494985 0.015762374 -0.05093708 -0.01988173
0.012305301 -0.08193587 0.026567515 -0.0839749 -0.060838245 -0.005469455 -0.058650788 0.03219474
0.04091125 -0.0018937503 -0.08545988 -0.10678551 0.006001215 0.018220108 0.023232736 -0.0121174455
-0.027901392 -0.007333295 -0.04995349 -0.044061664 -0.09921902 0.046212256 -0.009210719 0.015319592
-0.05128903 0.021839282 0.016004324 -0.03851558 -0.02455339 0.047531635 0.0018645441 -0.03619401
-0.07235832 -0.03913504 -0.020918475 -0.009673431 0.011206645 -0.07694275 -0.050831426 -0.052469455
-0.026562344 -0.057714906 -0.08050251 0.03961733 0.04042398 -0.0343623 -0.0072263884 0.015766658
-0.0045107915 -0.017810168 -0.0028877873 0.02898755 0.053400513 -0.014575277 -0.039077505 -3.8816284e-05
-0.046019822 0.009212429 0.01592105 -0.05127383 -0.0801914 0.02087224 -0.06936434 -0.015935825
-0.042345043 -0.07906766 0.033658188 -0.05057705 -0.024850706 -0.021563953 -0.051832005 -0.08442273
0.053728484 -0.010499067 -0.085167155 0.009954345 -0.07826191 0.011460847 -0.05328299 -0.011936077
-0.06453639 -0.045466505 -0.018086553 -0.06754002 -0.06886086 -0.0532535 0.009430048 0.036890265
-0.013831531 0.050056245 -0.016759597 -0.03218121 0.0021548632 -0.013403367 -0.05275069 -0.06613884
-0.06306924 0.04134998 0.012891102 -0.04351556 -0.053814236 -0.06790187 0.018931953 -0.058203645
-0.054895435 0.020103713 -0.05667951 0.024639606 0.056234676 0.030085865 -0.011518849 -0.034316342
-0.005744181 0.015611004 0.03673276 -0.054159436 -0.07043909 0.01468684 0.011422059 0.0018739355
0.019272149 0.054626964 0.0071829157 -0.03981147 -0.006632708 -0.061569642 -0.034645922 -0.061634343
0.047276113 0.035565846 -0.063046716 0.012110441 0.04791276 0.0038409268 0.022782294 -0.044913247
0.011116007 -0.04767972 -0.021859592 -0.024773931 0.010437132 -0.019403556 0.034388915 -0.055241913
0.011935124 -0.02696711 -0.062105894 -0.10027678 0.008031457 0.007940048 -0.023705645 -0.08057367
0.022696583 -0.040566232 -0.051967252 -0.016215444 0.039150134 0.0044805687 -0.033920027 -0.041701905
-0.0007066407 -0.093137525 -0.058843717 -0.028762737 0.0070089325 0.042310514 -0.006434103 -0.04262761
-0.0142979 0.026564024 -0.041776814 -0.09036074 -0.045358866 -0.08117671 -0.07667868 -0.064944595
-0.0450551 -0.10952472 0.0064460845 0.02380374 -0.035945527 -0.0045312224 -0.05340776 0.007379417
-0.07123056 -0.07780715 -0.07247342 0.011170537 0.0118364645 -0.028121332 -0.04920736 -0.06346292
0.018150344 -0.08000367 -0.084332824 0.047413636 -0.07720033 -0.021805868 -0.028212354 -0.07016294
0.0011461288 -0.0292882 -0.003570661 0.04148516 -0.07296262 -0.054420255 -0.07222754 -0.0045328327
-0.063242055 -0.08435387 0.018254574 -0.01139274 -0.0908093 -0.039196223 -0.042727076 -0.0013046013
-0.010085863 -0.065866 -0.027029622 0.01844344 0.020049773 -0.037850395 0.016741626 -0.03275769

head.bias f4 [34]
00000000: 21e9 0abd 92e2 89bd ea6c 913d 2d65 b0bc
00000010: 563e 42bd 0635 913d fc4c 613b d547 71bd
00000020: 0bed 853c 4e4a 3e3c 7d27 77bd ebaf 36bd
00000030: 6e9d 993d ae91 a3bd cd8d 84bd f98b 643d
00000040: 2242 923d 47ba 8f3d 4268 8dbd e0a4 ce3d
00000050: 8684 57bd 74e4 b8bc ab73 8e3d cb00 6b3d
00000060: baad a93d a488 b2bc 68eb ec3c dab9 a13d
00000070: a00f 36bc a02d 773c dc46 9e3d 495d c93c
00000080: 5344 dc3c eeef 4abc
-0.033913735 -0.06732668 0.07100852 -0.02153262 -0.04742273 0.070901915 0.0034378162 -0.058906395
0.016348382 0.011614395 -0.060340393 -0.044601362 0.075007305 -0.079867706 -0.06472359 0.05579755
0.0714152 0.070179515 -0.06904651 0.10090041 -0.05261662 -0.022569872 0.06955656 0.057373803
0.08285089 -0.021793671 0.028920844 0.078967765 -0.011112124 0.015086561 0.07728359 0.024580615
0.026888048 -0.012386305
