federated-linkutil/heads/HOUS_head.pt (torch, 37813 bytes, 2 tensors)

head.weight f4 [35, 256]
0	0x3c52ed14	0.012873907
1	0x3d68003b	0.056640845
2	0x3d9adb44	0.07561353
3	0xbd6705ce	-0.05640202
4	0x3b17f205	0.0023185026
5	0x3d023bea	0.03179542
6	0xbd9f98ea	-0.07792838
7	0x3cacfdfc	0.021117203
8	0xbd5f91d0	-0.054582417
9	0xbdc629b8	-0.09675926
10	0x3c889b6d	0.016675675
11	0xbc20a6d1	-0.009805397
12	0x3d568744	0.052375093
13	0xbd10d7f9	-0.035362218
14	0x3c870905	0.016483793
15	0x3c3938b1	0.01130502
16	0x3cdb0fcc	0.026740931
17	0xbcd403c8	-0.02588071
18	0xbd7b1511	-0.061299387
19	0xbc7b9b9b	-0.015356923
20	0x3d240c5b	0.040050846
21	0x3d9ce30d	0.07660494
22	0xbd1fc117	-0.039002504
23	0xbda1c7e7	-0.078994565
24	0xbd861002	-0.06546022
25	0x3cc4b4e1	0.024012031
26	0xbd443ccd	-0.047909547
27	0x3d11f43f	0.03563332
28	0xbd95ba7c	-0.0731096
29	0x3bc7b8bc	0.00609502
30	0xbaa17c99	-0.0012320458
31	0xbd94fcd9	-0.07274789
32	0x3da6227f	0.08112048
33	0xbd442f43	-0.047896635
34	0xbc6a3e6b	-0.014297108
35	0x3cf33784	0.029689558
36	0x3bbbd7c4	0.0057325084
37	0x3d07b806	0.033134483
38	0x3d8a0ef2	0.06741132
39	0xbd459fb3	-0.048248004
40	0xbd9efb65	-0.077627935
41	0xbd944c6f	-0.07241141
42	0x3d657f8c	0.05602984
43	0xbdbd5747	-0.092451625
44	0x3d3bb257	0.045824375
45	0xbda738a6	-0.08165102
46	0xbe24177d	-0.16024585
47	0x3c25b405	0.010113721
48	0xbcb56be8	-0.02214618
49	0x3d39563a	0.045248248
50	0x3d88bab8	0.06676239
51	0xbd998b2e	-0.074972495
52	0xbd6db00d	-0.058029223
53	0xbdd8f26a	-0.10593112
54	0xbe06f24c	-0.13178366
55	0xbd9a4eba	-0.07534547
56	0xbd2f4480	-0.042789936
57	0xbc6c79f7	-0.014433376
58	0xbd6de684	-0.058081165
59	0xbd94bc0a	-0.07262428
60	0xbd9ef7f6	-0.077621385
61	0x3c94d4ac	0.018167816
62	0xbe0d1406	-0.1377717
63	0xbce3a05f	-0.027786432
64	0x3c3ae4d7	0.011407099
65	0xbcff1c13	-0.031141317
66	0xbd5d626c	-0.05404894
67	0xbcb8d735	-0.022563556
68	0x3d943a29	0.07237656
69	0x3d6f223c	0.058382258
70	0x3c1102f2	0.0088508
71	0xbd0a0c69	-0.03370324
72	0xbd9f717c	-0.07785317
73	0x3d806d7b	0.06270882
74	0x3d7f0d55	0.062268574
75	0xbcdc4ac5	-0.026891122
76	0xbd03d73a	-0.032187678
77	0x3cfdfe07	0.031004919
78	0xbcacbbed	-0.021085704
79	0xbaaec2a2	-0.0013333152
80	0x3c3db87e	0.011579631
81	0x3c99d316	0.018777411
82	0x3d04d9c0	0.032434225
83	0xbd3e89e0	-0.046518207
84	0x3bec7086	0.0072155623
85	0x3d387a64	0.045038596
86	0xbc309a51	-0.010778979
87	0xbd88c592	-0.066783085
88	0xbcee3a56	-0.029080551
89	0x3cd71502	0.026255134
90	0xbdbaec31	-0.09127081
91	0x3c90729e	0.017632779
92	0x3d4573eb	0.04820625
93	0x3d4d4ec1	0.050123934
94	0xbd2796f2	-0.040915437
95	0x3c9fff40	0.019530892
96	0x3c935c03	0.01798821
97	0x3d4feb07	0.05076125
98	0x3c8a986c	0.016918384
99	0xba9b6b94	-0.0011857622
100	0xbd271bb9	-0.040797923
101	0xbc55103e	-0.013004361
102	0xbc647350	-0.013943508
103	0xbd032de4	-0.032026187
104	0x3c65e8d9	0.014032566
105	0x3c51231a	0.0127647165
106	0xbd5e8104	-0.054322258
107	0xbd914927	-0.07094031
108	0xbb6c9ebc	-0.0036105355
109	0xbcfe2e71	-0.031028004
110	0x3cd98d77	0.026556714
111	0xbd7c53fd	-0.061603535
112	0x3cff588a	0.031170148
113	0xbc84d861	-0.016216459
114	0xbd0c782b	-0.03429429
115	0xbd745afe	-0.05965709
116	0xbd25e6f7	-0.04050347
117	0x3a629920	0.0008644033
118	0xbd975eb5	-0.07391111
119	0xbd846ec1	-0.06466437
120	0x3c77ea72	0.01513158
121	0xbc81b7b5	-0.015834669
122	0xbda84786	-0.08216767
123	0x3989b28e	0.0002626371
124	0x3d27c20b	0.04095654
125	0xbc73b315	-0.014874239
126	0x3c509b58	0.012732349
127	0xbd357417	-0.044300165
128	0x3cad92b0	0.02118811
129	0x3d829077	0.06375211
130	0x3c6b0e4d	0.014346671
131	0x3c528d02	0.012851002
132	0xbdab32a4	-0.08359268
133	0xbd7da749	-0.061927114
134	0xbd217e34	-0.039426997
135	0xbd2d8a32	-0.04236812
136	0xbd922b5b	-0.07137176
137	0xbcce4ae5	-0.025182197
138	0xbd072f77	-0.03300425
139	0xbd11fa3d	-0.035639036
140	0xbbb6be28	-0.0055768676
141	0x3d41b5d1	0.047292534
142	0x3be1b4ec	0.0068880226
143	0x3d76f6a9	0.060293827
144	0xbd33eccc	-0.043927
145	0xbde2fa36	-0.1108288
146	0xbca41af1	-0.020032378
147	0x3d74bba1	0.05974925
148	0x3b6c5098	0.003605878
149	0xbc269337	-0.010166935
150	0xbcf66bfa	-0.030080784
151	0xbd139711	-0.03603274
152	0xbbd1e1c7	-0.0064050886
153	0x3bf295f6	0.0074031306
154	0xbd9d1e6a	-0.07671817
155	0xbd71d5bf	-0.059041735
156	0xbd8ece76	-0.06972973
157	0xbd240985	-0.04004814
158	0xbd55279c	-0.052039728
159	0xbd801a12	-0.062549725
160	0x3d6d6c83	0.057964813
161	0xbc4ee377	-0.012627474
162	0xbc7aa038	-0.015296988
163	0xbd3817b0	-0.044944465
164	0xbd1ea0b0	-0.038727462
165	0xbca8e000	-0.020614624
166	0xbd02aa0f	-0.03190046
167	0xbd997390	-0.07492745
168	0xbd04ac83	-0.032391082
169	0xbd62eb73	-0.055400323
170	0x3d4828ac	0.048866913
171	0x3cd3aa12	0.025837932
172	0x3d7998f9	0.0609369
173	0xbd0ddbb3	-0.03463335
174	0x3d0f821e	0.0350362
175	0xbd612ca6	-0.05497422
176	0xbc811a81	-0.015759708
177	0xbdc85dc7	-0.097835116
178	0x3d18ab22	0.03727258
179	0xbd495ccd	-0.049160767
180	0x3cae9358	0.021310493
181	0xbc9837d3	-0.018581307
182	0x3d138c1a	0.036022283
183	0x3d880a40	0.0664258
184	0x3c1df3cc	0.009640645
185	0x3b246363	0.0025083653
186	0x3cdd4553	0.027010595
187	0xbd911a27	-0.07085066
188	0xbcdd774e	-0.027034428
189	0xbb05a1da	-0.002039066
190	0x3cd15821	0.025554718
191	0xbc8b12c7	-0.016976727
192	0xbcd01133	-0.025398826
193	0xbd17440b	-0.036930125
194	0x3c2d8154	0.010589916
195	0x3cb94c94	0.022619523
196	0x3d0ac655	0.03388055
197	0x3cb955c1	0.022623898
198	0x3bc81d57	0.006107013
199	0x3d1d7752	0.03844387
200	0x3ba6fb78	0.0050958954
201	0x3d0c426d	0.034243036
202	0xbd6ae025	-0.057342667
203	0xbd80a170	-0.06280792
204	0xbd751665	-0.05983581
205	0xbba6133d	-0.0050682114
206	0x3bcc7196	0.0062391264
207	0x3bdfaa10	0.006825693
208	0x3c076942	0.0082648415
209	0x3ce7c812	0.028293643
210	0x3bf6379a	0.0075139524
211	0x3d162820	0.03665936
212	0xbd7aefe1	-0.061263923
213	0xbd4d5e87	-0.050138976
214	0xbcb89532	-0.02253208
215	0x3d74a5d7	0.05972847
216	0xbd20e3a7	-0.039279606
217	0xbdf637ca	-0.1202236
218	0x3d2fb429	0.042896423
219	0x3b7872c1	0.0037910196
220	0x3d3115ab	0.043233555
221	0xbbe5565d	-0.0069988207
222	0x3c06b620	0.008222133
223	0x3c919fc7	0.017776383
224	0xbd229320	-0.03969109
225	0x3c7b1165	0.015323971
226	0xbd1f2c2b	-0.03886048
227	0xbe04c364	-0.1296516
228	0xbd1fa27b	-0.038973313
229	0x3b320583	0.002716393
230	0x3c0875f1	0.008328901
231	0x3d1c6103	0.038178455
232	0x39f123e0	0.0004599383
233	0x3cf01e9c	0.02931147
234	0xbc9bc2f3	-0.019013857
235	0x3d24d8ea	0.040245928
236	0x3cb1a199	0.021683501
237	0xbc57845a	-0.013154114
238	0xbc55ec4a	-0.013056824
239	0x3cc616c0	0.02418077
240	0xbdbeb035	-0.093109526
241	0xbbece557	-0.007229488
242	0x3ca2d1c8	0.019875422
243	0x3d81fa0a	0.06346519
244	0x3d1ddf8e	0.038543276
245	0x3d456f55	0.048201878
246	0xbe06f253	-0.13178377
247	0xbd9570df	-0.07296919
248	0x3d92e5a4	0.07172707
249	0xbdd3f4c3	-0.10349419
250	0xbc4b739e	-0.012417702
251	0xbc88705f	-0.016655145
252	0x3db31333	0.08743896
253	0xbd02ea5a	-0.031961776
254	0x3d45c59d	0.04828416
255	0xbc98d70c	-0.01865723

head.bias f4 [35]
0	0x3e15ad48	0.14616883
1	0x3e55f998	0.20895994
2	0xbe3c903d	-0.18414398
3	0x3e5abd13	0.21361189
4	0x3e1538e6	0.14572486
5	0x3e2701e7	0.1630932
6	0xbe5472b0	-0.20746875
7	0xbe1f0ed8	-0.15533006
8	0x3e0841e7	0.1330639
9	0x3e0705fe	0.1318588
10	0xbe00e05f	-0.12585591
11	0x3dca2deb	0.098720394
12	0x3e203996	0.15646967
13	0xbdaf6a0f	-0.08565151
14	0x3e421ad5	0.18955548
15	0x3d9abab1	0.0755514
16	0x3e0e7619	0.13912238
17	0xbe11d67d	-0.14241977
18	0x3e3b5709	0.1829492
19	0x3db28497	0.08716696
20	0xbdb7db2b	-0.0897735
21	0x3e24c230	0.16089702
22	0x3ddd493c	0.10804984
23	0xbe8e0c3c	-0.2774371
24	0x3da03a15	0.07823578
25	0x3dcaf944	0.09910825
26	0x3e712944	0.23550898
27	0x3e4a3025	0.19744928
28	0xbe487ee1	-0.1957965
29	0x3df22236	0.118229315
30	0x3df7e9e5	0.12105159
31	0xbe886be8	-0.26644826
32	0x3dc8bba1	0.098014124
33	0x3def7bcc	0.11693534
34	0x3ddfad79	0.10921759
