federated-linkutil/heads/KSCY_head.pt (torch, 31605 bytes, 2 tensors)

head.weight f4 [29, 256]
0.05341994 0.036179405 0.04304119 0.061937746 -0.02478003 -0.030689595 0.014351705 0.012266433
0.007428766 0.0040354924 0.021559885 -0.031177852 0.035860784 0.062122703 0.03613566 -0.016945941
0.055225935 0.008030818 0.0034381847 0.019751634 -0.015008789 0.08241261 0.0374877 -0.056641553
0.031866595 -0.009806395 -0.028675273 -0.056442544 0.06458629 0.045532115 -0.03141483 0.019528005
-0.013615703 -0.07381424 0.044061575 -0.026227621 -0.042394623 -0.028322546 -0.079822056 0.042534444
0.0010372165 -0.041896258 0.020834053 -0.0058973487 -0.04900315 -0.048734643 -0.007531178 -0.05206134
-0.014179073 -0.002823209 0.04460318 -0.045693 0.036821328 0.04889949 -0.016730301 0.0028022404
0.021784956 0.021812908 0.027005823 0.05175339 0.07063622 -0.037989825 0.0038371207 -0.03710311
-0.0014887246 -0.06467476 0.022802189 -0.03604425 0.007999386 0.0049886336 -0.07483516 -0.0063102
-0.054579552 -0.02028167 -0.03213957 0.027966077 0.07714058 2.9899185e-05 0.018544042 -0.02605557
0.04971504 0.04462558 0.0031129683 0.053931344 0.029368028 -0.010699777 -0.010807059 0.020468282
0.042552695 -0.042045336 0.0055958126 0.05211521 0.004300235 0.060328867 -0.033903185 0.019697081
0.00975915 -0.0028568893 0.038215842 0.070501864 -0.020342203 0.009371768 0.017015697 0.019900769
-0.0010103881 -0.05680674 0.0106773805 -0.025721764 0.052404672 -0.020326111 -0.009912846 -0.04625907
-0.028601542 -0.07113108 0.030448098 0.017149422 0.058585957 0.043000463 -0.032222565 0.068379685
-0.018477004 0.020321924 0.07312292 -0.041944295 -0.022846043 -0.00095603307 0.0540942 0.014707269
-0.05825951 -0.017384447 -0.045129877 -0.039430402 -0.028625714 -0.05569624 0.036291532 -0.050414603
0.031347066 0.06443673 -0.02299191 -0.002683238 0.0028196073 -0.048830077 -0.032987088 0.004257995
-8.490594e-06 -0.043545734 0.027824119 -0.015632385 -0.047499906 0.06539331 0.0013056732 -0.038236313
-0.06660295 -0.054563362 0.02449212 0.035002604 0.0075939083 -0.010853774 0.017275425 0.034613803
0.033621497 0.0030446341 -0.0394569 0.06958503 -0.037334085 0.009375884 0.038143832 -0.054914113
0.013560179 0.0048377467 0.010817852 -0.014267508 -0.050445717 -0.057140082 0.014969611 -0.03749342
0.014473394 0.04181282 -0.029245121 -0.041937556 -0.009852983 0.035681672 -0.00066065975 -0.0056866365
0.04352852 -0.008758725 -0.047637623 -0.025944782 -0.039761383 -0.047040857 0.049893443 -0.009310716
-0.030701933 -0.04392305 0.059349813 0.045257397 0.00300071 -0.012441314 0.05211074 -0.04415436
-0.03969359 0.05962801 -0.023389248 -0.05668043 -0.041702516 -0.023458105 0.057859994 -0.032916825
-0.04157082 -0.008267276 -0.07116354 0.00802366 -0.036976874 0.005268371 -0.050390452 0.06006051
0.052255932 -0.0396332 0.038939252 0.0666753 -0.0034833958 0.038033 0.06533908 0.059559
0.063342884 -0.0027828435 -0.034591034 -0.026807055 0.04995378 -0.009242155 0.031346492 0.020034922
-0.046892706 0.047868203 -0.034513008 -0.040681288 0.05743824 -0.04142707 -0.04476297 0.026778918
0.024345027 -0.050460145 -0.043188844 -0.008397836 0.033514034 0.04896189 0.015270119 -0.046791133
0.027407488 -0.04179376 -0.028635286 0.044766426 -0.021062283 0.012646675 0.022715217 -0.016546836
00000000: dece 5a3d db30 143d f54b 303d 6fb2 7d3d
00000010: 7dff cabc bf68 fbbc 6a23 6b3c 26f9 483c
00000020: 026d f33b 2a3c 843b 5b9e b03c b268 ffbc
00000030: c2e2 123d 6074 7e3d fc02 143d 37d2 8abc
00000040: 9734 623d b193 033c 2b53 613b 2ece a13c
00000050: 6ce7 75bc f1c7 a83d b48c 193d f900 68bd
00000060: 8c86 023d 00ab 20bc 68e8 eabc 4c30 67bd
00000070: d145 843d e27f 3a3d d6ac 00bd 32f9 9f3c
00000080: 6614 5fbc ec2b 97bd e979 343d 4fdb d6bc
00000090: fca5 2dbd af04 e8bc bf79 a3bd 9938 2e3d
000000a0: 36f3 873a 699b 2bbd 2dac aa3c 8c3e c1bb
000000b0: 87b7 48bd fa9d 47bd 1ac8 f6bb 463e 55bd
000000c0: 584f 68bc 9605 39bb d3b1 363d 9528 3bbd
000000d0: f6d1 163d d54a 483d fc0d 89bc cba5 373b
000000e0: 5d76 b23c fcb0 b23c 513b dd3c 5dfb 533d
000000f0: b9a9 903d 389b 1bbd 3478 7b3b 6ef9 17bd
00000100: 4f21 c3ba 3374 84bd a8cb ba3c 23a3 13bd
00000110: db0f 033c b177 a33b 2d43 99bd cbc5 cebb
00000120: cf8e 5fbd bf25 a6bc c8a4 03bd 1d19 e53c
00000130: e1fb 9d3d 03d0 fa37 ade9 973c 7e72 d5bc
00000140: ffa1 4b3d 50c9 363d f102 4c3b 1de7 5c3d
00000150: 3895 f03c 1e4e 2fbc 1710 31bc 19ad a73c
00000160: bc4b 2e3d bb37 2cbd 145d b73b c276 553d
00000170: fce8 8c3b 671b 773d 11de 0abd c65b a13c
00000180: d8e4 1f3c a63a 3bbb 3788 1c3d 4863 903d
00000190: b1a4 a6bc 0b8c 193c 8164 8b3c f006 a33c
000001a0: 006f 84ba 2fae 68bd 2ef0 2e3c 73b6 d2bc
000001b0: 48a6 563d f282 a6bc 7d69 22bc 277a 3dbd
000001c0: c84d eabc 2cad 91bd 4a6e f93c f27c 8c3c
000001d0: d4f7 6f3d 4121 303d cffb 03bd a60a 8c3d
000001e0: 165d 97bc 2a7a a63c 78c1 953d c8cd 2bbd
000001f0: a027 bbbc 4b9e 7aba e191 5d3d c2f6 703c
00000200: 86a1 6ebd d469 8ebc 1bda 38bd c681 21bd
00000210: 7980 eabc be21 64bd 6ea6 143d 8b7f 4ebd
00000220: c865 003d 68f7 833d 8859 bcbc 43d9 2fbb
00000230: 29c9 383b 0c02 48bd 781d 07bd a786 8b3b
00000240: d372 0eb7 035d 32bd 68ef e33c 7d0f 80bc
00000250: 438f 42bd edec 853d 1f23 ab3a ae9d 1cbd
00000260: 2167 88bd d57d 5fbd b3a3 c83c e45e 0f3d
00000270: 52d6 f83b 07d4 31bc 3185 8d3c 34c7 0d3d
00000280: b2b6 093d 7c88 473b 8f9d 21bd 9982 8e3d
00000290: a0eb 18bd 4f9d 193c b53c 1c3d 9fed 60bd
000002a0: 832b 5e3c f685 9e3b 5c3d 313c 44c2 69bc
000002b0: 2ba0 4ebd b80b 6abd 1943 753c b392 19bd
000002c0: d021 6d3c eb43 2b3d 7793 efbc b7c6 2bbd
000002d0: 686e 21bc f226 123d 2030 2dba f756 babb
000002e0: f64a 323d c180 0fbc ab1f 43bd 278a d4bc
000002f0: d5dc 22bd eaad 40bd 115d 4c3d f98b 18bc
00000300: 9f82 fbbc a8e8 33bd ca18 733d d25f 393d
00000310: 8fa7 443b a7d6 4bbc 1272 553d 34db 34bd
00000320: bf95 22bd 803c 743d cf9a bfbc bd29 68bd
00000330: 42d0 2abd 362b c0bc 9afe 6c3d cbd3 06bd
00000340: 2a46 2abd 7873 07bc 31be 91bd ab75 033c
00000350: 1075 17bd 4da2 ac3b 3866 4ebd 0202 763d
00000360: 510a 563d 6c56 22bd c47e 1f3d 0f8d 883d
00000370: af49 64bb 7ec8 1b3d 7fd0 853d 23f4 733d
00000380: eab9 813d 5e60 36bb 54af 0dbd 789a dbbc
00000390: 569c 4c3d 686c 17bc 2e65 003d 4720 a43c
000003a0: 9112 40bd 7311 443d 835d 0dbd 6ca1 26bd
000003b0: 5c44 6b3d 6eaf 29bd 6059 37bd 765f db3c
000003c0: 396f c73c 4caf 4ebd c9e6 30bd 1497 09bc
000003d0: 0346 093d 438c 483d 852f 7a3c 0fa8 3fbd
000003e0: ab85 e03c ef2f 2bbd 8c94 eabc 005d 373d
000003f0: cf8a acbc 0034 4f3c 4315 ba3c 3b8d 87bc

head.bias f4 [29]
0.06433615 0.03763755 0.06454096 -0.0089855 -0.020945953 0.058094878 -0.0037734937 -0.06667997
0.03159534 -0.11914024 -0.014255096 0.048247002 0.042640124 0.04774266 -0.08582081 -0.031228134
0.056150265 0.021760928 -0.0036285243 0.033368483 -0.018743332 0.049221527 0.007537295 -0.010718231
0.008500697 0.03431236 -0.03035071 0.0107579 0.018693117
00000000: acc2 833d d529 1a3d 0d2e 843d eb37 13bc
00000010: d996 abbc e5f4 6d3d b84c 77bb 828f 88bd
00000020: 1e6a 013d ccff f3bd 358e 69bc a69e 453d
00000030: 69a7 2e3d cf8d 433d d2c2 afbd 25d2 ffbc
00000040: d2fd 653d f943 b23c 89cc 6dbb 64ad 083d
00000050: 9e8b 99bc 839c 493d 6afb f63b 859b 2fbc
00000060: 8246 0b3c 1e8b 0c3d 0da2 f8bc e741 303c
00000070: 4f22 993c
