federated-linkutil/heads/LOSA_head.pt (torch, 37813 bytes, 2 tensors)

head.weight f4 [35, 256]
000000 4c 76 35 3c e7 c2 68 3c ed 87 42 3b 6b 29 ea 3c
       0.011075567 0.014206625 0.002968307 0.028584203
000010 65 f9 84 3d 96 cd 8e 3c 60 8a ab 3d 23 4e a7 3d
       0.06492881 0.017432015 0.08376002 0.081692
000020 66 b2 c7 3c 81 26 3f 3c 2d eb 45 3d a6 6b 5c 3c
       0.02437706 0.011666895 0.048319984 0.0134534
000030 18 e2 0e 3d bc 03 8e 3d 2f 86 be 3d d1 8e 12 3d
       0.03488359 0.06934306 0.09302937 0.03578073
000040 ec f0 4f ba 97 cd 67 bc ad ba c0 3d 2c f0 8c 3c
       -0.00079323235 -0.0141481375 0.094106056 0.017204367
000050 98 b4 69 3d 05 16 d6 ba 82 18 f2 3c ce 96 27 bd
       0.057056993 -0.0016333467 0.029552702 -0.040915303
000060 64 af ee bc 6e 76 34 3d 41 1f e7 bc 3d 3b b7 3d
       -0.029136367 0.044058256 -0.028213145 0.08946846
000070 1f 3c c0 3c bf 2d 8b 3d 0c 56 03 bd cf a4 c5 3c
       0.023466168 0.06795835 -0.032064483 0.024126438
000080 b9 b4 1a 3d 96 02 85 3d 28 6b cb 3c dc a7 c5 3d
       0.037770007 0.06494634 0.02483137 0.09651157
000090 9d ba 56 3d c2 d6 84 3c 32 55 87 bc 2f 99 3d 3d
       0.052424062 0.016215686 -0.016520116 0.046288665
0000a0 2b 55 ea bc 11 fe 84 bc 79 82 dc bc 60 05 9c bc
       -0.028605064 -0.01623443 -0.026917683 -0.019045532
0000b0 b6 0b c5 bc c5 c8 5d 3d 86 75 96 3d fb 24 b0 3d
       -0.024053436 0.054146547 0.073466346 0.086008035
0000c0 39 76 e8 ba 56 92 ae bc 92 8c 2e 3d 46 76 00 bd
       -0.0017735428 -0.021310013 0.042614527 -0.031362794
0000d0 39 a3 82 bc 9b a9 13 3c 61 0d a7 3d ca 81 6b ba
       -0.015946971 0.009012605 0.08156849 -0.00089838787
0000e0 65 2b d9 bb 5b 65 fb 3a cf 52 64 bd dd 3f 63 3d
       -0.0066274875 0.0019179987 -0.055743035 0.055480827
0000f0 e2 4e 89 3c 4d b0 99 3d 49 97 78 3c 46 e1 36 3d
       0.016761247 0.0750433 0.015172788 0.04464843
000100 2c df b6 3b 2c 03 3d bd 8d 41 b5 3d bd b1 a7 3d
       0.0055808034 -0.046145603 0.088503934 0.08188198
000110 30 e4 14 bc 34 96 4f 3d a8 c1 0e ba 7a 40 20 bc
       -0.009087607 0.050680354 -0.0005445727 -0.009780997
000120 a5 a2 01 bc 32 33 83 3d 1c 50 76 3d b3 d1 37 bd
       -0.007912313 0.06406249 0.060134992 -0.04487772
000130 b9 55 42 3d 2f 07 06 3d 2a 71 f5 3b 02 03 fc 3c
       0.047445033 0.032721695 0.007490297 0.030763153
000140 29 63 99 bb 13 c4 6c bc d3 e0 6a bd ea 44 a1 ba
       -0.0046810103 -0.014451045 -0.057343315 -0.0012303863
000150 cc 87 e7 3c d9 ee 3a 3d 2a 5c 84 3d ea 4d 6c 3b
       0.028262995 0.04563794 0.064628914 0.0036057183
000160 f5 50 17 3d ff 7f 5d 3d 8e f9 4d 3d bd d8 9e bc
       0.03694244 0.054077145 0.050286822 -0.019390458
000170 de de 0c 3d 79 ca 8d 3d 5f 7c 68 3d 0e cd f9 3a
       0.03439223 0.06923384 0.056759235 0.0019058303
000180 67 49 20 3c 65 f9 1d 3b 0c 5b e5 3c f1 90 e2 3c
       0.0097831255 0.002410495 0.027997516 0.027657004
000190 63 2b 1a 3d c5 fc b8 3b f8 3e 3f 3d a3 95 0d bc
       0.037639033 0.005645367 0.04669091 -0.008641633
0001a0 20 f1 36 bc 4a b7 bc 3d ee 52 ff bc b5 f2 e3 3b
       -0.011165887 0.09214647 -0.031167474 0.006956423
0001b0 d9 b9 69 bc 3f 2d 0e bd 80 f8 93 ba e8 0a f0 3c
       -0.014265501 -0.03471112 -0.0011289269 0.029302076
0001c0 62 65 15 3d e2 d1 76 3d 2a e6 df 3c 1d a9 01 bd
       0.03647364 0.060258754 0.02733143 -0.03165542
0001d0 03 1c 20 3c 64 8f 99 3d 56 28 30 bb 5b de 9f bc
       0.0097723035 0.07498053 -0.002687951 -0.019515207
0001e0 37 01 19 bd d0 b6 4d 38 f1 38 3e bd 94 d3 97 3d
       -0.037354674 4.9046066e-05 -0.046441022 0.07413402
0001f0 ad e9 f3 3c bc 0e a7 3d 10 4f 62 3c 5d 58 f4 3c
       0.029774511 0.08157107 0.013812795 0.029827291
000200 3a 4a 7a 3d e8 3d 3e bd 29 96 9c 3d ea 2c 75 3d
       0.061105944 -0.046445757 0.07645828 0.059857287
000210 f2 46 f0 bc 1f cc 45 bd c7 ff 88 3d e7 3c 8a bc
       -0.029330704 -0.04829037 0.06689411 -0.016874744
000220 c5 5b a0 bc d8 b8 1d bc 21 ff 26 3d 15 b7 87 3d
       -0.01957501 -0.00962659 0.040770654 0.06626717
000230 d2 03 86 3d ef 52 bf 3b d9 50 f4 3c 45 47 8d 3c
       0.065436974 0.005838744 0.029823707 0.017245898
000240 2d fe 3b bc 5f 6e 46 3d 58 91 80 bb 06 9c 3f 3d
       -0.011474174 0.0484451 -0.0039235763 0.046779655
000250 0d 41 d1 3c 7c 96 62 bd 6c c1 06 3d a2 12 c5 bb
       0.025543714 -0.055319294 0.032899305 -0.006014184
000260 5b 71 81 3d 36 aa 41 bd f5 93 4e 3d 73 ba 7b 3d
       0.06320449 -0.047281466 0.05043407 0.06145711
000270 86 04 49 bd 11 78 ca bc f7 4c d8 bc 41 dd 59 3d
       -0.04907658 -0.024715455 -0.026403887 0.05318952
000280 cf 38 1b bd e8 26 d7 3c b3 5f c0 3c a7 f7 b0 3d
       -0.037895974 0.02626367 0.023483133 0.08640986
000290 98 8e 4a 3d 7c 8c 7a 3c 6b 48 15 3d c1 06 80 3d
       0.049452394 0.015292283 0.036446016 0.06251288
0002a0 98 65 60 3d 86 09 a3 bc 02 d9 f8 3c 3d d9 31 3c
       0.054784387 -0.019902002 0.030376915 0.010855016
0002b0 f5 7f ea 3c 0d 18 d2 3c 05 89 12 3d a7 2d ea 3c
       0.028625468 0.025646234 0.035775203 0.028586222
0002c0 58 02 ae bb 2d f7 85 3d 33 f1 2f 3d 30 d5 87 bb
       -0.005310338 0.06541286 0.042954635 -0.004145287
0002d0 2f 9b bf bc 55 3e d3 3c d4 66 f8 bc 90 54 37 3c
       -0.023389427 0.025786558 -0.03032247 0.011189595
0002e0 3c 34 22 3d e6 cb 87 3b 55 ba 3a 3d 1d d6 93 3d
       0.039600596 0.0041441796 0.045587856 0.07218573
0002f0 60 38 97 3d dc c4 48 3c cf 6b f9 bc b9 59 c2 3b
       0.073837996 0.012253966 -0.030446915 0.005931106
000300 13 23 29 bc e6 36 bb 3d 46 ad 0d bd 63 d1 dd bc
       -0.010323304 0.091413304 -0.034589075 -0.027077382
000310 a0 17 ab bc 70 ca 0a 3c fd 9e 8e 3d f2 91 b0 3c
       -0.020885289 0.008471116 0.06963918 0.021553967
000320 56 58 5c bd fe af cc bc 88 3c 63 bd da 19 06 3d
       -0.05379518 -0.024986263 -0.05547765 0.032739498
000330 0b dc e6 3c 7f c9 b2 3d d9 b9 41 3d 00 f0 54 bd
       0.028181097 0.087298386 0.04729638 -0.051986694
000340 b5 3b 8f 3d c8 4b e9 3b b1 d6 91 b9 c8 be 1b bd
       0.0699381 0.0071196295 -0.00027816513 -0.03802374
000350 b6 4c 14 bd 8b 44 04 bb 18 b9 8f 3d 07 74 05 3c
       -0.03620597 -0.0020182456 0.07017726 0.008145339
000360 ed 38 53 3d 28 70 7e bb 4f b0 f7 bc 6c 1d ee bc
       0.05156796 -0.0038824175 -0.030235438 -0.029066764
000370 70 26 89 3d 3d dc eb 3b 16 11 09 3d 2c 1b 50 3d
       0.066967845 0.0071978853 0.03346356 0.050807163
000380 ad f2 24 3c 4b 11 ee 3c 5d ec 59 3d a4 1c 8e 3d
       0.010067624 0.02906098 0.05320393 0.069390565
000390 a0 03 85 3d ad 45 4b 3d 2e c6 a4 3d 12 90 7c 3d
       0.06494832 0.049626995 0.08045612 0.061660834
0003a0 97 2c 99 3d d9 b4 ad bc 44 eb d0 bc 7f 9f f0 bb
       0.07479208 -0.021204399 -0.025502808 -0.007343232
0003b0 85 09 2b bc 34 86 e6 3c 6a a7 a9 bc bb ed a1 bc
       -0.010439281 0.028140165 -0.020709712 -0.019766679
0003c0 35 3d 2e 3c 2e ac a9 3d 71 2c b8 3d cb e6 5f 3d
       0.01063471 0.08284794 0.089928515 0.05466346
0003d0 e5 e8 17 3c f9 fa e2 3b 76 7d 4c bd 98 1a 71 3d
       0.009271835 0.006926891 -0.049924336 0.058863252
0003e0 01 0b 10 bd 08 25 8e 3d 14 07 66 3d 0e b9 b2 bc
       -0.035166744 0.06940657 0.056159094 -0.021816757
0003f0 cf 4c 52 3d b8 61 19 3c bf d8 b6 3d d0 ac 8d 3d
       0.05134278 0.009361677 0.0892806 0.06917727

head.bias f4 [35]
000000 1d d2 b1 ba 52 55 cd 3b 01 cc 98 bc 93 45 69 bd
       -0.0013566647 0.0062662745 -0.018651964 -0.056951117
000010 be 66 a8 3d e9 73 1d 3b 71 8f 90 bd 51 2c 1a bd
       0.082227215 0.0024025387 -0.07058609 -0.03763992
000020 25 03 48 3d 74 1b 8a bd 1a 8d f0 3c 40 b6 4d bd
       0.048831124 -0.067435175 0.029364157 -0.050222635
000030 d4 d5 33 3b 26 4b bf 3c 37 0f 97 bc c9 27 7b 3d
       0.0027440684 0.023351263 -0.018439872 0.06131724
000040 59 5f ef bc e9 e9 df bb c0 56 cc 3b e3 a4 33 3d
       -0.02922027 -0.006833304 0.0062359273 0.04385842
000050 12 01 44 3d a3 de b0 3b 16 5e b2 3c 62 16 8a 3d
       0.047852583 0.005397634 0.02177338 0.067425504
000060 d5 7b e3 3c c3 32 43 3b 52 ba 0c 3d 3c 37 0b 3d
       0.027769009 0.0029784895 0.034357376 0.033988222
000070 7d 72 30 bd bf 4a 64 3d 78 df 6b 3a 2b a6 90 39
       -0.043077935 0.055735346 0.0008997838 0.00027589625
000080 61 1f 93 bb eb 72 41 3d 56 5c 48 bd
       -0.0044898246 0.047228735 -0.048916183
