federated-linkutil/heads/NYCM_head.pt (torch, 38837 bytes, 2 tensors)

head.weight f4 [36, 256]
000000 28 bb b6 bb fa 77 f8 bc ff 7b 1c bd 31 49 8e 3d
       -0.00557651 -0.030330647 -0.03820419 0.06947554
000010 b5 61 29 3d 21 a6 16 3d 72 67 82 bc 64 ef 1b 3d
       0.041352946 0.036779527 -0.015918467 0.038070098
000020 bb 93 6b 3d 57 16 fa bc 81 fc e6 ba 96 19 f0 3c
       0.057513934 -0.03052823 -0.001762286 0.029309075
000030 8a 53 2d 3d fb 50 b2 3c e0 60 dc bc 4f 42 a1 3d
       0.042315997 0.02176713 -0.026901662 0.078739755
000040 41 c7 10 3b 94 e8 54 3a fa d4 70 bc 87 70 97 3d
       0.002209142 0.0008121815 -0.014699215 0.0739451
000050 5c 58 0a bb c9 bb 82 3d e2 58 7b 3d 4e bb 26 bd
       -0.0021109795 0.063834734 0.061364062 -0.04070597
000060 c8 f7 28 3d 07 a0 79 3d 73 b1 61 3c a8 21 58 3d
       0.041251928 0.06094363 0.013775217 0.052766472
000070 84 d4 e3 bc a7 2c 04 bd 2a 99 82 3c e5 be fe 3b
       -0.027811296 -0.032269146 0.015942175 0.0077742212
000080 36 0a 0a bd c0 7d 1a bd c6 d2 28 bd 85 97 97 3d
       -0.033701144 -0.03771758 -0.041216634 0.07401947
000090 f6 a6 8b bc 36 e6 41 3d 8e a0 15 3d d6 fb 3c bc
       -0.017047387 0.047338687 0.03653007 -0.011534652
0000a0 ab 5f b5 3b e3 57 75 3c b0 2a 28 bd a5 35 37 3d
       0.005535086 0.014974567 -0.041056335 0.044728894
0000b0 95 fa c7 3c 53 32 90 3b 82 c2 f4 3b 98 3c 2e 3d
       0.024411479 0.0044005304 0.007469476 0.042538255
0000c0 3c 53 5a 3d 8f d5 b3 3d 50 90 55 3d 61 df fc 3c
       0.053302035 0.087809674 0.05213958 0.030868234
0000d0 ff 83 47 3d 84 f0 12 3d e6 38 17 3d c9 55 2b 3d
       0.048709866 0.035873905 0.036919497 0.041829858
0000e0 f2 ce 69 bc 5c 8b 23 bc 31 12 15 3d 81 1a 3c 3c
       -0.014270531 -0.009981956 0.0363943 0.011480928
0000f0 23 fa cb bc 17 6d 84 3d 07 6a 3a 3d 7e bb 2d bc
       -0.024899548 0.0646612 0.04551127 -0.010603784
000100 73 24 8d 3d 2b dc 97 3d c3 b0 98 3c be 5d 44 3c
       0.06891718 0.074150406 0.018638974 0.0119852405
000110 d4 03 07 3d f0 fe 8a 3c b2 65 78 3d 74 a1 da 3c
       0.032962635 0.016967267 0.06064386 0.026688315
000120 78 16 73 3d 69 df 96 bb 86 ad 8c 3c 04 5f 0e 3d
       0.0593476 -0.0046042693 0.017172586 0.034758583
000130 d7 62 1a bd 55 b9 ff bc 69 d7 64 3d 9b 9e 31 bd
       -0.037691917 -0.031216303 0.055869494 -0.04336415
000140 29 f2 96 3d 51 a3 0a bd 45 4a 86 bb 98 0f 21 bd
       0.07370407 -0.033847157 -0.004098209 -0.039321512
000150 ad ea 9c 3b 0a b9 38 3c 12 25 6e 3d 90 f2 ef bc
       0.0047887177 0.0112745855 0.05814082 -0.029290468
000160 d0 0c 69 3d 2d 45 83 3d 47 ef 7a 3d ab 15 65 3d
       0.056896985 0.064096786 0.06126335 0.055928867
000170 31 ab 86 3d 9e 02 29 3d 97 8f 39 bd e3 76 44 bd
       0.06575621 0.04126226 -0.045302954 -0.04796494
000180 1f 32 66 bd 28 e3 af bc b4 2a 4f 3d ff 61 ba 3c
       -0.056200143 -0.021470621 0.050577834 0.022751806
000190 10 f5 c9 bc 89 05 b1 3d 21 e9 3c 3c f1 46 1a 3b
       -0.024652988 0.08643634 0.011530192 0.002354082
0001a0 fc 8b 1b 3d 6f 68 71 3d 38 9b 22 bd 95 c7 fb bc
       0.037975296 0.058937486 -0.03969881 -0.030734817
0001b0 0f b8 03 3d 6c b0 4e 3d a1 72 07 bd 67 77 4c b8
       0.032157954 0.050461218 -0.033068303 -4.8748592e-05
0001c0 74 25 94 bc 1d 68 a6 3c 1a 0b 0d bc 60 e9 a1 3d
       -0.018084265 0.020313317 -0.008608604 0.07905841
0001d0 fd bd 85 3d 2d c4 67 3d 89 92 04 bd 70 83 50 3d
       0.06530378 0.056583572 -0.03236631 0.0509066
0001e0 21 ef 4c bd 61 82 02 3d 0b d4 c5 bc 13 95 11 bd
       -0.05003274 0.03186262 -0.024148962 -0.03554256
0001f0 e3 54 4c bd 49 75 a3 3d ff 2b 9f 3c 9f 13 d4 3c
       -0.04988564 0.07981355 0.019430159 0.025888262
000200 62 98 18 3d 9a 55 57 3d bd 2d 3e 3d d5 52 a6 bb
       0.0372547 0.05257187 0.04643034 -0.0050757923
000210 69 d1 49 3c 5a ba 6c 3d c1 42 8f 3d 2a f3 57 bd
       0.012317994 0.057794906 0.06995154 -0.052722134
000220 23 00 39 3d e9 88 f4 3c d2 f7 c9 bc 10 21 9d 3c
       0.045166146 0.02985044 -0.024654303 0.019180804
000230 1a e8 c8 3c 46 7e 80 3d d4 e2 44 3d ff 16 11 bc
       0.024524737 0.06274085 0.048067883 -0.00885558
000240 89 d3 83 3b 63 ca c3 bc b6 cb 73 3d 1d a5 25 bd
       0.0040230197 -0.023900216 0.059520446 -0.040440667
000250 3e 32 8a 3d 50 5c f4 3c 34 f5 dd 3b b3 ed 56 3d
       0.06747864 0.029829174 0.0067736153 0.05247278
000260 db d4 cb 3a 10 47 5f 3d 83 15 2c bd f3 39 38 bd
       0.0015551107 0.05451113 -0.042012703 -0.04497714
000270 30 f8 1a 3d 2f 7a ac bc 12 09 71 3d c8 f2 40 bd
       0.037834346 -0.021054355 0.05884654 -0.047106534
000280 f2 8f 4f bd 21 90 14 bd 4c d0 7d bc 26 27 82 3c
       -0.050674386 -0.036270265 -0.015491556 0.015887808
000290 72 09 ad bc ad 01 5f bd 70 d5 dc 3b f1 79 3c 3d
       -0.021122668 -0.054444958 0.006739311 0.04601473
0002a0 ec 9a 54 bc d1 72 ea 3b b1 d2 9d 3d 0b 58 f5 3b
       -0.012976389 0.0071548005 0.07706202 0.007487302
0002b0 e1 10 27 3d 5f cb 5b 3d fd 80 ee bc 94 34 c9 3b
       0.04078758 0.053660747 -0.02911424 0.006140301
0002c0 49 f4 3a bd 49 8a 4e 3d 3a 42 07 bd cf c1 73 3b
       -0.045643125 0.050424848 -0.033022143 0.0037194376
0002d0 aa 31 31 3d 2e fa 11 bd ba 69 65 3d 62 67 03 3d
       0.043260254 -0.03563898 0.05600903 0.032081015
0002e0 7a c3 8f bc 3c 35 60 bd ba 87 48 3d 90 13 0f bd
       -0.017549265 -0.05473827 0.048957564 -0.034930766
0002f0 dc 42 ca 3c ef 3b be bc ee 56 67 3d e1 4b 0f bd
       0.024690084 -0.023221938 0.056479387 -0.034984473
000300 10 cf 69 3d ba c1 16 3d 7e 15 2c 3c ac 20 08 bd
       0.057082236 0.036805846 0.010503171 -0.033234283
000310 ed ae 98 3d 84 ae af 3c ca b4 51 ba 59 1b c5 3c
       0.074552394 0.02144552 -0.0007999657 0.024060892
000320 65 f8 52 bd e8 1f 69 3d b2 1c 84 bc 9c 4a f8 3c
       -0.05150642 0.056915194 -0.016126964 0.030309014
000330 ed b0 40 bc 75 fa d4 bc 7b f3 91 3d a3 94 b7 3c
       -0.011760932 -0.025998333 0.07126518 0.022409743
000340 d1 4a 95 bc 49 8f 1a 3d 07 58 a5 3d 65 d2 9d bb
       -0.018224152 0.037734304 0.080734305 -0.0048163407
000350 11 0a 45 bd 01 a7 bc 3c c2 ee 2f bd 76 59 dc 3c
       -0.048105303 0.023028852 -0.042952307 0.026898127
000360 7c 78 17 3d b3 f7 1d bd 16 31 e1 bc 4d ca 51 3c
       0.036980137 -0.038566303 -0.027489226 0.01280458
000370 2a d2 24 bc 89 f1 d5 39 53 58 71 3c 19 1e 28 bd
       -0.010059873 0.00040806484 0.014730531 -0.04104433
000380 94 db f0 3b b6 16 77 3d 04 d6 47 3c c2 ef b1 bc
       0.0073503945 0.060324393 0.012197021 -0.02172077
000390 37 2b 10 3d 17 69 f2 3a 0c 6b 60 3d 43 c8 89 3c
       0.035197463 0.0018494454 0.054789588 0.016819125
0003a0 6c 2f 9c 3c db bb 0f bd 2f 2e 34 3d ab 4c 22 bd
       0.019065581 -0.035091262 0.043989357 -0.039623898
0003b0 0a 74 2d 3c bb f2 07 bd c5 a8 f3 bc 1f ba e8 3c
       0.010586748 -0.03319047 -0.029743562 0.028409062
0003c0 98 3a fc bc b7 6d 0d 3b 33 b1 16 bc be ff 2a bd
       -0.030789658 0.0021580288 -0.009197521 -0.0417478
0003d0 e2 09 90 3c bb 3d db 3c c7 35 aa 3c d7 c8 30 bd
       0.017582837 0.026762834 0.020777596 -0.043160286
0003e0 e0 dc 7e 3d bf 31 85 3d 13 55 0f bd 25 91 d2 bc
       0.06222236 0.06503629 -0.034993242 -0.025703976
0003f0 30 d6 c7 3c ca ce 2c bd f0 7c 77 bc 7e a0 00 3d
       0.024394125 -0.042189397 -0.015105471 0.031403057

head.bias f4 [36]
000000 fc 80 62 3d 52 a1 13 3c 96 dd 8e 3d 8e ee 15 3b
       0.05529879 0.00901063 0.06975858 0.0022877785
000010 20 1f 9f 3d 41 78 15 bc 02 e9 c3 3c 47 29 37 bd
       0.077696085 -0.009122909 0.023914818 -0.0447171
000020 b5 e8 39 bd 32 0a 91 3d 97 4e 21 3d 9a 80 5a bd
       -0.045387942 0.07082023 0.03938159 -0.0533453
000030 39 f8 1f bd d5 94 0e bd 99 e4 33 3d 75 e4 b7 bb
       -0.039055083 -0.034809906 0.04391918 -0.005611951
000040 90 df 0f 3d 7a 06 ce 3c 5c 9e e3 bc ae 99 10 bd
       0.035125315 0.025149573 -0.027785473 -0.03530281
000050 9e fa c9 3c 42 0b 83 3d 8a 5c d7 3c 0b c6 d6 bc
       0.024655636 0.06398632 0.026289243 -0.026217481
000060 4f 0a 1e 3d 0f e8 58 bc b0 44 15 bd 09 7f dd bc
       0.03858405 -0.013238921 -0.03644246 -0.027038114
000070 d6 d7 5b 3d d6 c5 ee bc 70 76 8a bc bf 83 8c bd
       0.053672634 -0.02914707 -0.016902179 -0.06861066
000080 7e 3d 24 3d 22 68 19 3c 71 bb a0 bd 5d 83 01 3d
       0.040097706 0.009363206 -0.078482516 0.03161942
