federated-linkutil/heads/SEAT_head.pt (torch, 40885 bytes, 2 tensors)

head.weight f4 [38, 256]
0	0x3d871cce	0.06597291
1	0x3b3af225	0.0028525677
2	0x3d19515b	0.037431102
3	0xbca3f1f5	-0.020012835
4	0x3db36aff	0.08760642
5	0xbb984106	-0.0046464233
6	0x3c8d513c	0.01725065
7	0x3db10e2c	0.08645281
8	0x3dc03a6d	0.09386144
9	0x3caed8db	0.02134364
10	0x3d9239f9	0.07139964
11	0x3d610256	0.05493387
12	0x3c7fa829	0.015604057
13	0x3d9ef384	0.07761291
14	0x3ae9dc48	0.0017842138
15	0x3dc1b5ce	0.094585046
16	0xbc4f13e2	-0.012639018
17	0x3d9cd4c0	0.07657766
18	0x3d820590	0.06348717
19	0xbc4f9a9d	-0.01267114
20	0x3d89bc5f	0.06725382
21	0x3d9a76d3	0.07542195
22	0x3cbf48c8	0.023350134
23	0xbcf82bf5	-0.030294398
24	0x3ca185f7	0.0197172
25	0xbd55f77b	-0.05223797
26	0xbc42c717	-0.011888287
27	0x3c3a42ee	0.011368496
28	0x3d817cce	0.06322633
29	0xbd16f841	-0.036857847
30	0x3cd2ec79	0.025747525
31	0xbcd8b808	-0.02645494
32	0xbd053903	-0.032525074
33	0x3d94e9d4	0.07271162
34	0x3c415d37	0.011802009
35	0x3d9c3232	0.076267615
36	0x3d022d14	0.03178127
37	0xbca54a6f	-0.020177094
38	0xbd01d8f4	-0.031701043
39	0x3d8d4a43	0.0689893
40	0x3d5657aa	0.052329697
41	0x3c8e5b08	0.017377391
42	0x3d2e4725	0.042548317
43	0x3d85db63	0.06535985
44	0x3d5d8242	0.0540793
45	0x3d14666c	0.03623049
46	0x3d9acc75	0.07558528
47	0x3dc8ea34	0.09810296
48	0x3ced4e88	0.02896811
49	0x3dc9b912	0.098497525
50	0x3d90bec7	0.07067638
51	0x3d79e5d1	0.061010186
52	0x3d6a49ba	0.057199217
53	0xbd31ec9d	-0.043438543
54	0x3cec75cf	0.02886477
55	0x3d772016	0.060333334
56	0x3d6c7328	0.05772701
57	0x3c284396	0.01027002
58	0xbd1970b6	-0.037461005
59	0x3d0cf980	0.03441763
60	0x3c09a016	0.008399984
61	0x3d803c89	0.06261546
62	0x3d5ae256	0.053438507
63	0x3d5107e3	0.051032912
64	0x3d8cb344	0.0687013
65	0x3c8ad159	0.016945528
66	0x3c814d09	0.015783804
67	0x3d6b6eab	0.057478588
68	0xbd0af204	-0.03392221
69	0x3bb4b9dc	0.00551532
70	0xbaf7bdb6	-0.0018901143
71	0x3cbba949	0.02290787
72	0x3c77a640	0.015115321
73	0x3ab72f2a	0.0013975848
74	0x3d664fe7	0.056228545
75	0x3d28bb2b	0.041194122
76	0xbc93c233	-0.018036937
77	0x3d80604f	0.062683694
78	0xbc94814f	-0.018128065
79	0x3d8d6f1a	0.069059566
80	0xbc5215d4	-0.012822587
81	0x3d1dc453	0.038517307
82	0x3c13191f	0.008978157
83	0xbb224ca5	-0.0024764922
84	0x3bf4078d	0.007447189
85	0x3bdee490	0.006802149
86	0xbc61c93c	-0.013780888
87	0x3bdcc691	0.006737538
88	0x3d7d6f89	0.061873946
89	0xbd05fab4	-0.032709792
90	0x3d815a34	0.06316033
91	0x3d96cc7e	0.073632225
92	0x3d99a707	0.07502561
93	0x3c183ed8	0.009292327
94	0xbd105077	-0.035232987
95	0x3d81ef47	0.06344467
96	0x3d40ed9a	0.047101595
97	0x3d3e7209	0.04649547
98	0xbba6c024	-0.005088823
99	0x3d5db652	0.054128952
100	0x3dc87d93	0.097895764
101	0xbc534d9e	-0.012896923
102	0xbc85872a	-0.016299803
103	0x3b0e9fb6	0.0021762676
104	0xbd1a2ff4	-0.037643388
105	0x3d228b05	0.03968336
106	0x3c9d54db	0.019205501
107	0xbd0f97c7	-0.035056856
108	0x3b985aae	0.0046494817
109	0xbbcca2c9	-0.0062449914
110	0xbd5e01ea	-0.054201044
111	0x3bc7df0a	0.0060995864
112	0x3c1b231f	0.009468823
113	0xbd6ca926	-0.0577785
114	0xbd434edd	-0.04768263
115	0xbc46348f	-0.012097492
116	0xbc9c81fc	-0.01910495
117	0x3d457019	0.048202608
118	0xbc9173e6	-0.01775546
119	0xbd010ed4	-0.03150828
120	0x3d5f8696	0.05457171
121	0x3d80220f	0.06256496
122	0xbd008020	-0.03137219
123	0x3d88b6ef	0.06675517
124	0xbcca25e4	-0.02467627
125	0xbb2bf8b2	-0.0026240763
126	0x3d88635f	0.066595785
127	0x3d74f8da	0.059807636
128	0x3d18c618	0.037298292
129	0x3d086c8a	0.033306636
130	0x3ca1979a	0.01972561
131	0x3d2a47c9	0.041572366
132	0x3d311dc4	0.043241277
133	0xbd219c8c	-0.039455935
134	0x3d0943f4	0.03351207
135	0x3d41d76c	0.047324583
136	0x3c3d373f	0.011548816
137	0xbc98ac83	-0.018636947
138	0xbc7781f6	-0.015106669
139	0x3d5040d3	0.05084307
140	0x3bbab0a7	0.005697328
141	0x3d8193bd	0.06327007
142	0x3d8e8ecb	0.06960829
143	0x3d0b6559	0.0340322
144	0x3b859ec8	0.004077766
145	0xbd150a93	-0.036387037
146	0x3cc65231	0.024209114
147	0xbb17248b	-0.0023062553
148	0x3a0566f3	0.0005088888
149	0x3d8c2cad	0.06844459
150	0xbd34c6dc	-0.04413496
151	0xbd29ed4b	-0.041486066
152	0x3d6a737c	0.05723904
153	0x3caf53b4	0.021402217
154	0x3b3c1e7c	0.0028704694
155	0x3d86fb0d	0.06590853
156	0x3d2efff8	0.04272458
157	0x3c00f7f2	0.007871615
158	0x3d9e74f0	0.07737148
159	0xbd1fb9f7	-0.03899571
160	0x3c3c6295	0.011498113
161	0x3d2d1cda	0.042263843
162	0x3cd3fccc	0.025877379
163	0x3d94c074	0.0726327
164	0x3c116172	0.00887333
165	0xbb1591e2	-0.0022822549
166	0xbd02d9ce	-0.031945996
167	0x3c9c32bc	0.01906716
168	0x3d6cd753	0.057822537
169	0x3cd2ce32	0.025733087
170	0x3bd021fd	0.006351708
171	0x3d37e1ac	0.04489295
172	0xbc699867	-0.014257527
173	0x3c365e81	0.01113093
174	0x3d98dfa0	0.07464528
175	0x3d46f8f7	0.048577275
176	0x3be21818	0.006899845
177	0x3d5fa9e5	0.054605383
178	0x3d1a22d5	0.037630875
179	0xbc66b68b	-0.014081608
180	0xbd6f07ad	-0.05835693
181	0x3dbe7cc4	0.09301141
182	0x3d3e05ce	0.046392255
183	0x3d70d8e5	0.058800597
184	0x3d77f68e	0.060537867
185	0x3cdbc860	0.026828945
186	0x3db39308	0.08768278
187	0x3d522e14	0.051313475
188	0xbb497647	-0.0030740665
189	0x3b6eb6fa	0.003642498
190	0x3d9a3ddf	0.07531332
191	0xbb8f39b5	-0.004370893
192	0xbc41cdea	-0.011828879
193	0x3b0978e0	0.0020976588
194	0x3d3023f2	0.04300303
195	0x3a2981ee	0.00064661994
196	0x3d64b3de	0.055835597
197	0xbc0ae5e8	-0.0084776655
198	0x3d82d618	0.063884914
199	0xbd2f23c6	-0.042758726
200	0xbd3b0a20	-0.045663953
201	0xbcbde949	-0.023182528
202	0xbb97a89e	-0.004628255
203	0x3d796e71	0.06089634
204	0xbc85a18c	-0.016312383
205	0x3cee17a4	0.029064007
206	0xbd19e32a	-0.037570156
207	0x3d1195da	0.0355433
208	0x3d91c6a9	0.071179695
209	0x3d60fd03	0.05492879
210	0x3dbd57e1	0.09245277
211	0x3c95d0d5	0.018288055
212	0x3d49b925	0.049248833
213	0x3cd9a2dc	0.026566915
214	0x3d074714	0.03302677
215	0xbb4e0f6b	-0.0031442295
216	0x3cb30c24	0.021856375
217	0x3db670a1	0.08908201
218	0x3dc9bef2	0.09850873
219	0xbbfda4cc	-0.0077405926
220	0x3cfcbd2d	0.030851925
221	0xbc603594	-0.013684649
222	0x3da3ba10	0.07994473
223	0xbd1d76d4	-0.0384434
224	0x3d09047f	0.033451553
225	0x3dddcd31	0.10830153
226	0x3caea53e	0.021319028
227	0xb96251a8	-0.00021583459
228	0x3dd69911	0.10478414
229	0xbcc3096d	-0.023808206
230	0x3d1fc0bd	0.03900217
231	0x3d90fddf	0.07079672
232	0xbd154bec	-0.036449358
233	0xbb8cb507	-0.004294041
234	0xbce4a23c	-0.02790939
235	0x3d79f02a	0.061020054
236	0x3d12d8e1	0.035851363
237	0x3dcb5b3d	0.09929512
238	0xbb7e8928	-0.0038839076
239	0xbc1382d8	-0.009003364
240	0x3d895bb1	0.06706942
241	0xbabdc7ac	-0.0014479063
242	0x3c335487	0.010945446
243	0x3d915bf1	0.070976146
244	0x3c28b3ed	0.010296804
245	0xbcc24903	-0.023716455
246	0x3d02fc45	0.031978864
247	0x3d96ebe8	0.07369214
248	0x3db670fc	0.08908269
249	0xbc521899	-0.012823247
250	0x3d170adc	0.03687559
251	0x3d4aa522	0.04947389
252	0x3d877a02	0.06615068
253	0x3cf120d3	0.029434597
254	0x3d780feb	0.060562056
255	0xbc289274	-0.010288823

head.bias f4 [38]
0	0x3dcbe10b	0.09955033
1	0xbda0c1e3	-0.07849481
2	0xbdb52dca	-0.08846624
3	0x3d70eae1	0.058817748
4	0xbd18d9a4	-0.037316933
5	0xbc9573c8	-0.018243685
6	0x3d104dbc	0.035230383
7	0xbd2c02c2	-0.041994818
8	0x3d287507	0.04112723
9	0x3d8dbcbc	0.06920764
10	0x3ccdf1ce	0.025139716
11	0x3cc9ea73	0.024647927
12	0xbcf56769	-0.029956536
13	0xbd93ec4b	-0.07222804
14	0xbd4cfc04	-0.05004503
15	0x3d86e7f3	0.065872096
16	0x3d40973b	0.047019225
17	0xbda7843d	-0.08179519
18	0xbc916a2a	-0.017750818
19	0x3cf710d9	0.0301594
20	0xbd8a0540	-0.067392826
21	0xbc147889	-0.009061941
22	0x3ca323c1	0.01991451
23	0x3ca0e6eb	0.01964136
24	0xbcdd81df	-0.027039466
25	0x3a4b872b	0.0007763977
26	0xbd7369cf	-0.05942708
27	0xbdad3837	-0.08457988
28	0x3d35640e	0.044284873
29	0xbd1d3e0b	-0.038389247
30	0xbc9b247d	-0.018938297
31	0xbd4d68f5	-0.050148923
32	0xbb5e1986	-0.0033889725
33	0x3d107d04	0.035275474
34	0xbd86b620	-0.06577706
35	0x3b3b9b2d	0.0028626428
36	0xbd9219d5	-0.07133833
37	0x3d9802a0	0.07422376
