federated-linkutil/heads/SNVA_head.pt (torch, 36789 bytes, 2 tensors)

head.weight f4 [34, 256]
00000000: 4dad 233d f927 393d f820 83bd 9ff6 babb
00000010: 00ec 80bd ec8e 66bd 94a7 25bd 7076 9a3c
00000020: 9203 2a3d 773f 97bb b216 ad3c 0905 423c
00000030: 0055 213d e0bd 76bb 231a d93b f767 babc
00000040: 805e 333d 6615 52bd e495 bc3c 5324 0b3d
00000050: ba40 3d3d 2b71 efbc 55fd a6bc 4669 d6bc
00000060: 20ca 233d a656 2c3d 27ef 4b3d 27c9 673d
00000070: 4d9f 933c 161b 40bd c438 303d fb82 e8bc
00000080: 006f aabc 89ac 263d 52e5 2d3c 495f 44bd
00000090: 45e3 143d 9687 af3c 2294 8c3d 3be6 203d
000000a0: 2ded 37bd 520f a7bc 4136 d3ba 869b 9abd
000000b0: 46ae ecbc 1a45 89bd 2c15 0c3d 82b8 1bbd
000000c0: b6a0 443d 22e6 08bd b92c 60bd 3a76 28bd
000000d0: 624b 513c 2b65 ffba f1a8 27bd 5333 76bc
000000e0: 1562 afbc 985a 723c 5778 2f3b e72e b33c
000000f0: 8d8d 63bd d7d3 083c 8f1d c6bc 14ce 36bc
00000100: e480 72bd 692e b6bc dbee 523d 30df 59bd
00000110: e302 03bd 55e2 9d3d 3252 6abb 491a 6d3d
00000120: 53b1 67bd 8a81 d93b 43cd f6bc 311c 533c
00000130: d4dd 933d 41d4 6fbd 5eed 9cbb e719 18bd
00000140: bdd4 bfbc 9e0a 703d 7ce9 89bd 8039 36bd
00000150: 16eb 28bd 4f8b b53c 90b1 4c3d 48a2 d2bc
00000160: 6fa8 233d 07e8 0dbc 061c 46bd 4f98 c13b
00000170: 7a4b 5e3c 4c9e 6fbd 817c 4d3d 810e 7c3a
00000180: 0823 02bd 3ecf ca3c ee57 adbb 8220 58bd
00000190: f55d ca3a 6292 39bd 1cd0 623d a31f 70bd
000001a0: d7e4 3fbd 69ae 0e3d 3fe0 39bd 1bac 7cbd
000001b0: 1ecf 6cbb 5edc f43b 95b3 0fbd e1b9 adbb
000001c0: 0c9b 183c 4865 cabc a0be 00bb 214d 59bd
000001d0: 027a 0ebd 61ba 4dbc 3fca 6f3d cea5 253c
000001e0: 23ea 333c d664 363d d62b 963d 7f9e 8bbb
000001f0: 9280 31bd c1c9 70bd 1d22 843c 66e9 8e3c
00000200: 1d17 e13a afd5 38bd 3f4e 4cbc 9f5b 41bd
00000210: ee9a af3c 6bc1 353d ecd6 0fbd e676 3c3d
00000220: b704 61bd 7a81 75bd beb5 01bd d516 823d
00000230: 1f29 7a3c 7cc4 68bd 5ce7 08bd 28bc ecbb
00000240: 2e31 e43b 1db2 233a 6154 15bd 2663 3d3c
00000250: 9416 493d 0e87 09bd 0e16 56bb f144 473d
00000260: ec67 27bb 758b 41bd bdc8 adbb b4c2 183d
00000270: 2965 6e3d 43ef 203d 373e 22bd a915 063d
00000280: 48c9 59bd a36b 80bd e7d0 2fbd b88f d73b
00000290: 4059 653d 1753 103d 65f0 f2bc d294 0abd
000002a0: ce63 c03b 515e 093d c4d1 9d3c 9a04 11bd
000002b0: d4db 7bbc bad4 333d 9177 8e3c 4463 843d
000002c0: 0503 513c d5bf dc3c 315f 16bd f0fd d5bc
000002d0: 6684 3dbd 5ed6 223d a0ef 023d 2c1e 46bd
000002e0: 4643 7a3c cf11 3c3c 0553 253d 5681 733c
000002f0: f8dc 05bd 1b2a 12bc 4619 e7bc 038c 9a3b
00000300: e924 3dbd 03c9 97bc 5e63 8b3b e9f2 5f3c
00000310: d831 40bd ad60 96bc 6d98 6d3d 7e01 1dbc
00000320: 2345 26bb 5305 77bd 59e0 08bd 2c1b 74bc
00000330: 54dc 36bd 4919 8dbd 4d29 56bd 1cb2 75bd
00000340: 9db7 67bc 4e61 43bc 44c4 04bc c060 f4bc
00000350: ae84 47bd cce6 3bbc 689b 203c c0ad b43c
00000360: ef01 a5bc eff9 32bd ed99 5c3d cf74 c63b
00000370: 8453 09bd cf53 3c3b 6f23 1fbd 9526 abbc
00000380: ddb1 363d 9c67 203d 1e2c 3b3d 1a48 833c
00000390: f11c 4a3d 7f8e 04bd cce6 0abc 2981 823b
000003a0: 9920 593d 93b5 383d e74c 143d bca8 1b3d
000003b0: bfef d03c b298 213b 9625 443d 3916 003d
000003c0: a0fb 49bc 2515 fd3c 1f24 81bd 7e80 81bd
000003d0: 486a 553d f93b f9bc a520 443b f174 523d
000003e0: 4a7f 4cba c01a 3d3c a074 233d 37a1 af3c
000003f0: cb8e 41bd 8062 023d 842c 28bc 87b4 ea3c
0.039960194 0.045204137 -0.06402773 -0.005705669 -0.062950134 -0.056288645 -0.040443018 0.018855304
0.04150731 -0.00461572 0.021128986 0.011842021 0.039387703 -0.0037649795 0.00662543 -0.022754652
0.043791294 -0.05128994 0.023020692 0.03397019 0.046204306 -0.029228767 -0.02038447 -0.026173245
0.039987683 0.042074822 0.04978862 0.05658832 0.018020296 -0.04690083 0.043022886 -0.028382769
-0.020804882 0.040691886 0.010613756 -0.047942434 0.036349554 0.021426957 0.068641916 0.039282065
-0.044903923 -0.020393047 -0.0016114191 -0.07549195 -0.028891694 -0.06702633 0.03419988 -0.038017757
0.04800483 -0.033422597 -0.05473015 -0.041128375 0.01277432 -0.0019485106 -0.0409326 -0.015026885
-0.021409074 0.014792107 0.002677461 0.02187295 -0.055554915 0.008351288 -0.024184017 -0.011157531
-0.05920495 -0.022238927 0.05149732 -0.053191364 -0.031985175 0.07709185 -0.0035754559 0.057886396
-0.056565594 0.0066377567 -0.030127173 0.012885139 0.07220045 -0.05855203 -0.0047890386 -0.037134077
-0.023416871 0.058603875 -0.06733987 -0.04448843 -0.04123982 0.022161154 0.049974024 -0.025712147
0.039955553 -0.008661277 -0.04836657 0.005908049 0.0135678 -0.058500573 0.050167564 0.00096151984
-0.03177169 0.024757024 -0.005290023 -0.052765377 0.0015439378 -0.045305617 0.05537425 -0.05862392
-0.046849098 0.0348343 -0.045379873 -0.06168757 -0.0036134194 0.007472559 -0.035083372 -0.0053016995
0.00931431 -0.024706498 -0.0019644871 -0.05305207 -0.034784324 -0.012556643 0.058542486 0.010110332
0.0109811155 0.04452976 0.0733258 -0.0042608376 -0.043335505 -0.058786158 0.016129548 0.017445277
0.0017173026 -0.04512566 -0.012469827 -0.047206517 0.02143618 0.04437391 -0.035117075 0.046011828
-0.054936137 -0.05993793 -0.031667463 0.06352011 0.015268593 -0.056828007 -0.033423766 -0.0072245784
0.0069638705 0.00062444975 -0.036457423 0.011559283 0.049093798 -0.033576064 -0.0032666954 0.048649732
-0.002554412 -0.047252137 -0.005303471 0.03729506 0.058201943 0.039290678 -0.039610114 0.0327355
-0.053170472 -0.0627053 -0.042923834 0.006578412 0.05599332 0.03523549 -0.029655645 -0.033833332
0.0058712726 0.033537213 0.019265063 -0.03540478 -0.015372235 0.043904044 0.017390998 0.06464246
0.012757068 0.026946941 -0.036711875 -0.026122063 -0.046268843 0.039755218 0.031966805 -0.048368618
0.015274828 0.011478855 0.040362377 0.014862379 -0.032681435 -0.008921172 -0.028210294 0.0047163977
-0.04617778 -0.018528467 0.004253789 0.013668754 -0.046922535 -0.018356645 0.058006693 -0.009582875
-0.0025370799 -0.060307812 -0.03341708 -0.014899056 -0.044643715 -0.068895884 -0.05228548 -0.05998431
-0.014142898 -0.011925055 -0.008103434 -0.02983129 -0.048710518 -0.0114686005 0.009802677 0.022055507
-0.020142524 -0.043695386 0.053857733 0.006056405 -0.033526912 0.0028736477 -0.03885215 -0.02089242
0.044603217 0.03916131 0.04569637 0.016025592 0.049344007 -0.032362457 -0.008477878 0.0039826822
0.053009603 0.045095038 0.036206152 0.038002715 0.025504945 0.0024657664 0.047887407 0.031271193
-0.0123280585 0.030893872 -0.06305718 -0.06323336 0.05210331 -0.030424105 0.0029926684 0.051381055
-0.000780095 0.011542022 0.039906144 0.021439178 -0.04725532 0.03183222 -0.01026452 0.028650535

head.bias f4 [34]
00000000: 705c 983d fe36 f4bd 6742 1ebc 4520 f9bc
00000010: 8169 ffbd cdf8 fd3c c6c8 e7bc 0cd4 b33d
00000020: ec79 043b 38e1 0cbe da1a 60bd 271f 4e3d
00000030: 5cd7 bfbd 497d 58bd 6f6a b23d 4738 20bd
00000040: 4d85 8cbd 580c 7c3d 3203 18be 1ae9 dcbc
00000050: 9a4e 353d acb7 ddbc 292f 19bd d34a 9dbd
00000060: 6000 b03b 9615 a63d d69e d7bc aa1b f3bd
00000070: c7cb c8bb f054 dc3d b6d3 9dbd de09 3fbd
00000080: 4d60 dabd e0ca d63d
0.07439506 -0.119245514 -0.009659386 -0.030410895 -0.12471295 0.031002427 -0.028293978 0.08780679
0.0020214273 -0.13757789 -0.054713108 0.050322678 -0.093672484 -0.052853856 0.08711707 -0.03911617
-0.068613626 0.06153521 -0.14844969 -0.02696662 0.044264413 -0.02706512 -0.03739849 -0.07680287
0.0053711385 0.08109586 -0.026320856 -0.11870511 -0.006127808 0.10758388 -0.07706396 -0.04664027
-0.10662899 0.10487914
