federated-neighbor/heads/ATLA_head.pt (torch, 39861 bytes, 2 tensors)

head.weight f4 [37, 256]
000000 5b 8c 00 3d 59 29 be bc c2 8e 1d 3e 43 7f 76 3d
       0.031383853 -0.023213075 0.15386489 0.06017996
000010 c9 e7 24 bb 1a 8b 04 3e 95 66 f5 bc 5f 6d 2f 3d
       -0.0025162569 0.12943688 -0.029956141 0.042828914
000020 9f 24 d5 bc 9e b1 9f bd 9b 3e 46 3d 9c 8a 29 3e
       -0.026018439 -0.0779755 0.04839955 0.16556782
000030 ee dc 4b 3d 41 37 ec 3c b5 d6 0f 3a d0 d7 1a 3c
       0.04977124 0.02883494 0.0005487011 0.009450868
000040 fc f9 9a bc f0 ef 05 bb 02 96 8a bd e8 72 b7 bc
       -0.01891803 -0.0020437203 -0.06766893 -0.022393659
000050 87 27 52 3d 53 c2 a8 bd 6c 49 ff bb 0b 93 01 3d
       0.051307227 -0.082401894 -0.007790735 0.03163437
000060 29 12 86 bd 7a d7 94 3c 3b 02 4f bd e3 84 bb 3c
       -0.065464325 0.018169153 -0.050539237 0.022890514
000070 84 e5 ab bd 53 20 c7 bc 11 ef 3e 3d 0a 52 df 3d
       -0.08393386 -0.024307406 0.04661471 0.109043196
000080 d0 3f 6b bb d2 58 a4 3c 35 35 2e 3d 9b aa 4d bd
       -0.003589619 0.020061884 0.04253121 -0.05021153
000090 ea 58 95 bc dd 27 61 3d 4d c6 97 bd 8b 26 37 bd
       -0.018230874 0.054969657 -0.0741087 -0.04471449
0000a0 04 dd 05 3e fd 31 c6 3c 44 4f 4f bc eb 9f c0 3d
       0.13072592 0.024193758 -0.012653176 0.09405502
0000b0 9e 4c bc bc 01 db 1d 3c 2b 7b f3 bc b5 c9 c0 3d
       -0.022985753 0.009634734 -0.029721817 0.094134726
0000c0 c4 a2 ad 3d ea 55 24 bb f5 dd 90 3d 85 71 b6 3d
       0.08478311 -0.0025075623 0.07073585 0.08908371
0000d0 a9 55 5b 3d 08 d6 17 3d a5 66 cc 3d 6a 9a b2 bb
       0.05354849 0.03706935 0.099805154 -0.0054505365
0000e0 38 c6 83 3d e0 a9 5b 3d de 5b 7e 3c ea 4f 30 bd
       0.064342916 0.053628802 0.0155248325 -0.043044962
0000f0 b6 96 9e bd 9c 08 d0 38 07 91 21 3d b3 40 09 3e
       -0.077435896 9.9198165e-05 0.03944495 0.13403587
000100 81 c2 85 3d c8 4e da 3c da 08 f7 3d ee 34 69 3d
       0.06531239 0.026648894 0.12062235 0.056935243
000110 66 f9 8e bc 7f 12 c2 3c 8b 14 06 3d ea e1 aa 3c
       -0.017452907 0.02369046 0.032734435 0.020859677
000120 9c f0 e3 3b 06 c7 c5 3a 6d 34 ec 3d 5f 53 bf 3b
       0.006956173 0.0015089221 0.11533437 0.005838796
000130 4d 6b 48 bc 0e 24 21 3a ac 57 42 bd 5a be 20 3c
       -0.012232614 0.0006147035 -0.04744689 0.009811008
000140 2d b2 a3 3d 0f 1b 0d bb 60 2e 1e 3d ff 30 71 bd
       0.07992969 -0.002153102 0.038618445 -0.058884617
000150 80 d6 7a bb 7b df ed 3d ac 24 cf 3c bb 0c 08 bc
       -0.0038274825 0.11614891 0.025286041 -0.008303816
000160 18 44 83 bd 64 97 04 3d 91 20 19 bd ec e5 72 bd
       -0.06409472 0.03237094 -0.037384573 -0.0593013
000170 c2 93 77 bb 34 f0 84 bd cb ed 46 3d 0a c4 e9 3c
       -0.003777728 -0.064911276 0.04856662 0.028535862
000180 28 df 44 3d a7 06 2d bd 2a a7 0f bd 8e a0 f6 39
       0.04806438 -0.042242672 -0.03507153 0.000470404
000190 94 8b 8b bc fd 72 40 bc 00 0d 70 bb 00 7f 98 bd
       -0.01703433 -0.011746165 -0.0036628842 -0.07446098
0001a0 7f 9f e8 3d 9e 9c e6 3d f5 c3 6b 3d 47 6f 05 3d
       0.113585465 0.11260341 0.057559926 0.032576825
0001b0 02 f4 82 bc 43 21 c0 3c a0 24 23 bd e2 80 7b bb
       -0.015985493 0.02345336 -0.03982985 -0.003837638
0001c0 e3 b9 85 3d 33 ac 1b 3e cd b4 7a bc ae 08 e0 3c
       0.06529596 0.15202408 -0.015301895 0.027347889
0001d0 d0 42 5e 3d 55 7c f6 3c 3c ae c0 3d 8a 29 ab 3d
       0.054262936 0.030088583 0.094082326 0.08357532
0001e0 d6 49 2b 3a af f2 27 bd c5 84 81 3e 80 16 a5 3b
       0.0006534135 -0.041002925 0.25296608 0.0050380826
0001f0 e2 5a d0 bc 5a 87 3d bc 16 6f 63 3d a9 cc 30 3d
       -0.025433961 -0.011567915 0.05552586 0.04316393
000200 26 e2 6d bd 80 a6 8d bd 32 e3 ac 3b e6 b5 01 bd
       -0.058077 -0.06916523 0.005276107 -0.031667612
000210 25 7d c2 3c e5 2e 76 bd 14 a2 d7 3d 39 ae 71 3d
       0.023741314 -0.060103316 0.10528961 0.059004042
000220 b4 8e 25 bc 63 f5 ce bc 13 92 35 3e b1 ef 8f ba
       -0.010104824 -0.025263494 0.17731504 -0.0010981468
000230 4e 6f d7 3d c1 6d d6 bb b5 1e 7b bd ef 15 86 bd
       0.105192766 -0.0065438454 -0.06130858 -0.06547152
000240 e9 1b 5b bb f2 6d 9c 3d c5 93 04 bd 52 0a e3 3d
       -0.0033433384 0.07638158 -0.032367487 0.11085953
000250 c7 ee 55 3d 77 f9 fa 3d 65 9e 70 bc 92 fa 87 bd
       0.05222967 0.12254613 -0.014686202 -0.06639589
000260 87 13 e7 3c 02 00 63 3d 72 0d 28 bd 15 06 fb 3d
       0.028207554 0.05541993 -0.041028447 0.122570194
000270 30 af 30 bd 35 21 c4 3b e9 c3 16 bd 7f 93 19 3e
       -0.04313582 0.005985404 -0.03680793 0.14997672
000280 e5 7b 16 3e b5 61 26 bd 47 4e 59 3c 7b a5 3c 3d
       0.146957 -0.040620524 0.013263292 0.046056252
000290 60 b7 bd 38 aa 8b 00 bd 83 78 d9 3d 54 27 ea 3c
       9.0463785e-05 -0.031383194 0.10618689 0.028583206
0002a0 96 4c 30 bc 80 79 67 bc a4 c3 45 bc d8 92 63 3d
       -0.010760447 -0.014128089 -0.01207057 0.055559963
0002b0 88 fe d7 3c a6 df 69 bd 5b c8 62 3d 0c 20 8d 3d
       0.026366487 -0.057098053 0.055366855 0.06890878
0002c0 32 1a 46 3d 90 6a 68 bb 1b 3b 90 bc 09 0c b9 3d
       0.048364826 -0.0035463907 -0.017606309 0.09035499
0002d0 68 dd f8 3c f5 c5 db 3d 50 e1 a4 bc c1 94 11 bd
       0.030379012 0.10731117 -0.020126969 -0.035542253
0002e0 c6 30 7e bd 6b de da 3d 78 e1 30 bc f8 28 3d 3d
       -0.062058233 0.10686954 -0.010795943 0.04618165
0002f0 9b 85 42 bc ec 09 85 3b 91 36 dd 3d a1 d2 3e 3c
       -0.011872674 0.0040600207 0.10801423 0.0116468975
000300 17 a8 4c 3d f1 9b b8 3d 9a bc 32 3d 47 6a 63 3d
       0.04996499 0.090141185 0.043636896 0.055521276
000310 27 4f 8f 3c 64 65 7e 3d 9b 9e c2 bb 35 6a 65 bc
       0.017493797 0.062108412 -0.0059393174 -0.0140023725
000320 7a d7 dd 3c 23 2b 1f 3b 8e c2 72 bd 9a ac 36 bd
       0.027080286 0.0024287186 -0.059267573 -0.0445982
000330 c3 68 e0 3c fd d9 ac 3c 3d c4 8a bc 7f 05 3e 3c
       0.027393704 0.021100039 -0.016939277 0.01159799
000340 f3 51 87 3b 88 b4 d6 bc 4f 41 09 3d b5 f3 08 3d
       0.004129642 -0.02620913 0.03350955 0.033435542
000350 fe 9c 94 bd 53 86 6f bd b5 e0 8e 3c b0 29 9c bc
       -0.072565064 -0.05847771 0.017441133 -0.019062847
000360 fc ab e0 bc 45 29 ec bc 06 4c b2 3c ab bc 17 3d
       -0.027425759 -0.028828273 0.021764766 0.037045162
000370 a1 dd b7 3d 0e 7c 0f 3e bf ee df 3d 10 f2 f5 3d
       0.08977819 0.14012167 0.10934209 0.120090604
000380 2c a2 00 bc 36 33 63 3d 29 9a 9f bc 56 ce 43 bd
       -0.007851165 0.05546876 -0.019482689 -0.0478042
000390 ea e2 1e 3d 7e f7 4f 3c 2b 53 07 3d a0 a9 68 3d
       0.03879062 0.012693284 0.0330383 0.056802392
0003a0 9b 2f 1c 3d 00 5b d8 bb 6c ed c6 3b 72 f5 c5 bc
       0.038131338 -0.006602645 0.0060707834 -0.024164889
0003b0 71 24 d4 3d a3 77 bf 3d a6 6d bd 3d 2c e1 03 bd
       0.10358513 0.09348991 0.092494294 -0.032197163
0003c0 20 88 b4 3d ef cd ce bd 39 41 57 3d df 30 2e bc
       0.08815026 -0.100978725 0.052552436 -0.010631769
0003d0 60 4d f4 3d 54 df a6 3b 15 77 98 bd 0c 3d fa bc
       0.119288206 0.0050925408 -0.07444588 -0.030546688
0003e0 07 ec 9c 3c 05 f2 56 3d be 51 b5 3d 2e b8 19 bd
       0.019155515 0.0524769 0.08853482 -0.037529163
0003f0 73 e3 33 3d 9b b4 51 3d 6d 67 4a bd aa 69 f4 ba
       0.043918084 0.05119763 -0.04941504 -0.0018647213

head.bias f4 [37]
000000 15 dd 82 3e 92 1a 38 be 18 a7 2e 3e 31 a0 91 be
       0.25559297 -0.17978886 0.17055929 -0.2844253
000010 82 e4 8f 3d 31 30 3b be c0 66 fa 3d 2e 39 14 3e
       0.07026006 -0.18280102 0.12226629 0.14474937
000020 5b 71 46 3e 25 8e 55 3e 41 1e a4 be 09 70 18 be
       0.19379179 0.20855005 -0.32054332 -0.14886488
000030 57 87 f3 3d d7 81 6c be 3b ce 68 be 2c 78 85 3e
       0.118910484 -0.23096405 -0.2273492 0.26068246
000040 72 92 4e 3e c2 25 8f be 4c 64 5e be 7e 10 11 3e
       0.20173052 -0.27958494 -0.21717948 0.14166448
000050 99 90 3b be ff cc 23 be 47 e2 7e 3e 00 5b f7 3d
       -0.18316878 -0.15996169 0.24891005 0.12077904
000060 a4 2d 1e be 16 b3 75 be 09 a7 92 3e 3a 75 8f 3e
       -0.15447098 -0.23994097 0.28643063 0.28019124
000070 4c 6e 71 be 19 93 7e be 71 55 86 be aa 6e 57 3e
       -0.23577231 -0.24860801 -0.26237062 0.21038309
000080 3d ee 45 3e 14 ac 15 be 75 c3 0f 3e 1e a3 3a 3e
       0.19329162 -0.14616424 0.14039405 0.18226287
000090 9e 92 23 be
       -0.15973899
