federated-neighbor/heads/CHIN_head.pt (torch, 38837 bytes, 2 tensors)

head.weight f4 [36, 256]
00000000: 1601 893d f3c8 1d3e add6 453e 3eca 923d
00000010: f5b8 d33d 028c 40bd c6e2 323d dee1 b83d
00000020: d801 883d a3b3 653d 467a 143e ab76 1b3e
00000030: bcd2 5f3c c6fb 503d f935 513c f4d3 573d
00000040: 51c9 623c ba6a b23d 8df6 083e 6950 f13d
00000050: e316 6d3c 8687 2d3d da0d eb3d f2a5 aa3d
00000060: 8846 9a3d 9c51 573d d580 ad3d 40a4 9a3d
00000070: a701 af3d 85a8 043e 2f02 0a3e 5e56 a9ba
00000080: 16c1 023e 4ad2 c93c 7de9 2b3e c2e8 283e
00000090: e7a6 cd3d 9cf5 973d d0c8 f93d 11c3 623d
000000a0: c028 493d db40 be3c 0841 8a3d 95ad be3d
000000b0: 80e2 853d 2931 07bd 269a 1c3e b49d 203e
000000c0: f207 c33d 2721 c23b 62d0 7e3c ba11 b9b9
000000d0: beef 783d c53a 423d 7900 c03d 68ba f63c
000000e0: 4f04 b93d 280a ad3d acb3 ec3d 4171 c03d
000000f0: 95e8 923d dbd7 233e 547d ba3c 9cac 703b
00000100: 2b93 223e 0277 293e 142d c63d 263e 7f3d
00000110: ec14 2c3e ede9 d93d e4af d23d 439e 903d
00000120: 7c5f c53d e276 2e3c 0904 ac3d 6ea8 bc3d
00000130: 3aa2 aa3d 5ad9 383d b6e8 1c3e 2551 e13c
00000140: a894 193e b265 163d 0a1c ee3d 93b7 d23d
00000150: 6fbb ab3d 4dd5 bf3c 2f48 5f3b 1350 c9bc
00000160: 9d82 b93d e122 48bd 39d7 ee3d 837f 133e
00000170: 5de0 023e 68fb 153b 1bcb dc3d 1e81 203e
00000180: b2b3 b7bb 0d5b 973d eed0 db3d 3618 da3d
00000190: 85dd 213e 924d ef3d 6a78 f93d 233d c13d
000001a0: 0069 523d f6e3 e33c 9453 283e 0bc1 953d
000001b0: d9c7 9a3d f133 843d 6d0c 9a3c c33b 033e
000001c0: 78fa c93c cd27 0c3e 0832 debc adea 60bd
000001d0: ab90 ce3d a962 383d d4da bc3d fab5 733d
000001e0: 21bc 053e 2359 2b3e b3fb c039 2510 423d
000001f0: 6213 b63d 1c99 183e 5d55 dd3d 3b2a e03d
00000200: 0fd9 3c3e fae3 903d a83e 2d3d ed9b d43d
00000210: 27c0 da3c dba9 41bc 5f49 b0bc 84eb b93b
00000220: 9960 933d 0e23 033e 409f 863d a3f4 c73d
00000230: 2b4e f93d 0461 3f3c ca7c 8f3d b1d3 1b3e
00000240: b98c fc3d c2ac a23d 29be 273d 0d9a f43d
00000250: 1e5f 17bd a14e ce3d 2913 ff3d 3e2a 8f3d
00000260: f10f 843d e6a8 503d a706 a83c 32ca f63c
00000270: 836e 0f3e 013d 073e f299 b83c 269a 023d
00000280: 2a2e 2d3d 3349 8e3d 2fe4 c13c d395 323c
00000290: d4fd 193d ddcb 153e bd48 213e 0db7 4ebc
000002a0: c2bf 2c3e cd25 af3d 5b0f e73b 9939 863d
000002b0: 941a 323e 7529 3b3d 70b3 603d da1c 033e
000002c0: 63b1 783b 51cd 433d 1637 01bd fb5a 743d
000002d0: 8f50 eb3d dad6 003e c053 f63d c403 393c
000002e0: 404a db3d 400b 703d 9a7a 3cbd 9f46 0d3d
000002f0: fc5f 903d 2dff 873d 66b5 433d 60c2 ff3c
00000300: 41f4 b13d 369c d13d 71d0 ec3d 1547 19bd
00000310: c8dc bb3d 2275 ae3d 9f4f d73d d935 233e
00000320: 0717 ef3c 9f9e 9e3d aa4b 173e 539a 853d
00000330: 1c0e ab3d b739 923d 3aab 1ebd 8c71 0b3e
00000340: 3ecf 133e 066f 083e b504 a83d fd14 f23d
00000350: a1c0 253e 38d1 fd3d aa6b 013d 72a9 ca3c
00000360: ac8b 3ebc 9dcb 463d 349c 833d 87ad 853d
00000370: df41 073e 9223 d23c d84b 563d 1ebd 7f3d
00000380: c00c a53d 44a7 043e 1ed5 a93d 7368 1f3d
00000390: 7064 2cbc 0e5f 163e 95fe 003e 391b f73d
000003a0: 4262 58bc 03a3 7f3d 13df 2c3e 0a0c aa3c
000003b0: a560 f13d bbde eb3d b2cc a63c f158 d63b
000003c0: df60 153e 68bd 8f3d 324a ab3d f46d 373d
000003d0: 03ba c73d 2fb7 283e 3ef8 633d 532f 143e
000003e0: b98c eb3c 3e55 903c e097 323e 82d9 753d
000003f0: 87f9 963d 3c67 33bc 800d 1e3e 38b0 983d
0.0668966 0.15408687 0.19320174 0.07167481 0.10338012 -0.04700852 0.0436733 0.09027456
0.06640977 0.056079518 0.14499769 0.15181987 0.013661083 0.05102136 0.012769216 0.05269237
0.013841943 0.08711763 0.13375302 0.11782915 0.014470789 0.042365573 0.11477251 0.08332433
0.07532984 0.052568063 0.084718384 0.075508595 0.08545237 0.1295491 0.13477395 -0.0012919416
0.12768969 0.024636406 0.16788287 0.1649504 0.100416 0.07419893 0.12196505 0.05536181
0.049111128 0.023224285 0.06750685 0.09310452 0.06537342 -0.033005867 0.15293178 0.15685159
0.09523 0.005924362 0.015552612 -0.00035299157 0.06077551 0.04741933 0.0937509 0.030118182
0.09034025 0.08449203 0.11557707 0.093966015 0.07173268 0.16000311 0.02276484 0.0036723977
0.15876453 0.16549304 0.09676567 0.06231513 0.16804856 0.10640321 0.10287455 0.07061436
0.09637353 0.010648461 0.08399207 0.09211813 0.083317235 0.045129158 0.15323147 0.027504513
0.14998114 0.036718078 0.11626442 0.1028892 0.083853595 0.02341714 0.0034070124 -0.024574315
0.09058116 -0.048861388 0.11662144 0.1440411 0.127809 0.0022885446 0.10780927 0.15674254
-0.005606138 0.073904134 0.107332096 0.10649149 0.15807159 0.11684717 0.1218117 0.09435489
0.051369667 0.027818661 0.16438133 0.07312211 0.07557649 0.064552195 0.018804753 0.12815766
0.024655566 0.13687058 -0.027123466 -0.054911304 0.10086187 0.045015965 0.09221426 0.05949972
0.13060047 0.16733222 0.00036808624 0.047378678 0.08890416 0.14902157 0.108072974 0.10945555
0.18442176 0.07074733 0.04229608 0.10381303 0.026702954 -0.011820282 -0.021519361 0.0056738276
0.07196159 0.12806341 0.06573343 0.097634576 0.121731125 0.011680845 0.070062235 0.15217473
0.12331528 0.07943107 0.040952835 0.11943445 -0.036955945 0.10073591 0.124548264 0.06990479
0.06448353 0.050942324 0.020510985 0.030125711 0.14007 0.13206865 0.022534344 0.03188529
0.042280354 0.069475554 0.023668377 0.010899979 0.037595585 0.14628549 0.15750404 -0.012616885
0.16870025 0.08552132 0.007051391 0.06553955 0.17392951 0.045693833 0.054858625 0.12803975
0.0037947528 0.047803227 -0.031546675 0.05965708 0.11489975 0.1258196 0.12027693 0.011292402
0.107075214 0.05860448 -0.04601536 0.034491178 0.070495576 0.06640468 0.047780417 0.031220615
0.08689166 0.10234873 0.115631945 -0.037421305 0.0917297 0.08518435 0.105132334 0.1593851
0.029185785 0.07745098 0.14774957 0.06523576 0.083523005 0.071399145 -0.038737513 0.13617533
0.14434525 0.13323602 0.08204023 0.118204094 0.16186763 0.12393421 0.031596817 0.024739001
-0.01162998 0.048534025 0.06426278 0.06527238 0.13208722 0.025651727 0.052318424 0.062436216
0.080590725 0.12954432 0.08292602 0.03891797 -0.010521993 0.14684698 0.12597115 0.12065739
-0.01320702 0.06241132 0.16881971 0.020757694 0.117860116 0.11517092 0.020361278 0.0065413644
0.14587735 0.07018548 0.08363761 0.044782594 0.09752276 0.16476129 0.055656664 0.14471178
0.028753625 0.017618772 0.17440748 0.060021885 0.07371812 -0.010949906 0.15434837 0.07455486

head.bias f4 [36]
00000000: cf0b ce3d 37f8 073e 8657 04be fd83 8f3d
00000010: 8b83 363e 1c79 073e a5c8 2f3e 431a dbbd
00000020: 4b51 463e 7fcc 2a3e 0a6f 343e 2c7b 12be
00000030: ea83 4b3e 47c1 84be 4fec 59be 9036 623e
00000040: 1d8a 553e f415 f8bd f8df d7bd 3749 333e
00000050: 4553 50be 2335 02be eeb2 e53d cd4d 5f3e
00000060: 8933 03be 1d25 1abe 6bc1 b73d 087a 063e
00000070: ae66 3bbe a237 3abe 5e52 1b3e 87ea 48be
00000080: e028 4b3e 3429 f7bd 4d19 393e e901 213e
0.10060846 0.1327828 -0.12924013 0.07007597 0.17823617 0.13229793 0.17166384 -0.106983684
0.19366948 0.16679572 0.17620483 -0.14304799 0.1987454 -0.2592871 -0.21281551 0.22091126
0.20853467 -0.12113562 -0.105407655 0.17508398 -0.20344265 -0.12715583 0.11215769 0.21807022
-0.12812628 -0.1505322 0.089724384 0.13132489 -0.18300888 -0.18185285 0.1516814 -0.19620715
0.19839811 -0.12068406 0.18076058 0.15723385
