federated-neighbor/heads/HOUS_head.pt (torch, 37813 bytes, 2 tensors)

head.weight f4 [35, 256]
-0.0060891337 -0.06269903 0.07667205 0.025080219 -0.025214234 0.06472348 0.034319233 0.03791205
0.019566309 -0.031792376 -0.036032144 0.029654047 -0.0285908 -0.046233468 -0.026018117 -0.020473681
0.013150208 -0.026017338 -0.044989154 -0.006634172 -0.0140799675 -0.07527919 0.022076359 0.011523704
0.017416168 0.030505667 -0.016044043 -0.009315561 -0.025852216 0.0021617853 0.07273373 0.12913889
0.0047116973 0.09202296 0.039366033 -0.03036406 0.044758953 0.049940135 -0.022200517 0.024776317
0.016878204 0.00046370897 -0.018606326 0.031888787 0.010034946 0.00950977 -0.013165178 0.06871341
0.065850236 0.042149916 0.031235466 0.008700261 0.0006153205 0.041063596 0.055924963 0.0718752
0.006877434 0.032130647 -0.024252811 -0.067991205 -0.02938571 -0.07117883 -0.032336157 0.016040139
0.12191742 0.06685137 0.06404938 0.009156942 -0.014971049 -0.035986427 0.013528569 0.020935856
0.037725527 0.089796804 0.02314094 -0.052497946 -0.0111979265 0.0061570415 -0.013020733 0.019208493
0.047100555 -0.025762113 0.056896627 -0.06890291 -0.04351083 0.079626374 0.09395278 0.033830084
-0.023486085 0.016362354 0.024372818 0.011551404 -0.057810616 -0.020083733 -0.0065344064 0.08763733
-0.012200712 0.010281243 0.018997902 0.030643389 -0.0010138903 0.040331062 0.05030257 -0.061553936
0.040502682 0.072202705 0.097639054 0.034402553 0.014508403 -0.001498701 -0.031129744 -0.036636263
0.073937654 0.007405364 0.025965223 0.030009659 0.035556965 0.022168119 0.09743627 0.04479898
0.025737733 0.035360873 0.025851496 -0.043373782 0.04104672 0.017036028 0.03588331 0.003512123
-0.052245982 0.034930617 0.11278593 0.047175102 0.041990165 0.012709883 0.13519451 -0.0276633
0.058768924 0.014701509 0.11707028 -0.033555284 0.062496107 0.025890274 -0.041218724 -0.0044843424
-0.032116666 -0.012625736 -0.01770404 0.13343094 0.0150231775 0.07046661 0.061833523 0.0025768091
0.017058682 -0.060266502 -0.031770095 0.028233023 -0.055654828 0.017451536 0.054180462 -0.026237335
0.05031336 0.011823411 -0.0124150235 0.059207257 -0.080756016 0.072655134 0.049479175 0.0472754
0.0057472517 0.013258336 0.025477376 0.036894567 -0.011738456 -0.0315356 0.045977965 -0.04401333
-0.017842479 0.022598462 0.0015607427 0.032917053 0.05705212 0.043261606 -0.011850705 -0.050314553
-0.04883771 -0.017660463 0.034821007 -0.040439054 0.020037219 -0.087693736 0.0182815 -0.03523424
-0.063858666 0.057577062 -0.047105744 0.063860856 0.004755316 -0.0143814245 -0.003504293 -0.06012341
0.04593402 0.009800855 0.08088141 -0.020163223 0.01978399 -0.027457478 0.0067928815 0.016731273
0.016994972 -0.0006911395 0.018292485 0.08309295 0.026766965 -0.022065872 -0.04707387 -0.04961067
0.014062423 -0.025437152 -0.054188635 0.09102313 0.12796845 0.12182758 0.09898739 0.008014279
-0.028846495 0.019919774 0.07866114 0.0055024344 -0.020847226 -0.04706245 0.078746185 0.011115169
0.08880606 0.021283846 -0.030400593 -0.05664729 0.0027699545 0.11620488 0.06386674 -0.048991937
-0.02224541 -0.0889054 0.12615407 0.033714347 -0.012549878 0.026623663 -0.019245481 -0.019217901
0.09676752 -0.05003201 0.1372084 -0.08220956 0.089948356 0.032093704 -0.06582393 -0.054542582
00000000: 5b87 c7bb 5968 80bd 3c06 9d3d 0875 cd3c
00000010: 158e cebc be8d 843d 5392 0c3d aa49 1b3d
00000020: 8649 a03c b938 02bd 7196 13bd 0bed f23c
00000030: 4137 eabc 4e5f 3dbd f223 d5bc 6cb8 a7bc
00000040: f873 573c 5022 d5bc 8c46 38bd 7863 d9bb
00000050: aaaf 66bc fa2b 9abd 7bd9 b43c ebcd 3c3c
00000060: 5aac 8e3c 05e7 f93c cc6e 83bc 4ba0 18bc
00000070: 07c8 d3bc bdac 0d3b 6cf5 943d fc3c 043e
00000080: 9564 9a3b 8976 bc3d 473e 213d 0dbe f8bc
00000090: 2a55 373d 078e 4c3d dcdd b5bc b4f7 ca3c
000000a0: 2944 8a3c f71d f339 4b6c 98bc d19d 023d
000000b0: 9d69 243c dece 1b3c c2b2 57bc 9eb9 8c3d
000000c0: 7ddc 863d 64a5 2c3d 85e1 ff3c 8a8b 0e3c
000000d0: 764d 213a 4d32 283d 9311 653d 4e33 933d
000000e0: 195c e13b 6d9b 033d d5ad c6bc f93e 8bbd
000000f0: 4dba f0bc 35c6 91bd eb72 04bd 9c66 833c
00000100: d7af f93d 5fe9 883d 522c 833d 0007 163c
00000110: 2149 75bc 8166 13bd eea6 5d3c ac81 ab3c
00000120: 1586 1a3d 63e7 b73d 1292 bd3c 1608 57bd
00000130: 8277 37bc 02c1 c93b ea54 55bc 215b 9d3c
00000140: 83ec 403d 110b d3bc 700c 693d f81c 8dbd
00000150: 6938 32bd 2713 a33d 516a c03d 6a91 0a3d
00000160: e465 c0bc 580a 863c 81a9 c73c 1a42 3d3c
00000170: d3ca 6cbd a486 a4bc 931e d6bb 337b b33d
00000180: 7fe5 47bc a972 283c 7da1 9b3c d807 fb3c
00000190: 83e4 84ba 2f32 253d 110a 4e3d fb1f 7cbd
000001a0: 24e6 253d 03df 933d fcf6 c73d b1e9 0c3d
000001b0: a7b4 6d3c 1070 c4ba ce03 ffbc e80f 16bd
000001c0: a06c 973d b2a8 f23b 05b5 d43c d1d6 f53c
000001d0: 2ea4 113d ea99 b53c ab8c c73d 237f 373d
000001e0: f0d7 d23c 90d6 103d 84c6 d33c b5a8 31bd
000001f0: 9b20 283d 248f 8b3c 61fa 123d a52b 663b
00000200: e2ff 55bd 6813 0f3d 4ffc e63d ae3a 413d
00000210: e1fd 2b3d 1d3d 503c 6e70 0a3e 259e e2bc
00000220: afb7 703d 99de 703c 8bc2 ef3d 4471 09bd
00000230: ebfb 7f3d d717 d43c f7d4 28bd 64f1 92bb
00000240: c48c 03bd 2ddc 4ebc 1008 91bc 1fa2 083e
00000250: c623 763c cc50 903d 2645 7d3d afdf 283b
00000260: a6be 8b3c 02da 76bd 5c21 02bd f148 e73c
00000270: 51f6 63bd 86f6 8e3c 55ec 5d3d aeef d6bc
00000280: 6215 4e3d fbb6 413c 6268 4bbc 4f83 723d
00000290: 6963 a5bd 37cc 943d adaa 4a3d daa3 413d
000002a0: 7153 bc3b 7e39 593c eeb5 d03c c21e 173d
000002b0: a752 40bc 792b 01bd 6453 3c3d 5247 34bd
000002c0: 642a 92bc 6920 b93c d691 cc3a 08d4 063d
000002d0: 7caf 693d 1533 313d 7629 42bc a216 4ebd
000002e0: 0d0a 48bd adac 90bc 79a0 0e3d 6ca3 25bd
000002f0: 1825 a43c c698 b3bd 16c3 953c c751 10bd
00000300: 55c8 82bd edd5 6b3d f4f1 40bd 7bc9 823d
00000310: 7bd2 9b3b 11a0 6bbc 48a8 65bb f743 76bd
00000320: 5025 3c3d c493 203c 27a5 a53d 582d a5bc
00000330: 0912 a23c 81ee e0bc d296 de3b 0610 893c
00000340: 0a39 8b3c 962d 35ba 1fda 953c a32c aa3d
00000350: 6546 db3c 7dc3 b4bc 88d0 40bd 8f34 4bbd
00000360: 1466 663c 9361 d0bc e7f4 5dbd 566a ba3d
00000370: 290a 033e bd80 f93d e7b9 ca3d 534e 033c
00000380: 7c4f ecbc cb2e a33c 1719 a13d c44d b43b
00000390: cdc7 aabc 8ec4 40bd ae45 a13d 661c 363c
000003a0: f4df b53d 765b ae3c aa0a f9bc fd06 68bd
000003b0: 2088 353b d3fc ed3d 91cc 823d c5ab 48bd
000003c0: 023c b6bc 0914 b6bd 882e 013e 0e18 0a3d
000003d0: 019e 4dbc de19 da3c b3a8 9dbc dc6e 9dbc
000003e0: 0d2e c63d 5dee 4cbd 5c80 0c3e 7c5d a8bd
000003f0: d836 b83d b074 033d b2ce 86bd 0b68 5fbd

head.bias f4 [35]
0.25968224 -0.22120486 0.2812018 -0.23974057 -0.26641676 0.25950286 0.22087164 -0.2096886
0.20480873 0.110320985 0.2555619 -0.19395947 -0.3820776 0.2977289 -0.26469687 -0.3458334
0.17967881 0.13900395 0.124299556 -0.19243334 0.23884192 -0.33032414 -0.26851615 0.13205494
0.13502197 0.18428275 -0.16194403 0.121060334 0.11839635 0.14161325 -0.16710706 0.10434131
0.16171311 0.20873795 -0.1414113
00000000: 12f5 843e 8783 62be aff9 8f3e 8d7e 75be
00000010: c767 88be 8fdd 843e 2d2c 623e 9cb8 56be
00000020: 61b9 513e f8ef e13d 02d9 823e 509d 46be
00000030: ad9f c3be ec6f 983e 5986 87be 1311 b1be
00000040: b9fd 373e 0d57 0e3e c490 fe3d 3f0d 45be
00000050: fa92 743e 3f20 a9be f37a 89be 6939 073e
00000060: 3343 0a3e 9eb4 3c3e a8d4 25be 7bee f73d
00000070: c979 f23d 1003 113e 1d1e 2bbe e6b0 d53d
00000080: 1f98 253e 67bf 553e 20ce 10be
