federated-neighbor/heads/IPLS_head.pt (torch, 31605 bytes, 2 tensors)

head.weight f4 [29, 256]
00000000: 60c9 9abc cd91 863c 4d68 4b3d 9352 1d3d
00000010: 554b 08bd 945b 4d3d f2f6 e9bc 86fd a23c
00000020: c82d f33c 439a d6bc a30d 993c 8e0a 36bd
00000030: bb4c 183d 07dc 733d 477f 69bc 1fa8 04bd
00000040: 72a5 733d bcb5 363d da15 8bbc e1dc 9abb
00000050: d6fb fdbc a158 08bd 9496 923c 55a3 ca3c
00000060: b171 2a3d 397e 433d 683a c83c 0bed b4bc
00000070: a0b2 183c ca2a cfbb c0a0 1cbd bd6e 683b
00000080: 0d27 9cbc eda7 933c 4c53 08bd af7b 293d
00000090: dcc5 ffbc 21fc 9f3c d512 49bd e09e 363d
000000a0: ad0a 0bbd a609 e1bc bec0 57bd 4ab9 023d
000000b0: 8c31 25bd 30c1 2fbd 6033 fcbc 42da febc
000000c0: 6918 71bd 8516 40bc bc17 483d 732e 3cbd
000000d0: 6e4b 403d c25a a8bc 22f6 553b 1a40 61bd
000000e0: 020a 5fbd 677a 493d 5d86 533d 86c1 453b
000000f0: 4471 153d 258c 65bd d7b3 393d 6f72 673c
00000100: 0f64 55bd 4b76 5dba 708b 6dbd ca33 6e3d
00000110: dd2f 753d 3801 30bd 62a0 3c3d af65 1f3d
00000120: d5a6 a6b8 a1b6 24bd 1c05 47bd b22b 0fbd
00000130: 13f8 90bb acbb 7cbd 551f 7dbd 60e9 67bd
00000140: 0c8a 8d3c c9ef bdbc 1e3f 4fbd a9e4 663d
00000150: d3b0 18bd 9ccf cc3a 5a3a 943c 6157 38bd
00000160: 5c2b 6a3c bf86 6bbd 9cbf 5f3d c5da a8bc
00000170: f93d 4c3d 2717 6dbd 0023 fe3c ffdb aa3b
00000180: 2e28 76bc 89b2 303c 8c61 083b ca02 3c3d
00000190: b1b9 6fbc d762 87bc beaa 99bc 0266 7c3d
000001a0: f1ed 263d 871d fbbc 0978 af3c f07a ccbc
000001b0: ed61 183d 903b 03bd 0df9 13bc 238c 33ba
000001c0: 26d4 4ebd 275a 4ebd 3d7e c6bc d288 713d
000001d0: 731d 113d f8b1 003c e640 e3bc 93f2 17bd
000001e0: 89d0 ed3c 5831 4c3c ae60 97bc 604f 6cbc
000001f0: d6f7 033d 4350 7abd 9aca 363d 02ed 66bc
00000200: 9761 913c 7a18 083d 8f39 f83c f065 a1bc
00000210: f6cb d6bc b186 cd3c cc25 ac3c c9af 133d
00000220: 0e3c 49bc c8ec 65bd d5c2 2f3d 23c5 fbba
00000230: 4a2d 4abd f74a 58bd 8e73 1cbd 6723 9f3a
00000240: c651 7d3d c750 943c e4bb f7bc 6965 81bb
00000250: 8cd5 003c 1d8f d33c e703 793d b313 4ebd
00000260: b0bd debc 901d 463d 071d f03c 50a3 a93c
00000270: dde6 943c 8f54 583c c06d 4abd f796 b23b
00000280: f249 cc3c 9f2f fab9 1ed0 c33c ba1f a93c
00000290: aee7 81bb 81e2 2fbd ce0e 55bd 7604 edbb
000002a0: 7f4f 7e3c 268c 63bc 22b8 27bd 374a 733d
000002b0: 39d2 9b3b 0ce6 63bd ee8f 643d fbde 103d
000002c0: 54a2 49bd af72 93bc 7564 4cbd caf3 bf3c
000002d0: ca94 c63c 75a3 e7bb c851 b03c 8de4 443d
000002e0: 6da8 573d 3773 423d 5aa5 fc3c 225b c5bb
000002f0: fb39 7d3c 16b0 c23c ca8e 86bc c5c8 be3b
00000300: b8ff 3fbd 5eb7 ecbc 9325 103d 226b 6f3d
00000310: 0ace 13bc 3a80 13bd e61d aabc 32d9 913c
00000320: c76c c73c b98d 173c 3491 74bb 42a2 f53b
00000330: bc40 88bc 18ae cdbc 23a2 75bd bc61 183d
00000340: b1be 2ebd 876e 773d b6eb 473d 16fc 10bd
00000350: f509 793c 0750 4fbd e79a 0f3d 4014 e03c
00000360: bfec 023c c9c3 81bc 2101 0f3d 4502 4fbd
00000370: d2d6 19bc e0db 723d 42fa 673d 1e9b 10bd
00000380: 1fbf 1bbd 5cd0 1bbd 2602 33bd 49a1 50bd
00000390: 4ea2 143d cf7f 6bbd 0bfd 6ebd c72c 1fbb
000003a0: 2b5f 15bd 864d 793d d383 c13c 1687 2aba
000003b0: 4f31 26bc 9ce7 cb3c c7c9 6abd a8a5 383d
000003c0: 2ea5 50bd 0b6b d33b f363 4f3d 0810 e23a
000003d0: 3392 67bd ea0d 313d c3a3 793d a53b debb
000003e0: 8d3c 543c e6aa 02bd 42b4 283d 72c8 323d
000003f0: f5bc c63c 9725 b0bc 2811 ccbc e373 883a
-0.018894851 0.016426945 0.049660016 0.038408827 -0.033274967 0.050136164 -0.028560136 0.01989628
0.029684916 -0.026196605 0.01868326 -0.04444366 0.03718255 0.059536006 -0.014251537 -0.032386895
0.059483953 0.04460691 -0.016978193 -0.004726038 -0.031003874 -0.033287648 0.017894067 0.024736086
0.04161233 0.047727797 0.024441913 -0.022085687 0.009319931 -0.0063222395 -0.03823924 0.0035466396
-0.01906159 0.01802441 -0.033282563 0.04137772 -0.031222276 0.019529404 -0.049090225 0.04458511
-0.033945728 -0.027470421 -0.052674048 0.031914987 -0.040330455 -0.042908847 -0.030786216 -0.031109933
-0.05886117 -0.011724119 0.04885076 -0.045942735 0.046946935 -0.02055109 0.0032647927 -0.054992773
-0.054452904 0.049188998 0.05164181 0.0030175163 0.03648497 -0.056041855 0.045337524 0.014126404
-0.052097376 -0.0008448108 -0.057994306 0.05815486 0.0598601 -0.042969912 0.04605139 0.038915332
-7.946572e-05 -0.04021323 -0.048588857 -0.03495378 -0.004424104 -0.061702415 -0.06179746 -0.056619048
0.01727774 -0.023185628 -0.050597303 0.05637041 -0.037278008 0.0015625837 0.01809423 -0.045005206
0.014292564 -0.05750155 0.054626092 -0.02061213 0.04986379 -0.057883408 0.031022549 0.005214214
-0.015024228 0.010784754 0.0020810096 0.045901097 -0.014631675 -0.016526623 -0.018758174 0.06162072
0.040754262 -0.030653728 0.021419542 -0.024960965 0.037202764 -0.032039225 -0.009031546 -0.000684919
-0.05049529 -0.050378945 -0.024230117 0.058968373 0.035428476 0.007854931 -0.027740907 -0.03709657
0.029030101 0.012462936 -0.018478718 -0.014423221 0.032218777 -0.0611117 0.04462681 -0.014094593
0.01774673 0.033226468 0.030300884 -0.019701928 -0.026220303 0.02508864 0.021014117 0.036056314
-0.012282385 -0.056134015 0.042910416 -0.0019208532 -0.049359597 -0.052805867 -0.03819614 0.0012141288
0.061845563 0.018104924 -0.03024096 -0.0039488566 0.007863414 0.025825078 0.060794737 -0.050311755
-0.02719006 0.048368037 0.029310716 0.020707756 0.01817649 0.013203754 -0.049421072 0.0054501253
0.024937604 -0.00047719196 0.023902949 0.020645011 -0.003964386 -0.04294062 -0.052016072 -0.007233198
0.015521883 -0.013888394 -0.040947087 0.05939695 0.004755285 -0.05563931 0.055801325 0.0353689
-0.049227074 -0.017999021 -0.04990049 0.023431677 0.02424087 -0.007069046 0.021523371 0.048069526
0.052650858 0.04747316 0.030840565 -0.006022827 0.015455718 0.023765605 -0.016425509 0.0058222734
-0.04687473 -0.02889603 0.035192084 0.05845178 -0.0090212915 -0.03601096 -0.02076621 0.017803762
0.024343861 0.009250098 -0.0037317993 0.0074961493 -0.01663243 -0.025107428 -0.05996908 0.03720258
-0.042662326 0.06040814 0.048808776 -0.035396658 0.015200128 -0.05061343 0.035059836 0.027353406
0.007991015 -0.015840428 0.034913186 -0.050539274 -0.009389596 0.05929172 0.05663515 -0.03530418
-0.038024064 -0.038040504 -0.04370322 -0.050935064 0.0362876 -0.057494935 -0.05834679 -0.0024288164
-0.036467712 0.060864948 0.023622429 -0.0006505115 -0.010143592 0.024890713 -0.057321336 0.045079857
-0.050938778 0.0064519695 0.05063243 0.0017247209 -0.05653591 0.04322616 0.06094719 -0.0067820125
0.01295389 -0.031901263 0.041187532 0.04364819 0.024260024 -0.0215023 -0.024910524 0.0010410513

head.bias f4 [29]
00000000: 9230 ab3b be42 91bb fb31 80bc 01b3 e7bc
00000010: 2734 383d 2619 7dbb b020 f2bb a2c3 263c
00000020: e768 183d d810 493a 015a 743d 88ca ef3c
00000030: 6b05 f43c 80ef ba3a 6b38 f7bc a054 03bd
00000040: fc81 02bd 2c11 eebe 6bcf efbd 68b8 623e
00000050: 5801 e53d 2368 cabd 033f 10bf 4bdf 5e3c
00000060: 56c1 7b3c d707 0fbf 70b0 6bbc aad6 13bf
00000070: ee29 393d
0.005224296 -0.004433005 -0.015648833 -0.028283598 0.04497161 -0.0038619726 -0.0073891506 0.010178478
0.037209418 0.00076700514 0.059656147 0.02927138 0.02978774 0.001426205 -0.03017827 -0.032063127
-0.031862244 -0.46497476 -0.11709484 0.22140658 0.11181897 -0.09883144 -0.5634615 0.013603042
0.015365919 -0.5587134 -0.014385328 -0.57749426 0.045206003
