federated-neighbor/heads/LOSA_head.pt (torch, 37813 bytes, 2 tensors)

head.weight f4 [35, 256]
00000000: 10f4 4f3d 7095 9abc f3a6 413d e055 5d3d
00000010: 2dd5 a2bd 3a36 cbbc 9786 14bd 04e5 94bd
00000020: 1aa7 9abc 97d8 e23c 58bd 053d 18b9 8bbd
00000030: 5707 e4bc 221c 23bd 535c 633d 6c83 fabc
00000040: 58ab 8cbd 88ce 2c3d 18f5 663c 351f 173d
00000050: a4f0 453c aac6 f5bc 88ff 35bd 50d8 85bd
00000060: 87bd b6bc 5996 30bc b71a 3dbd fc6c b6bd
00000070: 20bc d8bc 1c80 80bd 4307 453b f354 e1bb
00000080: 9742 3ebd 971a e13a 4b12 84bc c5c4 373d
00000090: 7f1a 123d 4105 583d 2f0d 98bd 14fc 293d
000000a0: 222c 84bd 352c cf3c 3b6d 4dbd 6059 18bd
000000b0: ae7c 51bc 2282 3a3d 8d1f af3b f432 65bd
000000c0: 9674 b23c 94f0 6b3d 0a22 92ba 8025 d1bc
000000d0: 5c82 503d 7b4a 363c ea2f 10bd bdbc 513d
000000e0: 7056 f33c ded0 eb3c 7824 28bd 9122 80bd
000000f0: ebbb 2c3c 19a5 ca3c 3bcc 533d 3d3a 86bd
00000100: fd0b 0d3d 9ae5 46bd 3048 19bd dc9b 56bc
00000110: f6ae 0fbc a66f 133d 8da4 82bc 3697 163d
00000120: 18f3 163d 4812 343d ac25 b03c ff3f 96bb
00000130: c28f 3d3d 5b48 023d 34f4 933c b23c 75bd
00000140: 6ffa 733c 527b 443d bb39 e73a 7c6b c53c
00000150: 65c1 65bd 4846 ba3c 5b62 2dbd 2d6d 80bc
00000160: 12e1 80bb bdc9 d3bc bc4f 503d ab7e 32bd
00000170: 83b3 01bc 6048 df3a 2b01 863c ac24 73bd
00000180: f2c4 a73c a5bd c8bb 2fe7 2dbd 531a 723c
00000190: c555 573c bf68 a5bb e627 1abd 3f1b 02bd
000001a0: e0b6 33bd cdbb 5fbc e2ff 483c 49de 5c3d
000001b0: 1f14 b8bc d570 a2bc a690 703d 3314 6ebc
000001c0: 4fd0 65bd d865 da3b 71ed 17bd 3f02 873d
000001d0: f445 82bc fb2e 75bd 399c 95bc 7adc 003d
000001e0: 9cb9 25bc 33ab a9bd 70c7 68bd 8462 923c
000001f0: 377d 363d 880b 163c f421 85bd 9f43 373d
00000200: 1006 4abd 8397 45bd 8009 38bd d5c5 56bc
00000210: a42d 0abd 4b34 1f3c 96b5 1f3c 9698 04bd
00000220: c4c8 c7bc 3f69 b9bc d2b1 85bd 396a 873b
00000230: a04b 1b3c c623 9b3b b20c febc f3e8 863c
00000240: 31b3 cb3c 30d1 283b f3cd 933c 44e1 7bbc
00000250: 7874 11ba 6eea 01bd 82c8 173d ea9f cd3b
00000260: 7e12 3d3c 1f5e 353d 8b55 83bb 35f5 173c
00000270: 5374 233d c46f 9bbb 5f71 a83b 0db1 533c
00000280: 3f0c 073d 68a4 083d f127 26bd dc7b bbbc
00000290: 6f3b e4bc 849e 7fbd 29c8 d53c b069 25bd
000002a0: 17c2 50bd 44a0 4ebd bb58 85bd d126 cbbc
000002b0: 536b 86bd 2154 49bd 9d38 5abc 67f2 a6ba
000002c0: f44e 7c3c 3064 d03c 5e6c 883b 462c 5fbd
000002d0: f4ec 043d 7e7f 813d 60a0 d5bc 6715 92bc
000002e0: 6d0e 22bd 9d49 4ebd c8b3 b3bc 1e92 bcbc
000002f0: df4d 723c 69c7 48bd 0a65 f23b 5b2b 94bc
00000300: 90ff 073d d6bb 1c3d 8654 18bd 98ef 653c
00000310: 2f28 69bd 116d 61bc 7387 d3bc 8700 083d
00000320: be62 143d efca d7bc 465b 71bd b6e9 373d
00000330: b450 fabb 2af0 7a3c b957 463c 2944 253c
00000340: 1aa4 2b3d e34b 5a3d 2d5d 2bbd f4d6 833c
00000350: ecc4 c03c 2758 a33c 9519 47bd eb38 a13c
00000360: f964 223c a5d9 d2bb c2c7 093d e30e 9cbd
00000370: 1248 22bd 9a40 acbc 6c68 313d 2d25 173d
00000380: 5d5c 6d3c 9ffd 26bd 7131 21bd 3ac1 e33c
00000390: 898a 363d 7a09 af3c 9957 a83c 3926 7dbd
000003a0: 84f0 293c 20de 79bd 1acb c6b9 bda2 dbbc
000003b0: 0426 dd3b 260b 4d3d 7074 263d d6ee 0a3d
000003c0: 4c0b 283c c051 a9bd e828 6abb 4f5c 883c
000003d0: 6977 4fbd 6437 7cbb 6dd0 debc 5697 3abd
000003e0: 6e2d 113d 7919 a33c 041c 9dbc a3a5 5dbd
000003f0: 7c5e 483d a160 48bc 2a02 70bd 8ad3 3dbd
0.050769866 -0.018870085 0.047278356 0.054036975 -0.07950816 -0.02480613 -0.036261167 -0.07270244
-0.018878508 0.027691169 0.032651275 -0.06822413 -0.027835531 -0.03982175 0.05550797 -0.030580245
-0.06868619 0.04218915 0.014096521 0.036894996 0.012081299 -0.030001957 -0.044433147 -0.06535399
-0.02230717 -0.010778033 -0.046168055 -0.08907506 -0.026456892 -0.06274435 0.0030064143 -0.006876582
-0.046450224 0.0017174062 -0.016122004 0.04486539 0.0356698 0.052739386 -0.074243896 0.041500166
-0.0645373 0.025289634 -0.050153 -0.03719461 -0.012786074 0.04553426 0.0053443373 -0.055956796
0.021784108 0.05760248 -0.001114906 -0.025530577 0.05090557 0.011126156 -0.035201944 0.051205385
0.029704303 0.02878612 -0.041050404 -0.06256593 0.01054285 0.024736928 0.05170844 -0.06554077
0.03443526 -0.04855881 -0.03742236 -0.013098683 -0.008769741 0.035995148 -0.015947605 0.0367653
0.036852926 0.043962747 0.021502338 -0.0045852656 0.046279676 0.031807285 0.018060781 -0.059872337
0.014891251 0.04796917 0.0017641106 0.024099104 -0.05609264 0.02273859 -0.042330127 -0.01567706
-0.0039330805 -0.025853032 0.05085729 -0.04357783 -0.007916334 0.0017035119 0.016357979 -0.059361145
0.020479653 -0.006126123 -0.042456802 0.014776784 0.013143008 -0.005047887 -0.037635706 -0.031764265
-0.043875575 -0.013655615 0.0122680385 0.053922925 -0.022470532 -0.019829193 0.058731697 -0.014531183
-0.05610686 0.0066649728 -0.037091676 0.06592225 -0.015902497 -0.059859257 -0.01826297 0.031460263
-0.0101150535 -0.08284607 -0.056830823 0.017869242 0.044553008 0.009158023 -0.06500617 0.044742223
-0.049322188 -0.048240196 -0.044930935 -0.01310869 -0.033734933 0.009717057 0.009747883 -0.03237208
-0.024387725 -0.022633193 -0.06528057 0.004132536 0.00947848 0.004734489 -0.031011913 0.0164685
0.024865719 0.002575945 0.01804254 -0.015373532 -0.0005548666 -0.03171771 0.037056454 0.0062751668
0.011540053 0.044279214 -0.0040080003 0.0092747705 0.039905857 -0.004743548 0.005140468 0.01292063
0.032970663 0.033359915 -0.040565435 -0.02288621 -0.027860371 -0.06240703 0.02609642 -0.040383995
-0.05096635 -0.05044581 -0.065110646 -0.024798783 -0.06563439 -0.049152497 -0.013319162 -0.0012737036
0.015399683 0.025438398 0.004163309 -0.05448558 0.03245254 0.06323145 -0.02607745 -0.017832471
-0.03956454 -0.05036317 -0.021936312 -0.023018893 0.014789074 -0.049018297 0.0073972987 -0.01808708
0.033202708 0.03826507 -0.037189983 0.014034174 -0.056923088 -0.013758914 -0.025821423 0.033203628
0.03622698 -0.026341883 -0.058924936 0.04490062 -0.007639015 0.015316049 0.012105876 0.010087051
0.041904546 0.053295027 -0.041836906 0.016093709 0.0235314 0.019939495 -0.04860838 0.01968046
0.009911769 -0.0064346367 0.03363777 -0.07620027 -0.039619513 -0.021026898 0.043312475 0.036900688
0.014487353 -0.040769216 -0.03935379 0.027802099 0.04456571 0.021366823 0.020549582 -0.06180403
0.010372285 -0.06100285 -0.00037916825 -0.026810998 0.0067489166 0.05005946 0.040638387 0.033919178
0.0102566 -0.08267546 -0.0035729948 0.016645579 -0.050650988 -0.0038485164 -0.027198995 -0.04555448
0.035443716 0.019909607 -0.019178398 -0.05411304 0.048918232 -0.012230069 -0.058595814 -0.046344317

head.bias f4 [35]
00000000: 4eb1 8f3d bb1a 883d 59dc 2b3a 5d50 ddbd
00000010: caf7 373d 1632 bcbd c95a c0bd 6a8b 303d
00000020: 8f8a 603d 447d 97bc d724 e63d d2fd 90bd
00000030: b5cf d03c b778 033d 3ce1 963d 5738 c4bc
00000040: 8fa0 413d 1234 39bd 501e 043d 460a 0cbc
00000050: dedd 57bc f659 0cbd 9b4d 0bbd d9eb 8c3c
00000060: 83af 39bc 59da 5f3d 7c9c d3bd ad60 e23d
00000070: d542 bfbd d22f 943c 6334 d8bd 69a3 933d
00000080: ffd0 9cbd 13df c73c 65d6 25bc
0.0701624 0.066457234 0.00065559667 -0.10806344 0.044914044 -0.09189241 -0.09392316 0.043101706
0.05481964 -0.018492348 0.112374954 -0.070796624 0.025489667 0.032097545 0.07367179 -0.023952646
0.04727226 -0.045215674 0.03225547 -0.008547371 -0.013175456 -0.03426548 -0.034009557 0.017202305
-0.011333349 0.054651592 -0.103325814 0.11053596 -0.09338919 0.018089209 -0.10556867 0.072089024
-0.0765705 0.024398362 -0.010121916
