federated-neighbor/heads/SEAT_head.pt (torch, 40885 bytes, 2 tensors)

head.weight f4 [38, 256]
00000000: 8199 2a3e 7d67 183e cfa9 0c3e 340f 553d
00000010: 250a 303e f5e9 b83c ab78 f33d 07f4 943d
00000020: b97d 243e 3f7c 513d 5590 f23d a403 e83d
00000030: 91a5 bf3d 081c 133d 4f13 04bd 1f79 553d
00000040: 3b38 18bd e380 153e 058b 9e3d 8d2e 203e
00000050: 7554 2e3c 53f2 e53d 6532 ba3d 4cae 303e
00000060: 113f c23d ff50 213e c9e3 143e a09c 293d
00000070: 3cc3 2b3e 8cd7 083e 70dc b03d 9409 723d
00000080: 12e7 013e 654c e53b 8318 0d3e 0c70 a73d
00000090: 6ff4 9b3d 48f5 af3d eb5d db3d da7b 1c3e
000000a0: f3f0 c03d e9ad e83d e0cf 0f3d bed9 6a3d
000000b0: 5323 1e3e b587 803d 4340 1b3e 1ded 2c3e
000000c0: d951 c03d 1ea6 8e3c 8084 e23d c1af de3d
000000d0: ef97 403e b743 b93d 74ca 0e3e 1ec2 f7bc
000000e0: b1a0 853d a653 d03d 73d7 dd3d cfac 033e
000000f0: b58d e13d 1dc6 8b3d 47fb 823d d6c1 cc3d
00000100: ebdb 253e 584b 1f3e 4b85 343d 7220 5cbd
00000110: 2897 f23d 8790 3a3e a6ae 363d 1ff5 9c3d
00000120: 6ae7 113e 68ba 233d f31d 8a3d ecbd 953d
00000130: 4e01 923d aaa1 5c3d 2cbb 313e 1963 3a3e
00000140: 9be3 4e3d aaeb df3b b2d1 ea3d 7a48 d43d
00000150: e837 af3d 1626 213e 0400 a83d 5d42 e53d
00000160: 0985 f73d 41b7 c53d 0888 db3d d0d3 963d
00000170: fef1 f63d 5af9 c13d 4e27 acbc 96d0 c23d
00000180: 2c1c 893c 78bf ab3d 5953 293d dff6 e13d
00000190: e83c 2b3e 814e af3d d56e ac3d 480e b53d
000001a0: 1199 e73c 3b46 643d e56a e03d 51f0 013e
000001b0: 6c7a 083e e5c3 b63d b7eb d33d a184 ba3d
000001c0: d162 0c3d 829b ba3d 92f2 7a3d 0cc2 9c3d
000001d0: 6587 083e bd27 983d ba4f 5f3d 91c7 113c
000001e0: e80d f13d 2536 ed3d fbad ae3d 8cdf d73d
000001f0: cd22 e43d ec16 203e b23e af3d 3eb4 ca3d
00000200: 1fbf 013e 8203 383e 411e f83d ff1c 023e
00000210: e077 8f3d 3077 2dbc 26c5 1e3e ca2f 263e
00000220: f3c9 8b3d 5264 aa3d 310a 3d3d ecdc 8a3d
00000230: 77c5 053e 9c96 333e b97f ad3d 9d26 fe3d
00000240: d4f2 dc3d 899a 613d 2102 f73b 9c34 083d
00000250: 46ee 73bc 8742 5d3d e688 313e 10e1 ee3d
00000260: 0bdc 053e b0a0 61bb 341a 3a3e d7b0 713d
00000270: ca05 b83d d145 c83d f6e5 a33d 58df cc3d
00000280: d83f 303e 2875 e33d 3fc6 573d 9297 41bc
00000290: 390d 613d d5e6 123e 2477 1d3d f368 333a
000002a0: e876 2b3e efcb 7b3d af6b 583d b724 243e
000002b0: 83d5 153e f9bc 1a3e 980c f3bc 379c fb3c
000002c0: 6e52 f43c e397 3f3d d4b6 a8bc e23c 8d3d
000002d0: f483 643d 7d00 d03d 1fc2 073e 189e 123d
000002e0: 0792 ba3b 6736 be3c 4ecb 7abc 7995 853d
000002f0: 6b63 913d ccbe 333e 826e 493e b46d 6ebc
00000300: 962d 493d d7ab 1e3d 542b 2a3e 235b 9c3d
00000310: d8b5 4e3d f522 253e e560 8d3d 4af9 2b3e
00000320: 4077 483c b8e0 5a3d 7e93 f83d 58ef 533d
00000330: e352 e53d 1384 0b3e 46cd c93d d333 253d
00000340: efaf c33d 5540 cb3d f215 e23d bd55 0e3e
00000350: 7783 173e b79d 163e 55ee 993d 2315 4e3d
00000360: 3b01 aa3b 4696 abbc a737 103e 36c9 0a3d
00000370: 0b62 b23d 0b52 0b3e 709d 253e 8591 e23d
00000380: 6c4c da3d d080 1a3e 3295 ed3d 292c 213d
00000390: 3aa0 a33d 035d ce3d 2b11 a43d 0e03 073d
000003a0: 4482 013e 4ae7 4b3e 6ab6 f43d bb46 9e3d
000003b0: 7448 d73c 53c2 8d3d b7ab 083d 94a0 b83d
000003c0: f4da c93d 6af5 b83d def8 623d 6476 2dbc
000003d0: 8367 ef3d 0655 f93d 2762 963d 5afc 9c3d
000003e0: 6aaf ae3d cde5 e0bc 87be 123e cc57 e2bb
000003f0: f2a2 b13d 565a ed3c cdf3 223e 27d0 f53d
0.1666012 0.14883228 0.13736652 0.052016452 0.1719137 0.022572497 0.1188825 0.07273107
0.16063584 0.05114388 0.118439354 0.113288194 0.09357751 0.035915405 -0.032244977 0.052117463
-0.037163 0.14599948 0.077413596 0.15642758 0.010640253 0.1122786 0.09091643 0.17253989
0.09484685 0.15753554 0.14540018 0.041409135 0.16773695 0.13363475 0.08635795 0.059091166
0.12685803 0.0069976323 0.13778882 0.08175668 0.076149814 0.085917056 0.10711273 0.1528162
0.094209574 0.11361296 0.035110354 0.05733656 0.15443163 0.06275884 0.15161233 0.16887327
0.09390611 0.017413195 0.110604286 0.10873366 0.18807958 0.09046119 0.13944417 -0.03024393
0.0652479 0.10172205 0.10832109 0.1285889 0.110133566 0.068248965 0.063955836 0.09997909
0.16197173 0.15556085 0.04407243 -0.05374188 0.11845237 0.18219195 0.04460015 0.07663941
0.14248434 0.039972693 0.067439936 0.07311615 0.07129155 0.053865112 0.17356557 0.18201865
0.05051003 0.0068335133 0.114657775 0.10365386 0.08555585 0.15737185 0.08203128 0.111942984
0.12085921 0.096540935 0.10719305 0.07364619 0.12057875 0.09471388 -0.021014836 0.09512441
0.016737066 0.08386129 0.041339252 0.11033415 0.16722453 0.08559895 0.08419577 0.088406146
0.02827123 0.05573104 0.109578885 0.1268933 0.1332795 0.08924083 0.103476934 0.09107328
0.034273926 0.09111692 0.06126649 0.07654199 0.13332899 0.074294545 0.054519393 0.008897678
0.117702305 0.11582593 0.08529278 0.10540685 0.1113945 0.15633744 0.0855688 0.0989766
0.12670563 0.17970088 0.121151455 0.12706374 0.07005286 -0.010587499 0.15504894 0.16229168
0.06825628 0.08319916 0.046152297 0.06780419 0.13063608 0.17537922 0.08471627 0.12409709
0.10788503 0.055079017 0.0075380956 0.033253297 -0.014888352 0.054018524 0.17337379 0.11664021
0.13072221 -0.0034428053 0.18174058 0.05900654 0.08985479 0.097789414 0.08002846 0.10003537
0.17211854 0.1110633 0.052679297 -0.011815922 0.05494425 0.14345868 0.0384437 0.0006843947
0.16744578 0.061473783 0.05283707 0.1602963 0.1463223 0.1511115 -0.029669091 0.030714137
0.029824462 0.04677571 -0.020594992 0.06896378 0.055789903 0.10156343 0.13257645 0.0357953
0.0056936773 0.0232193 -0.015307261 0.0652265 0.070990406 0.17553252 0.19671062 -0.014552522
0.04911574 0.038738098 0.16618091 0.076345704 0.05046639 0.16126616 0.06903247 0.16794315
0.012235463 0.053436965 0.12137507 0.051741928 0.1119745 0.13624601 0.09853606 0.040332627
0.09555041 0.0992438 0.11039342 0.13899894 0.14796244 0.14708601 0.07516161 0.050313126
0.005188135 -0.02094568 0.1408373 0.033883296 0.087101065 0.13605516 0.16173339 0.11062912
0.106591076 0.150882 0.116007224 0.039348755 0.07989545 0.10076334 0.08011087 0.032961898
0.12647349 0.19912449 0.11948855 0.077283345 0.026279666 0.0692183 0.033366885 0.09015003
0.09856215 0.09031184 0.05541312 -0.010587309 0.11689665 0.1217442 0.0734294 0.0766532
0.08529551 -0.027453328 0.14330493 -0.006907439 0.086736575 0.02897374 0.15913315 0.120025925

head.bias f4 [38]
00000000: 0628 213e a7d0 e5bd f9e9 d1bd 4d8e 053e
00000010: 2ce7 2cbe 13d8 d3bd ebef e53d 3206 0d3c
00000020: 9fb9 c33d ee28 323d 5818 50be c4a0 3c3e
00000030: 720f 433e dd83 12be 7163 77bd 2c75 253e
00000040: b813 f33d f4b2 1cbe ca4b 20be 0473 063e
00000050: ea6a 4abe 9ee2 033e 8510 10be 4ff5 143e
00000060: 1d3f 933d 91c5 1cbe 8c87 8e3b 9642 cbbd
00000070: 593a ab3b ced6 3ebc 04d2 c0bd 3c8f 43be
00000080: 91a6 1cbe 1202 103e fe57 25be a0c2 10be
00000090: 5a42 63be e0a9 053e
0.15737924 -0.11221438 -0.10249705 0.13042565 -0.1688506 -0.10343947 0.11227401 0.008607434
0.09556889 0.043496065 -0.20321786 0.18420702 0.1904886 -0.14308114 -0.06039757 0.16157979
0.118689954 -0.1530264 -0.15653911 0.13129812 -0.19767347 0.12879416 -0.14068802 0.14546703
0.07189772 -0.1530974 0.0043496545 -0.0992481 0.0052254614 -0.011647893 -0.09415057 -0.19097608
-0.15297915 0.1406329 -0.16146848 -0.14136744 -0.2219328 0.13053083
