federated-neighbor/heads/WASH_head.pt (torch, 37813 bytes, 2 tensors)

head.weight f4 [35, 256]
0	0xbb591d51	-0.0033129046
1	0xbc9043a2	-0.017610375
2	0xbd0350f4	-0.032059625
3	0x3d2e701b	0.04258738
4	0xbd9b04da	-0.07569285
5	0x3ce1fdca	0.027586836
6	0xbdbd3261	-0.09238125
7	0xbc064f96	-0.008197686
8	0x3c447dcd	0.011992884
9	0xbbdd5aaf	-0.006755195
10	0xbc6e6a3d	-0.014551696
11	0xbc8d62a7	-0.017258955
12	0x3db08bab	0.086203896
13	0xbd254f58	-0.04035887
14	0xbd066d4a	-0.03281907
15	0xbd00ee5f	-0.03147733
16	0x3ddf65b1	0.10908068
17	0xbd0de46e	-0.034641676
18	0xbce7f6f4	-0.028315999
19	0xbd2201c7	-0.039552476
20	0x3d30aac9	0.043131623
21	0xbd0ba664	-0.03409423
22	0xbd87ca57	-0.0663039
23	0xbd688beb	-0.05677406
24	0xbd940415	-0.07227341
25	0x3ca8ccab	0.020605406
26	0xbdd01e5f	-0.10162043
27	0x3cf4c155	0.029877344
28	0xbc8ecf7f	-0.017432926
29	0xbd886a6c	-0.06660923
30	0x3d985997	0.07438963
31	0x3d9c4a3a	0.07631345
32	0xbd21b264	-0.039476767
33	0x3c258c1b	0.0101042045
34	0x3cd10588	0.025515333
35	0xbbbfaac8	-0.005849216
36	0xbc7bd2c0	-0.015370071
37	0x3de846d8	0.113416374
38	0xbc898c09	-0.016790407
39	0xbe0b8cd2	-0.13627937
40	0x3d9760a2	0.07391478
41	0xbb8ed09f	-0.0043583657
42	0xbd1f0ea3	-0.038832318
43	0x3dcdd3b4	0.10050145
44	0xbd571773	-0.052512597
45	0xbc12ba92	-0.008955615
46	0xbc41dc3c	-0.011832293
47	0xbd02ddcf	-0.031949814
48	0x3cd5ac5a	0.02608316
49	0xbd61f101	-0.05516148
50	0x3df09154	0.11746469
51	0x3df83dcc	0.12121162
52	0xbd290b75	-0.041270692
53	0xbd15cb6d	-0.036570955
54	0x3ddd7275	0.108128466
55	0x3d915477	0.070961885
56	0xbca7addc	-0.020468645
57	0x3db1f8fb	0.086900674
58	0xbd473909	-0.048638377
59	0xbdd6133a	-0.10452886
60	0xbd55f530	-0.052235782
61	0xbdd39789	-0.103316374
62	0xbb9ba4a6	-0.004749852
63	0xbd3af250	-0.045641243
64	0xbaefe0c4	-0.0018301238
65	0x3d41986d	0.047264505
66	0x3e2073d5	0.15669186
67	0x3a459de6	0.00075384823
68	0xbd6b5cb4	-0.057461455
69	0xbc6ab792	-0.014325993
70	0x3ca4609f	0.020065604
71	0x3b72d07c	0.0037050536
72	0xbc179d37	-0.0092537915
73	0x3d662a67	0.05619278
74	0x3c2d316a	0.010570863
75	0xbb7d09b4	-0.003861052
76	0xbd942d79	-0.07235236
77	0x3d682808	0.0566788
78	0xbcb04e88	-0.021521822
79	0xbd6b8046	-0.057495378
80	0x3e13cdaf	0.14433931
81	0x3be6b98c	0.007041162
82	0xbd59bb69	-0.053157244
83	0xbde81f8f	-0.11334144
84	0xbd8bcac9	-0.068257876
85	0x3d987936	0.07444994
86	0x3d6ad8fe	0.057335846
87	0xbc332e20	-0.01093629
88	0xbc8af138	-0.016960725
89	0x3c235f10	0.009971395
90	0xbc8ac13f	-0.01693785
91	0xbc828e96	-0.01593713
92	0xbd360f0c	-0.044447944
93	0xbdf659fc	-0.12028882
94	0xbcda300f	-0.026634244
95	0xbd10fa63	-0.035395037
96	0x3d4fc3e1	0.050723914
97	0xbd74dea4	-0.05978264
98	0xbce0ed80	-0.027456999
99	0xbd6b2691	-0.057409827
100	0xbcae8e1f	-0.021308003
101	0xbcefc47b	-0.029268494
102	0xbdb18e1c	-0.08669683
103	0xbd75597e	-0.0598998
104	0x3d83396c	0.06407437
105	0x3da996ad	0.08280692
106	0x3cbcfed2	0.023070727
107	0xbd7c98bb	-0.061669093
108	0x3c00bbaf	0.007857247
109	0x3d497c3e	0.049190752
110	0x3d374834	0.044746593
111	0xbd87ea4b	-0.06636485
112	0x3da09bd9	0.078422256
113	0x3d35353e	0.04424023
114	0xbc1e86ae	-0.009675665
115	0x3d80be4d	0.06286297
116	0xbb6947ed	-0.003559585
117	0x3d3724bc	0.044712767
118	0x3d803080	0.06259251
119	0x3d8a32e0	0.06747985
120	0x3d64336d	0.055713106
121	0xbb6034af	-0.003421109
122	0x3d9b19ce	0.07573281
123	0xbce41990	-0.02784422
124	0x3dabfc20	0.083976984
125	0x3d73b35f	0.059497233
126	0x3dd83a64	0.10558012
127	0xbb43a6ec	-0.0029854132
128	0xbdadd6e1	-0.084882505
129	0xbd86c3e5	-0.06580333
130	0x3d23d402	0.03999711
131	0x3cb9564d	0.02262416
132	0xbc485ef3	-0.012229669
133	0x3ce52913	0.027973687
134	0x3d640ca7	0.05567613
135	0x3cd3c79c	0.025852017
136	0x3d9b1b45	0.075735606
137	0xbd95677b	-0.07295128
138	0x3dda8b11	0.10671056
139	0xbcd7d7a1	-0.026347937
140	0x3d606424	0.054783
141	0x3abba0ca	0.0014314887
142	0xbd7f3c86	-0.06231358
143	0xbd814a25	-0.0631297
144	0xbde98c46	-0.11403708
145	0xbc9505aa	-0.018191177
146	0xbd52f2e8	-0.051501185
147	0x3dded3ea	0.10880263
148	0xbd5dabf3	-0.05411906
149	0xbbf38c52	-0.007432499
150	0x3c8095be	0.015696403
151	0xbd3ed743	-0.04659201
152	0xbd0ddff3	-0.034637403
153	0xbddbd7f7	-0.107345514
154	0xbde50fe6	-0.11184673
155	0x3c536c00	0.012904167
156	0x3a2232cd	0.00061873795
157	0xbd84d9fe	-0.06486891
158	0xbd35e255	-0.0444053
159	0xbbd56946	-0.0065127937
160	0x3d86f491	0.06589616
161	0xbd73bcd0	-0.059506238
162	0xbdc0c5cf	-0.09412729
163	0xbd2d10f8	-0.04225251
164	0xbca1ecb5	-0.019766191
165	0x3d61fd75	0.055173356
166	0x3d9a2b47	0.07527786
167	0x3cefbada	0.029263902
168	0xbc5d3173	-0.013500559
169	0xbd186f38	-0.03721544
170	0x3d2d6573	0.042333078
171	0x3c2f900e	0.010715498
172	0x3ccd47e4	0.025058694
173	0xbd9e1134	-0.07718125
174	0x3d55a028	0.05215469
175	0x3d1324de	0.03592383
176	0x3bd084c9	0.0063634855
177	0x3d22bcdb	0.039730888
178	0x3cd55dab	0.02604564
179	0x3c8ea1b9	0.0174111
180	0x3d520c35	0.051281173
181	0x3de88054	0.11352602
182	0xbd9cb5c3	-0.07651856
183	0x3cd549e1	0.026036205
184	0xbc924ee2	-0.01785988
185	0xbd040368	-0.03222981
186	0xbd40e7b8	-0.047095984
187	0x3d6ae6ab	0.05734889
188	0xbd90365a	-0.07041617
189	0xbdc40b48	-0.09572464
190	0x3da3a220	0.07989907
191	0xbc9535b1	-0.018214079
192	0xbd3b36a9	-0.045706425
193	0x3ce2ffde	0.027709898
194	0x3d283ad6	0.041071735
195	0x3be32932	0.006932401
196	0xbdacca00	-0.08436966
197	0xbd520474	-0.051273778
198	0xbd0444af	-0.032292064
199	0xbda1e5bc	-0.079051465
200	0x3df5d342	0.12003185
201	0x3d532d46	0.051556848
202	0xbce1caaa	-0.027562458
203	0x3d1e99a0	0.038720727
204	0xbbf7960d	-0.0075557292
205	0x3e18a00d	0.14904805
206	0xbd246ea2	-0.04014457
207	0xbd9fd0e7	-0.07803517
208	0xbc721766	-0.014776086
209	0xbd1b34d5	-0.03789218
210	0x3da0a54d	0.078440286
211	0xbcea3fea	-0.02859493
212	0xbd1598a7	-0.036522534
213	0x3ac00e13	0.0014652632
214	0xbdb5bd76	-0.088740274
215	0xbd9f74ea	-0.077859715
216	0xbd876803	-0.066116355
217	0x3d4534fc	0.048146233
218	0xbd949e79	-0.07256789
219	0xbc4acd21	-0.012378008
220	0xbc56f14e	-0.013119055
221	0xbcf26c23	-0.02959258
222	0xbc899dcd	-0.016798878
223	0x3dfbe3ba	0.12299295
224	0x3c85c4e0	0.016329229
225	0xbd210842	-0.039314516
226	0x3d8256c0	0.063642025
227	0xbc8b6197	-0.017014308
228	0x3cb0b3d9	0.021570133
229	0xbdb2ad50	-0.08724463
230	0x3d1591ae	0.036515884
231	0x3bca5d29	0.0061756563
232	0x3ce1f8ef	0.027584521
233	0xbce97859	-0.028499769
234	0xbd28bc38	-0.041195124
235	0xbd84c67c	-0.064831704
236	0x3c883ebe	0.01663148
237	0x3bffbf16	0.0078047616
238	0xbc3fa458	-0.011696897
239	0xbe14ce7b	-0.14531891
240	0x3d02377d	0.0317912
241	0xbd82fa2d	-0.063953735
242	0x3c7bd599	0.01537075
243	0x3d8016fc	0.06254384
244	0x3d28cbcd	0.041209985
245	0xbd213e6d	-0.039366174
246	0x3d5b6035	0.053558547
247	0xbcc8e3d5	-0.024522701
248	0xbc786cbc	-0.015162643
249	0x3d5b4593	0.053533148
250	0xbb092d35	-0.0020931487
251	0x3e04a0c3	0.1295195
252	0xbd374888	-0.044746906
253	0x3c66d92d	0.014089865
254	0xbd79e75c	-0.061011657
255	0xbd5d67c4	-0.054054037

head.bias f4 [35]
0	0x3d40a6ba	0.047034003
1	0xbc9cc87a	-0.019138563
2	0xbe4e5291	-0.20148684
3	0x3de08f9b	0.109648906
4	0x3d130d88	0.035901576
5	0xbcbc5cb8	-0.02299343
6	0xbe3693fe	-0.17829892
7	0x3e4a96c7	0.1978408
8	0x3cb734ae	0.022363987
9	0x3dceb98c	0.10093984
10	0xbd4154fd	-0.04720019
11	0xbde06fc8	-0.109588206
12	0x3cb9b434	0.022668935
13	0xbde8ff2f	-0.113767974
14	0xbdd91f12	-0.10601629
15	0x3de1661c	0.11005804
16	0x3ecdcf4f	0.40197226
17	0x3dfa855c	0.122324675
18	0xbecba7e3	-0.39776525
19	0x3e3a6034	0.18200761
20	0xbe0d87a9	-0.13821281
21	0xbe47cf96	-0.19512782
22	0x3d78a6f6	0.0607061
23	0x3da3555b	0.07975265
24	0xbe37c169	-0.17944874
25	0xbde08f5c	-0.10964844
26	0x3e071151	0.131902
27	0xbd23dce6	-0.040005587
28	0xbe1f55ce	-0.15560076
29	0xbde60f85	-0.11233429
30	0x3dd3da11	0.10344327
31	0xbe829b3f	-0.25509068
32	0xbe4f7a76	-0.20261559
33	0x3e310666	0.17287597
34	0xbcd53333	-0.02602539
