federated-oracle/final_backbone.pt (torch, 776169 bytes, 6 tensors)

backbone.0.weight f4 [256, 240]
0.05006396 0.040027577 0.04159282 0.0026093784 0.0007962172 0.04926931 0.0069965757 -0.06556609
0.03392958 -0.021359513 -0.0033585087 -0.0102050975 0.022699112 0.009182226 0.040410478 0.024726057
-0.022462606 0.03999842 0.046288025 0.03017915 0.050427396 -0.054485224 -0.022715198 -0.03763407
0.0031980153 0.052106846 0.031187806 -0.063365206 0.04838058 0.020910965 -0.028448025 0.033480845
-0.0072090733 0.047983088 -0.00052692194 0.029808523 -0.04918498 -0.051020637 0.00952006 -0.01025847
0.002894523 -0.057552483 0.0061791274 0.021311466 0.018459598 -0.045044746 -0.021454828 -0.05200862
-0.015572277 -0.0084836185 -0.03010629 0.012619993 -0.06450956 0.031511817 -0.018492647 -0.049900785
0.026836334 0.011326147 0.036938563 -0.06341588 -0.012325493 0.043522984 0.0075609228 0.01709345
-0.015304372 -0.06545251 0.011069952 -0.019917285 -0.025605347 -0.015240416 0.0039304364 -0.022609536
0.02109928 -0.015643876 -0.045466207 0.052873593 0.018552383 0.0022496935 0.01379412 -0.0004187379
0.04073709 -0.073235 -0.031541035 0.004717108 -0.021659926 -0.04688594 0.013410769 -0.060398784
0.05215393 0.053455852 0.016259858 -0.07040487 0.039184984 0.039547436 -0.042219542 -0.04887707
0.025022985 0.039071474 -0.010180831 0.029263286 -0.008776432 -0.0025659376 0.02461222 -0.070649244
0.04248127 0.04924268 -0.04691741 -0.05565859 0.009547636 -0.025957637 0.047361944 -0.06818338
0.009221114 -0.049847763 -0.04149157 -0.0013601226 -0.04541724 -0.0018744847 -0.048621938 -0.050247174
-0.027248736 0.022951704 0.03421501 0.013808258 -0.0023907763 -0.03288238 -0.015615847 -0.026970802
0.010752638 -0.030279076 -0.071990974 -0.03066173 0.02589107 -0.039216265 0.021000547 -0.024698172
0.019532828 0.022118717 0.011805131 -0.031273227 -0.026679447 -0.04767129 -0.07013521 0.052776147
-0.057999432 -0.0033753635 0.013014162 -0.06919198 0.052910715 -0.036242153 -0.061710577 0.036009286
-0.062073853 -0.051472835 0.025493251 0.030130487 0.0024425106 0.04823166 -0.014994341 0.030713115
0.05067843 -0.014619196 -0.014694955 -0.06310076 -0.0055227387 0.04075875 -0.049875464 0.02403662
-0.044401143 -0.06209672 -0.0030835578 -0.048305057 -0.034372777 -0.005223782 0.012754227 -0.026061311
0.021732334 -0.06847863 0.034029663 -0.034831014 0.026384836 0.0055496613 -0.042063374 0.005981515
-0.058180265 0.052773274 0.007064328 0.03699607 -0.02393979 -0.0028532168 0.0145202335 -0.059529677
0.042731237 -0.03210105 -0.036341865 -0.04328445 -0.010445547 -0.021752803 0.009489365 0.043261662
-0.044056967 0.017728414 0.0439914 -0.03359579 -0.07310026 -0.027411297 0.009566522 0.028394386
0.027147809 -0.009695185 -0.014057306 0.033944454 -0.009913782 -0.012667374 0.016177136 -0.038230274
-0.0018730261 -0.06312421 0.023317024 0.046977565 0.032129604 0.028039984 0.005486012 0.0053764316
0.022366922 0.01747558 -0.03815097 -0.062138353 -0.008957389 -0.07097852 0.020410687 -0.023978574
-0.028281942 -0.024299147 0.0045535704 0.024440214 0.018601561 -0.0004109911 0.010544672 0.00020157237
0.036476232 0.045176905 0.015843142 -0.051540118 -0.054904144 -0.012899966 0.024752878 0.04667429
0.022344837 0.036081787 0.025170999 -0.03911237 -0.027653499 -0.02938704 0.024744703 -0.050234962
00000000: de0f 4d3d f5f3 233d 3c5d 2a3d 1b02 2b3b
00000010: 3bb9 503a 9ece 493d 8843 e53b 8447 86bd
00000020: bef9 0a3d 25fa aebc 6d1a 5cbb 4833 27bc
00000030: 7df3 b93c 0c71 163c 7585 253d 4d8e ca3c
00000040: 8003 b8bc 62d5 233d 8398 3d3d 443a f73c
00000050: f58c 4e3d e62b 5fbd 3915 babc 2f26 1abd
00000060: cb95 513b fd6d 553d 927d ff3c 9ec5 81bd
00000070: b72a 463d 794d ab3c d50b e9bc 3623 093d
00000080: 173a ecbb ea89 443d 2221 0aba 0131 f43c
00000090: 3176 49bd 04fb 50bd 07fa 1b3c 2413 28bc
000000a0: 0ab2 3d3b 27bc 6bbd 477a ca3b 6295 ae3c
000000b0: 9538 973c d780 38bd 09c2 afbc fe06 55bd
000000c0: dd22 7fbc e0fe 0abc 77a1 f6bc 16c4 4e3c
000000d0: 971d 84bd 8912 013d e47d 97bc c464 4cbd
000000e0: dfd7 db3c 4e91 393c e44c 173d 2fe0 81bd
000000f0: ddf0 49bc 2845 323d 9ec1 f73b 9007 8c3c
00000100: 30bf 7abc f70b 86bd be5e 353c 9329 a3bc
00000110: 4ec2 d1bc f0b2 79bc e4ca 803b a237 b9bc
00000120: 66d8 ac3c 9627 80bc c63a 3abd fb91 583d
00000130: 2bfb 973c 986f 133b bc00 623c 0d8a dbb9
00000140: efdb 263d 3bfc 95bd 2c31 01bd f891 9a3b
00000150: 2870 b1bc 790b 40bd d8b8 5b3c b764 77bd
00000160: 5c9f 553d 86f4 5a3d 6533 853c 6e30 90bd
00000170: 6f80 203d 7efc 213d 66ee 2cbd 5333 48bd
00000180: 01fd cc3c 6909 203d 80cd 26bc 8fb9 ef3c
00000190: 06cb 0fbc 4a29 28bb 919f c93c 8db0 90bd
000001a0: d700 2e3d b1b2 493d 782c 40bd 43fa 63bd
000001b0: b06d 1c3c 1ca5 d4bc 99fe 413d baa3 8bbd
000001c0: 2814 173c 2b2d 4cbd 11f3 29bd 2446 b2ba
000001d0: 6e07 3abd 45b1 f5ba cc27 47bd fbcf 4dbd
000001e0: be38 dfbc 3605 bc3c 0a25 0c3d 083c 623c
000001f0: 92ae 1cbb adaf 06bd 9cd9 7fbc dff1 dcbc
00000200: d52b 303c d30b f8bc 0170 93bd 4f2e fbbc
00000210: 8219 d43c 3ca1 20bd 5709 ac3c d253 cabc
00000220: 4f03 a03c 5032 b53c 4f6a 413c 5b18 00bd
00000230: db8e dabc f842 43bd 0da3 8fbd cd2b 583d
00000240: d090 6dbd 3435 5dbb 5a39 553c 86b4 8dbd
00000250: e8b8 583d a772 14bd 3bc4 7cbd 797e 133d
00000260: 2741 7ebd 2ed5 52bd 39d7 d03c 36d4 f63c
00000270: 8712 203b 908e 453d d3aa 75bc 129a fb3c
00000280: 2f94 4f3d 5a85 6fbc 1cc3 70bc f93a 81bd
00000290: 17f8 b4bb a6f2 263d 374a 4cbd 72e8 c43c
000002a0: f9dd 35bd 2159 7ebd 8415 4abb 86db 45bd
000002b0: 78ca 0cbd 422c abbb 1bf7 503c 887e d5bc
000002c0: 0208 b23c 863e 8cbd b062 0b3d f7aa 0ebd
000002d0: 0325 d83c efd9 b53b a54a 2cbd 9600 c43b
000002e0: 6e4e 6ebd ca28 583d e17b e73b 3189 173d
000002f0: 611d c4bc 09fd 3abb 46e6 6d3c 64d5 73bd
00000300: f306 2f3d 647c 03bd 35db 14bd 094b 31bd
00000310: cd23 2bbc ef32 b2bc 4879 1b3c 2433 313d
00000320: 1475 34bd 2e3b 913c 5430 343d bd9b 09bd
00000330: 97b5 95bd a88d e0bc e7bc 1c3c 589b e83c
00000340: 1565 de3c 8ed8 1ebc 9d50 66bc 5709 0b3d
00000350: 6a6d 22bc d18a 4fbc ea85 843c 5997 1cbd
00000360: 5480 f5ba 4447 81bd 5803 bf3c 8c6b 403d
00000370: 559a 033d 1cb4 e53c 01c4 b33b c72c b03b
00000380: d63a b73c f328 8f3c 3144 1cbd c984 7ebd
00000390: 03c2 12bc 305d 91bd 5034 a73c b76e c4bc
000003a0: 88af e7bc 010f c7bc 1e36 953b d836 c83c
000003b0: 4d62 983c 4b7a d7b9 8fc3 2c3c 2c5d 5339
000003c0: 1a68 153d 6b0b 393d 7ac9 813c bb1b 53bd
000003d0: 2be3 60bd 615a 53bc 8cc6 ca3c 8a2d 3f3d
000003e0: 850c b73c 7fca 133d 6933 ce3c 4b34 20bd
000003f0: 9789 e2bc 17bd f0bc 67b5 ca3c 2dc3 4dbd

backbone.0.bias f4 [256]
0.023682611 -0.03430307 0.06476775 0.051425338 -0.03233411 0.020478223 0.06386201 0.06322537
0.04439037 0.09305419 0.04272087 -0.0068721557 -0.02847044 0.012387135 0.020629957 0.05603473
0.0663954 -0.016100535 -0.033482075 -0.05468589 0.041927285 0.0374724 0.045879144 -0.05496827
0.002276074 0.028696598 0.033606138 0.02209872 -0.05477887 0.059049208 0.043852612 0.03937025
-0.031874686 0.024504304 -0.06336601 -0.01870686 0.014797196 -0.020551752 0.075174905 -0.040412486
0.023573218 0.023071647 -0.004128742 -0.025280349 -0.021825723 0.07312927 0.017448138 -0.031486902
0.01236769 0.03281026 -0.028692337 0.084448345 0.05079915 0.0845639 0.0140420385 0.039949514
0.12024346 0.036136728 0.007662758 -0.0015615291 0.036540896 -0.040025774 0.04744144 -0.015275687
0.05587972 0.045268692 -0.017234484 0.046742804 0.04092582 -0.014365644 0.07344042 0.057229336
0.0286731 0.011681684 0.04494833 0.034972835 0.07543132 -0.034965273 -0.019202994 0.07624244
-0.001244536 -0.006968941 0.07769866 0.039725777 -0.02846419 0.05968236 0.053565428 -0.011082021
-0.059251357 0.0730964 0.040934235 -0.0069809016 0.064593345 -0.021038203 -0.036137126 -0.058758345
-0.047453035 -0.03347152 -0.019252423 0.05496889 0.0030780337 -0.026443804 0.06036535 -0.053473227
0.016218266 -0.025498046 0.044149704 0.014455018 0.044310458 -0.0030322762 0.07691811 0.0038333102
0.045865502 0.03977212 0.05393103 0.059526972 0.05950513 0.004363826 0.009802526 0.05422886
0.00845939 0.035618752 -0.040464494 -0.063645534 0.07347346 0.06126289 -0.034584403 -0.062417287
-0.007011287 -0.0007752345 -0.022841739 0.016964983 -0.059429653 -0.038101118 0.028270138 -0.03098646
0.002298181 -0.029576115 0.0107900305 -0.049457647 0.021510275 0.045115393 -0.024078706 0.034060955
0.015033732 0.0126886 0.024882084 -0.03741391 0.041260816 -0.018827418 0.03439833 -0.03411513
0.055472713 0.037028577 -0.02848028 -0.0031834217 0.003244592 0.062504284 -0.048892353 -0.034441397
0.00962199 -0.029253881 0.08710431 0.06347698 0.059783254 -0.0010233561 0.027599946 0.081635065
-0.046297494 -0.052278668 0.032917846 -0.045990277 -0.04792871 -0.027903467 0.036121495 0.038350888
-0.004709371 -0.06276077 -0.036763992 -0.031294428 -0.0029696026 -0.03537863 0.06503412 -0.020802008
0.0042504114 0.113486156 0.060274046 0.031085627 0.09824194 0.010889289 0.004525841 0.04086046
-0.03291987 0.040974192 0.017236855 0.034799807 -0.043964606 -0.026592452 -0.037906136 -0.063382894
0.0006504462 -0.02289204 0.073976345 -0.041872464 -0.013637195 0.03165406 0.052577768 0.062487815
0.024829386 0.015415074 -0.0025889662 0.018027011 -0.03832876 0.06511034 -0.020027865 0.032172803
-0.034719292 -0.017711977 0.1076857 -0.023180136 0.028562251 0.018375339 -0.024540897 0.059215378
0.044070084 0.019768333 -0.009693463 -0.002489571 -0.014516515 0.024902612 -0.03648454 -0.061466023
0.012512631 0.02797362 -0.0504015 0.026125196 -0.025209375 -0.037186045 0.057204247 0.070624985
0.06976999 -0.0034673903 -0.007379809 0.046977732 0.00884751 -0.063372605 -0.053335864 -0.058589395
0.07553354 0.0071653295 0.0368405 0.018997818 0.044018574 0.04397612 -0.006015968 -0.00077485153
00000000: 0902 c23c 6081 0cbd f4a4 843d 60a3 523d
00000010: c670 04bd f2c1 a73c 16ca 823d 4e7c 813d
00000020: add2 353d 3293 be3d 14fc 2e3d d22f e1bb
00000030: d73a e9bc 69f3 4a3c 2800 a93c ac84 653d
00000040: 50fa 873d 45e5 83bc 8024 09bd 50fe 5fbd
00000050: f2bb 2b3d a97c 193d c5eb 3b3d 6926 61bd
00000060: 2f2a 153b 2115 eb3c 97a6 093d 6008 b53c
00000070: cf5f 60bd 95dd 713d cc9e 333d b342 213d
00000080: 088f 02bd 40bd c83c 0ac6 81bd 213f 99bc
00000090: f06f 723c 265c a8bc 4df5 993d 9087 25bd
000000a0: 9f1c c13c c000 bd3c 664a 87bb bc18 cfbc
000000b0: dccb b2bc ccc4 953d 66ef 8e3c 69f8 00bd
000000c0: daa1 4a3c 0d64 063d 310c ebbc 41f3 ac3d
000000d0: c512 503d d72f ad3d 9410 663c 1aa2 233d
000000e0: 3442 f63d 1b04 143d e017 fb3b 39ac ccba
000000f0: e8ab 153d 11f2 23bd f551 423d e046 7abc
00000100: 22e2 643d aa6b 393d 552f 8dbc 6275 3f3d
00000110: d5a1 273d e15d 6bbc ee67 963d 4f69 6a3d
00000120: d9e3 ea3c 8964 3f3c bd1b 383d ad3f 0f3d
00000130: bc7b 9a3d bf37 0fbd 994f 9dbc ff24 9c3d
00000140: b31f a3ba b75b e4bb 7a20 9f3d 7fb7 223d
00000150: bc2d e9bc 7e75 743d 6c67 5b3d 5d91 35bc
00000160: 8db1 72bd 91b3 953d a8aa 273d 0cc0 e4bb
00000170: 8449 843d 4f58 acbc 8604 14bd 97ac 70bd
00000180: 1d5e 42bd 6f19 09bd 42b7 9dbc 0f27 613d
00000190: d6b8 493b ada0 d8bc a841 773d be06 5bbd
000001a0: 2bdc 843c 47e1 d0bc 52d6 343d bdd4 6c3c
000001b0: e27e 353d 27b9 46bb 3e87 9d3d 4638 7b3b
000001c0: 77dd 3b3d 17e8 223d c9e6 5c3d 8ed2 733d
000001d0: a7bb 733d 6dfe 8e3b c69a 203c 151f 5e3d
000001e0: 4199 0a3c f8e4 113d 19be 25bd 9758 82bd
000001f0: 4179 963d ccee 7a3d 60a8 0dbd 45a9 7fbd
00000200: f0be e5bb 1b39 4bba 991e bbbc 26fa 8a3c
00000210: 826c 73bd eb0f 1cbd c796 e73c 51d7 fdbc
00000220: 149d 163b 9c49 f2bc abc8 303c 1a94 4abd
00000230: 5136 b03c ebca 383d b540 c5bc 8083 0b3d
00000240: 0b50 763c d9e3 4f3c 83d5 cb3c 543f 19bd
00000250: 1a01 293d f53b 9abc 43e5 0c3d 4ebc 0bbd
00000260: 5b37 633d 47ab 173d 7a4f e9bc f4a0 50bb
00000270: 39a3 543b 3f02 803d 5943 48bd 6c12 0dbd
00000280: 8da5 1d3c d6a5 efbc bf63 b23d 3800 823d
00000290: 49df 743d 2222 86ba 4819 e23c 4930 a73d
000002a0: 71a2 3dbd 2822 56bd ddd4 063d 4d60 3cbd
000002b0: e550 44bd d095 e4bc 22f4 133d d215 1d3d
000002c0: 1151 9abb b888 80bd d795 16bd 962e 00bd
000002d0: aa9d 42bb 2fe9 10bd 9c30 853d f968 aabc
000002e0: 0947 8b3b 6e6b e83d ebe1 763d 49a7 fe3c
000002f0: 1233 c93d fd68 323c 824d 943b 4c5d 273d
00000300: fcd6 06bd 8ed4 273d 4e34 8d3c 3e8a 0e3d
00000310: 3b14 34bd 6ad8 d9bc 7743 1bbd e4ce 81bd
00000320: b582 2a3a 1688 bbbc e980 973d 7682 2bbd
00000330: 8b6e 5fbc b0a7 013d c95b 573d 39f3 7f3d
00000340: ff66 cb3c 828f 7c3c a5ab 29bb 62ad 933c
00000350: 9efe 1cbd 9258 853d 7a11 a4bc a1c7 033d
00000360: d135 0ebd b518 91bc 528a dc3d 45e4 bdbc
00000370: 62fb e93c e187 963c fe09 c9bc d38b 723d
00000380: d582 343d 33f1 a13c 55d1 1ebc 1228 23bb
00000390: add6 6dbc 9000 cc3c d070 15bd ccc3 7bbd
000003a0: c701 4d3c ef28 e53c ce71 4ebd 8204 d63c
000003b0: e483 cebc 6550 18bd 004f 6a3d d5a3 903d
000003c0: 92e3 8e3d 283d 63bb 53d2 f1bb b96b 403d
000003d0: 26f5 103c 7fc9 81bd b576 5abd 6ffb 6fbd
000003e0: 54b1 9a3d 24cb ea3b 10e6 163d 50a1 9b3c
000003f0: d24c 343d 4e20 343d 9921 c5bb 681f 4bba

backbone.3.weight f4 [256, 256]
0.0065447143 0.0012099955 0.043140817 0.015317731 0.04640936 -0.02124631 0.035715565 0.0128501365
0.033213355 0.050802678 0.025610656 -0.007346289 -0.050178293 -0.05292621 0.042869188 -0.013876149
-0.0064549213 -0.044594724 -0.015823543 0.0434182 0.015295797 0.01541448 -0.04992619 -0.03214209
0.031090567 -0.035169743 -0.00018998467 -0.051863067 0.060312483 0.034789927 -0.051145293 0.041759364
0.012340143 -0.016868707 -0.041431 -0.002321221 0.0009299515 -0.053530306 0.030830786 -0.032052346
0.053761058 0.0143223815 0.032778658 0.052192327 0.052750245 -0.010321161 -0.020759149 0.055598274
0.01379023 0.058736056 0.018455362 0.021722376 0.038919896 -0.043665584 0.023390109 -0.017094556
-0.05265743 0.023148233 -0.009497996 0.04044646 -0.004142575 -0.015277532 -0.0021576488 0.023562483
-0.040481213 -0.054662496 -0.029275868 -0.033949554 0.049505018 -0.03156725 0.024478141 0.024551716
0.004912164 0.022639858 0.008405059 0.038160108 0.0033394333 0.052206263 0.04183357 -0.02262318
0.0075162766 0.06229595 -0.037814487 0.050251316 -0.046602577 0.030676972 -0.018057633 0.023628827
0.04039974 0.010499577 0.027225258 0.045587298 0.018204048 0.007052767 0.011756849 0.051049285
-0.005574192 0.04922702 -0.04951588 -0.052592233 -0.040057663 -0.05649578 -0.04762416 -0.05167965
0.05436782 -0.052497655 -0.007263139 0.048197653 0.0103406925 0.0068236375 0.017516362 -0.036026306
0.005848654 -0.02500684 -0.030548915 -0.023403877 0.059300937 0.023795076 0.026040925 -0.03746222
-0.052651614 0.017997049 -0.012978768 -0.029866219 -0.04835878 -0.016001686 0.034329355 0.015187954
0.052815855 0.04165537 0.020527368 -0.029508458 0.0041824034 0.030067014 0.034716785 0.04868439
0.04200953 0.027195467 -0.023604833 -0.039283577 -0.021344211 -0.02309236 -0.00885451 0.052021284
0.039992336 -0.0020569891 0.04615001 -0.011189403 -0.052272726 0.02828424 -0.021236762 -0.03294797
0.024805946 0.029837228 0.033953287 -0.031213254 0.02246482 -0.04791162 0.0059361574 0.0021341224
-0.030858649 0.023108669 -0.043537285 -0.004892678 -0.061808474 0.057850473 0.053165395 -0.025459096
-0.025079312 0.0018099915 -0.017861737 -0.006871097 0.023804152 0.001969069 -0.037414566 -0.02268301
0.035249304 -0.060593553 -0.022683337 -0.036472328 0.047610886 0.023289056 -0.0340906 -0.020444674
0.025624955 -0.0060171816 -0.042616375 -0.04793961 -0.0038120963 -0.013736997 0.03402409 0.018389294
0.0016319925 -0.04388691 -0.02863763 -0.038779262 -0.050421413 -0.020744758 0.007191366 0.02616136
0.031140989 0.02017516 0.04194261 0.01461601 0.013794735 -0.043037266 0.029215382 0.0060254694
0.054928645 0.044420116 -0.014955915 0.053121302 0.04313701 -0.01744885 -0.049389746 0.025952803
0.06071776 0.02544709 0.052600674 -0.04014072 -0.017492697 0.060049772 0.023747478 0.016500402
-0.023800524 0.048747413 -0.05498287 0.040837392 0.039991986 0.029541345 0.036123984 0.003202451
0.05581526 0.046187013 -0.030960275 -0.037843417 0.014826341 0.059636015 0.057157367 0.056362074
-0.026074035 0.03867153 -0.057766963 -0.049906686 -0.039281096 0.050324626 -0.024727779 -0.029107446
-0.0033139987 -0.026334472 0.05700452 -0.050470956 0.012087307 0.010154406 -0.039460484 -0.001688322
00000000: 0b75 d63b b698 9e3a 6db4 303d 38f7 7a3c
00000010: be17 3e3d be0c aebc 7c4a 123d 6189 523c
00000020: ba0a 083d 7816 503d 70cd d13c 24b9 f0bb
00000030: c187 4dbd 27c9 58bd 9a97 2f3d ca58 63bc
00000040: ce83 d3bb f5a8 36bd 60a0 81bc 48d7 313d
00000050: 399b 7a3c 048d 7c3c 687f 4cbd 6da7 03bd
00000060: a5b1 fe3c 260e 10bd 9f36 47b9 5e6e 54bd
00000070: 390a 773d e27f 0e3d ba7d 51bd de0b 2b3d
00000080: 502e 4a3c 3e30 8abc 8db3 29bd a01f 18bb
00000090: fdc7 733a 9842 5bbd d890 fc3c 5249 03bd
000000a0: 8e34 5c3d 6ca8 6a3c ea42 063d 9fc7 553d
000000b0: a410 583d 161a 29bc 170f aabc 04bb 633d
000000c0: 6bf0 613c 3895 703d b32f 973c 20f3 b13c
000000d0: 786a 1f3d afda 32bd 9d9c bf3c e209 8cbc
000000e0: 51af 57bd 5da1 bd3c 7c9d 1bbc 30ab 253d
000000f0: 70be 87bb 9d4e 7abc 5767 0dbb 1c06 c13c
00000100: a1cf 25bd c8e5 5fbd f2d3 efbc b00e 0bbd
00000110: c6c5 4a3d a94c 01bd 6286 c83c ae20 c93c
00000120: 38f6 a03b 3977 b93c 5fb5 093c c64d 1c3d
00000130: 65da 5a3b 3cd6 553d ad59 2b3d 3f54 b9bc
00000140: 194b f63b 0a2a 7f3d 5de3 1abd 53d4 4d3d
00000150: 58e2 3ebd 464e fb3c 9aed 93bc 3e91 c13c
00000160: 337a 253d 6b06 2c3c 8107 df3c bfb9 3a3d
00000170: a820 953c e61a e73b cc9f 403c 0e19 513d
00000180: b6a7 b6bb 46a2 493d 2ad1 4abd f46a 57bd
00000190: 8113 24bd 1e68 67bd 8d11 43bd 0aae 53bd
000001a0: cbb0 5e3d c807 57bd a0ff edbb e76a 453d
000001b0: 026c 293c d298 df3b 797e 8f3c 5290 13bd
000001c0: 11a6 bf3b 25db ccbc b841 fabc 7db9 bfbc
000001d0: 8ae5 723d e4ed c23c c753 d53c fc71 19bd
000001e0: 38a9 57bd 8c6e 933c e6a4 54bc 00aa f4bc
000001f0: db13 46bd f815 83bc f09c 0c3d e5d6 783c
00000200: 7055 583d d29e 2a3d 0329 a83c b9bb f1bc
00000210: 8b0c 893b 194f f63c 3033 0e3d 4869 473d
00000220: 2f12 2c3d 07c9 de3c ec5e c1bc d1e7 20bd
00000230: 0eda aebc 302c bdbc 8212 11bc 4514 553d
00000240: 01cf 233d 8dce 06bb cb07 3d3d c253 37bc
00000250: ed1b 56bd 5ab4 e73c b8f8 adbc 73f4 06bd
00000260: d735 cb3c 346d f43c 9a12 0b3d f0b2 ffbc
00000270: 2408 b83c fa3e 44bd 1984 c23b a2dc 0b3b
00000280: 47cb fcbc 644e bd3c 2754 32bd c252 a0bb
00000290: e22a 7dbd 9ef4 6c3d f5c3 593d 988f d0bc
000002a0: 2173 cdbc 3d3d ed3a c752 92bc f026 e1bb
000002b0: ed00 c33c 7f0b 013b 0440 19bd b8d1 b9bc
000002c0: 9361 103d f230 78bd 68d2 b9bc 0264 15bd
000002d0: a203 433d b1c8 be3c 96a2 0bbd 977b a7bc
000002e0: 6deb d13c c72b c5bb 828e 2ebd 535c 44bd
000002f0: 5dd4 79bb 2411 61bc d85c 0b3d 25a5 963c
00000300: 95e8 d53a c3c2 33bd 7799 eabc 01d7 1ebd
00000310: af86 4ebd e9f0 a9bc 8da5 eb3b 5950 d63c
00000320: 631b ff3c 6146 a53c 04cc 2b3d fd77 6f3c
00000330: 5003 623c d847 30bd 1955 ef3c 4d71 c53b
00000340: dcfc 603d def1 353d a709 75bc b995 593d
00000350: 6fb0 303d e4f0 8ebc e74c 4abd f99a d43c
00000360: 30b3 783d 6a76 d03c ce73 573d 986a 24bd
00000370: d84c 8fbc c0f6 753d 128a c23c da2b 873c
00000380: 51f9 c2bc 5eab 473d b835 61bd 1c45 273d
00000390: a3ce 233d b100 f23c bef6 133d 36e0 513b
000003a0: 8b9e 643d 982e 3d3d 67a0 fdbc b301 1bbd
000003b0: 2eea 723c e544 743d d81d 6a3d ebdb 663d
000003c0: 3799 d5bc 0a66 1e3d 0d9d 6cbd f46a 4cbd
000003d0: 37e5 20bd 3221 4e3d e991 cabc bd72 eebc
000003e0: ac2f 59bb 64bb d7bc 927d 693d a2ba 4ebd
000003f0: d709 463c aa5e 263c 51a1 21bd b04a ddba

backbone.3.bias f4 [256]
-0.0021136259 0.123724505 -0.021612044 0.06539531 -0.004663713 0.08785146 0.041671686 -0.00055707846
-0.0040320386 0.08213654 -0.017860897 0.08966128 -0.004136868 -0.028602656 -0.037710525 0.10103284
-0.0040987693 -0.0012730182 -0.001018586 0.13574363 -0.002247751 -0.004597216 -0.004231378 -0.0031111438
-0.003253082 -0.003869722 -0.0050582252 0.14590672 -0.05599879 0.093505226 -0.024267737 0.11028077
-0.0020094402 -0.00090476783 -0.016784107 0.09654893 -0.00070380373 -0.004110776 -0.0044420874 -0.04915662
-0.0005139204 0.09704357 0.02199582 -0.00020337479 0.08815616 0.025810556 0.12613794 0.10086711
0.002928577 0.09066318 -0.0040192176 -0.0034947102 0.10645182 0.1090115 -0.00011414284 -0.030806812
-0.021955235 -0.0015204896 -0.008477406 -0.016108936 -0.004190162 -0.0031106037 0.03576631 -0.0017197331
0.050734725 0.0995435 -0.0022994373 0.06355629 0.070557624 -0.053029392 -0.020957066 0.02613778
-0.0039287256 0.01064325 -0.025060112 -0.01824008 0.10088048 0.06642636 0.18940958 0.045164596
-0.0041492134 -0.004386869 -0.0047977013 -0.005199743 -0.004954045 0.043126594 0.08727294 -0.0045898287
0.004204252 -0.0028415588 0.015786892 -0.019281292 0.15862653 -0.020099413 0.15083647 0.0890137
-0.0044956165 0.016928893 0.06001121 0.00097034115 -0.031547878 0.10932585 -0.0068820473 0.13063417
0.1339696 -0.0041838763 0.043590434 0.10913775 0.14699292 -0.010777932 0.0010137736 0.077996574
-0.0011860945 -0.052728366 -0.024858028 -0.00072583335 0.007994335 0.07959941 0.1038313 -0.004586476
-0.020100277 -0.007686992 -0.004942943 -0.017169414 0.14419034 -0.0033172462 -0.005491831 -0.0031642362
-0.0034984595 0.07350943 0.10216631 -0.00043999695 0.049240008 0.06416491 -0.0052799587 -0.032784466
-0.0020295323 -0.0025139889 0.13868238 0.021820346 0.04704974 -0.032930836 -0.0009024384 -0.0076241414
0.02766879 0.16607547 0.019473981 -9.311974e-05 0.023234352 0.03691083 -0.0633372 0.08835289
0.021554109 -0.00402788 0.09221741 -0.0034095854 -0.001182602 -0.004456921 0.013110503 0.049687274
-0.003380801 -0.003875154 -0.0013528707 0.0055053625 0.06868681 -0.041352157 -0.0025281128 0.08283578
-0.0013206047 0.0074337563 -0.0029456252 0.015331523 -0.010038369 -0.0035601652 -0.00025637448 0.116304085
-0.03931808 -0.049923077 0.113563836 0.029478725 -0.0028595917 -0.034095027 0.099252135 -0.004666486
-0.025731806 0.14590254 0.08286082 -0.040498786 -0.007706943 0.16858178 -0.016725078 -0.020889152
0.12478453 -0.00022902538 0.0896806 -0.0034943207 -0.032643124 0.067345686 0.02953347 0.07880886
-0.004803732 -0.023797737 -0.0019967929 0.043974146 0.057576593 0.039024822 0.047664125 -0.003605643
0.07869547 0.11994044 -0.012841429 -0.0045354865 0.1240561 0.02653789 0.041221384 0.04286805
-0.013206852 0.12302029 0.12637389 -0.010862275 0.09616023 0.022782663 -0.0369617 -0.027669732
-0.029567223 -0.002243584 0.023773381 0.044200696 -8.6788175e-05 0.033842105 -0.0024252646 0.0328084
-0.00037924718 -0.06712031 -0.014711695 -0.0012985809 0.04886632 0.067227304 0.06890527 0.0010314771
-0.031391103 -0.00494681 -0.0012536355 0.12003553 0.060002305 0.05806504 -0.009330161 -0.0017161156
-0.014052798 0.03676733 -0.0032325264 -0.00917413 -0.004620311 0.13654703 0.026522946 0.01038143
00000000: c284 0abb 4663 fd3d be0b b1bc faed 853d
00000010: 0fd2 98bb 77eb b33d eeaf 2a3d e708 12ba
00000020: 311f 84bb 3437 a83d 0451 92bc 55a0 b73d
00000030: 908e 87bb 1e50 eabc 5a76 1abd 4eea ce3d
00000040: f84e 86bb 67db a6ba 1382 85ba 6100 0b3e
00000050: 014f 13bb 3ea4 96bb 5fa7 8abb 55e4 4bbb
00000060: a931 55bb 299b 7dbb 78bf a5bb 9268 153e
00000070: fd5e 65bd ab7f bf3d 22cd c6bc e2da e13d
00000080: d0b0 03bb f12d 6dba d37e 89bc 72bb c53d
00000090: 787f 38ba b0b3 86bb ee8e 91bb 7458 49bd
000000a0: 9db8 06ba c7be c63d 9430 b43c 0141 55b9
000000b0: 388b b43d a970 d33c 4e2a 013e 6a93 ce3d
000000c0: 5eed 3f3b 9ead b93d a4b3 83bb 8207 65bb
000000d0: 6903 da3d 6c41 df3d f85f efb8 915e fcbc
000000e0: 77db b3bc 2a4b c7ba d1e4 0abc e3f6 83bc
000000f0: a04d 89bb 45db 4bbb b27f 123d ab68 e1ba
00000100: 37cf 4f3d 76dd cb3d 28b2 16bb cd29 823d
00000110: 8480 903d 5935 59bd 27ae abbc e61e d63c
00000120: 8abc 80bb 0761 2e3c dd4a cdbc 386c 95bc
00000130: 6d9a ce3d 8b0a 883d 96f4 413e 83fe 383d
00000140: 20f6 87bb b9bf 8fbb 0936 9dbb 9b62 aabb
00000150: 8b55 a2bb 83a5 303d 28bc b23d 4666 96bb
00000160: d2c3 893b 7239 3abb 8353 813c cdf3 9dbc
00000170: fe6e 223e 86a7 a4bc e074 1a3e d14c b63d
00000180: f74f 93bb 76ae 8a3c 51ce 753d 7e5e 7e3a
00000190: 5938 01bd 3be6 df3d cc82 e1bb f7c4 053e
000001a0: 542f 093e e618 89bb e28b 323d 9d83 df3d
000001b0: 5085 163e ec95 30bc 99e0 843a abbc 9f3d
000001c0: ba76 9bba b3f9 57bd 10a3 cbbc da45 3eba
000001d0: acfa 023c 0405 a33d 81a5 d43d 264a 96bb
000001e0: 56a9 a4bc 2ae3 fbbb 69f8 a1bb dfa6 8cbc
000001f0: a2a6 133e 2866 59bb d1f4 b3bb 135f 4fbb
00000200: 6946 65bb 1d8c 963d 923c d13d 64af e6b9
00000210: e4af 493d e468 833d 8103 adbb 0149 06bd
00000220: e701 05bb bcc1 24bb c102 0e3e 95c0 b23c
00000230: 3ab7 403d 7ce2 06bd 9e91 6cba efd3 f9bb
00000240: a9a9 e23c b00f 2a3e e687 9f3c 4849 c3b8
00000250: f855 be3c cf2f 173d efb6 81bd 5cf2 b43d
00000260: 3e92 b03c 4efc 83bb 7bdc bc3d 5a73 5fbb
00000270: 8a01 9bba 5d0b 92bb 6fcd 563c e284 4b3d
00000280: 6e90 5dbb 4cf6 7dbb cf52 b1ba 5466 b43b
00000290: acab 8c3d e160 29bd b2ae 25bb cea5 a93d
000002a0: 2418 adba de96 f33b 640b 41bb 1131 7b3c
000002b0: f977 24bc a951 69bb 006a 86b9 d630 ee3d
000002c0: ff0b 21bd 247c 4cbd 2894 e83d 5e7d f13c
000002d0: fd67 3bbb 3aa7 0bbd b444 cb3d 52e9 98bb
000002e0: 82cb d2bc 7a67 153e efb2 a93d 0ee2 25bd
000002f0: 868a fcbb b4a0 2c3e 0803 89bc ba1f abbc
00000300: 088f ff3d 8826 70b9 76aa b73d f900 65bb
00000310: ccb4 05bd 89ec 893d 2df0 f13c 8a66 a13d
00000320: a068 9dbb 79f3 c2bc a0dc 02bb 3c1e 343d
00000330: 6fd5 6b3d 7ed8 1f3d 753b 433d a74c 6cbb
00000340: 172b a13d 55a3 f53d db64 52bc 6b9e 94bb
00000350: 2011 fe3d fd65 d93c c1d7 283d 6996 2f3d
00000360: 8d61 58bc 10f2 fb3d 2868 013e aff7 31bc
00000370: a8ef c43d b5a2 ba3c 2765 17bd a2ab e2bc
00000380: f636 f2bc 1809 13bb 65c0 c23c ca0b 353d
00000390: 0c02 b6b8 059e 0a3d 30f1 1ebb 1a62 063d
000003a0: b2d5 c6b9 6076 89bd 5209 71bc 2535 aaba
000003b0: 0d28 483d 78ae 893d 351e 8d3d a132 873a
000003c0: f593 00bd da18 a2bb 0751 a4ba 30d5 f53d
000003d0: fac4 753d 9bd5 6d3d 88dd 18bc 49ef e0ba
000003e0: b53d 66bc 5799 163d cbd8 53bb 174f 16bc
000003f0: fa65 97bb fcd2 0b3e a646 d93c e016 2a3c

backbone.6.weight f4 [256, 256]
-0.044448763 0.05345883 -0.044951398 0.04955957 -0.013664035 0.03695108 -0.045312203 -0.044049796
0.018143278 -0.01698659 0.019429136 0.052805554 0.014726824 0.053019922 0.0011389005 -0.03142505
0.003131628 0.01580774 -0.06290485 -0.02501969 -0.023172779 0.014943323 -0.033572488 0.027593363
0.05241935 -0.0055980007 0.059818573 -0.044986498 0.0339853 0.064465106 -0.04183412 -0.058885723
-0.021205172 0.012447003 -0.008934496 0.056396555 0.058077373 0.043529414 0.056627356 -0.003984935
0.027264616 -0.045298792 0.011039285 0.022018261 0.07226917 0.020656923 -0.013410774 0.03873787
-0.05140495 0.008943696 -0.0047543035 0.01952373 0.020469356 -0.0211426 -0.020833094 -0.018817164
0.03224691 -0.021085901 -0.0487602 0.05117177 -0.027129615 0.040962946 -0.0017369703 -0.029733077
0.008956555 -0.0037840977 0.04862727 0.05850486 -0.0049840426 -0.050625365 0.013219299 0.04050861
0.027805513 -0.00865121 -0.022965288 0.03573502 -0.012060696 -0.009389929 0.03406862 0.054818787
0.036504887 0.037161767 -0.015462355 0.012239049 0.052911326 -0.0033284987 -0.024269681 0.053162567
-0.05415405 -0.045952868 0.024914118 -0.03351576 0.018470163 0.02378563 0.04995713 -0.047360796
-0.010089509 0.03076322 -0.0027532387 -0.029970385 -0.010224284 0.025324458 -0.059386503 0.01612167
0.0744932 -0.030513205 0.04671492 -0.017064266 -0.046806727 0.03538705 -0.040632304 0.06168946
-0.02849853 -0.0012628889 0.020805487 -0.042281132 0.022197964 0.0031973377 -0.01127246 0.015098026
-0.0581908 -0.04942036 0.063354954 -0.021016464 0.034145255 -0.005383987 0.023146616 0.03174214
-0.006777332 0.02534186 -0.035314817 0.02357324 -0.017295903 0.061909214 0.048748396 -0.045147646
0.007080013 -0.021372264 0.00491025 0.004274916 -0.02106357 0.032920346 0.052804623 -0.023046464
-0.015580502 0.024109563 -0.04458145 -0.055143043 0.034261346 0.01920182 -0.057683118 -0.020871725
-0.02152012 -0.00801616 0.07224646 0.043806016 0.02837957 0.01787901 -0.031501815 0.045148015
-0.03195869 0.017827412 -0.037763745 -0.0051873336 0.042445816 -0.0017402824 0.059784565 0.010985583
0.013419294 -0.029408759 0.036423616 -0.011861206 -0.031542756 -0.041813955 -0.056759972 -0.043271795
-0.02347112 -0.023893198 0.078342944 0.040847823 -0.03478538 -0.004169288 0.06576058 -0.033464223
-0.0023564666 -0.04121764 0.008574405 -0.05860816 0.040985525 0.059832882 -0.049407735 0.031643096
-0.0025610314 -0.043245148 0.05038567 0.052223098 0.0650096 -0.01621764 0.026956521 -0.039484948
0.02115028 0.013225877 -0.030127084 0.026269952 0.0059256884 0.06736381 0.04778131 0.0352043
0.022928566 -0.021168312 -0.04451941 -0.019183427 0.06713081 0.045920487 -0.022053914 0.019690547
-0.02614622 0.01033792 -0.013430436 -0.022434087 -0.024855793 -0.0006020379 -0.0126781 -0.038754895
0.008884512 0.005783007 0.042926073 0.032842726 -0.023811068 0.018764311 -0.008988676 -0.05626413
0.04397983 -0.0173365 0.04260967 -0.03650545 0.013651937 0.006399307 0.026081681 0.0359687
-0.004697208 -0.046240408 0.04953383 0.017638545 -0.015948337 -0.0039160615 -0.04313332 -0.03983002
-0.0055737053 0.016237272 0.047702063 0.023190197 -0.009399457 0.024905434 -0.02837578 0.03751171
00000000: e80f 36bd a5f7 5a3d f51e 38bd fafe 4a3d
00000010: 1edf 5fbc 045a 173d 4a99 39bd 8f6d 34bd
00000020: 36a1 943c 7627 8bbc da29 9f3c a34a 583d
00000030: c748 713c 6b2b 593d 2947 953a 8eb7 00bd
00000040: 003c 4d3b 3c7f 813c 42d4 80bd 18f6 ccbc
00000050: d7d4 bdbc d7d4 743c 4e83 09bd 7a0b e23c
00000060: acb5 563d 6f6f b7bb 5204 753d c343 38bd
00000070: 2c34 0b3d 4806 843d 415a 2bbd 2832 71bd
00000080: 78b6 adbc 84ee 4b3c fe61 12bc 1300 673d
00000090: 8ae2 6d3d e64b 323d 16f2 673d 0f94 82bb
000000a0: 0b5a df3c 3a8b 39bd 1ede 343c a45f b43c
000000b0: dc01 943d b538 a93c ddb8 5bbc 9aab 1e3d
000000c0: ff8d 52bd 9488 123c fdc9 9bbb 3bf0 9f3c
000000d0: 5aaf a73c 3f33 adbc 2aaa aabc 7426 9abc
000000e0: 5615 043d 57bc acbc c7b8 47bd 7d99 513d
000000f0: ed3e debc c3c8 273d 0dab e3ba c892 f3bc
00000100: 84be 123c a0fe 77bb 632d 473d cba2 6f3d
00000110: 2e51 a3bb 8b5c 4fbd c295 583c 5bec 253d
00000120: 63c8 e33c cebd 0dbc b321 bcbc e25e 123d
00000130: 3a9a 45bc 37d8 19bc 8a8b 0b3d aa89 603d
00000140: 2686 153d f036 183d d155 7dbc 4b86 483c
00000150: 8cb9 583d f122 5abb 36d1 c6bc fec0 593d
00000160: a3d0 5dbd 1339 3cbd b118 cc3c d247 09bd
00000170: bd4e 973c 15da c23c d99f 4c3d 65fd 41bd
00000180: 784e 25bc 2603 fc3c ae6f 34bb 7484 f5bc
00000190: c183 27bc 3d75 cf3c 433f 73bd 9811 843c
000001a0: e48f 983d d4f6 f9bc 2558 3f3d 5cca 8bbc
000001b0: 69b8 3fbd 03f2 103d 0f6e 26bd 16ae 7c3d
000001c0: c075 e9bc 8587 a5ba 4570 aa3c fb2e 2dbd
000001d0: 81d8 b53c 6d8a 513b 20b0 38bc b65d 773c
000001e0: 7a59 6ebd 016d 4abd 3ec0 813d b82a acbc
000001f0: e5db 0b3d 286c b0bb f99d bd3c 0c04 023d
00000200: 6214 debb bb99 cf3c 45a6 10bd ab1c c13c
00000210: 23b0 8dbc 8494 7d3d 66ac 473d bdec 38bd
00000220: 74ff e73b e314 afbc 2ae6 a03b 9814 8c3b
00000230: 828d acbc 7cd7 063d a949 583d f0cb bcbc
00000240: 5d45 7fbc 6b81 c53c 0a9b 36bd acdd 61bd
00000250: a055 0c3d 234d 9d3c 2245 6cbd 2efb aabc
00000260: f64a b0bc 3656 03bc f4f5 933d f06d 333d
00000270: 467c e83c 0077 923c 0c08 01bd 20ed 383d
00000280: 1ee7 02bd cb0a 923c 28ae 1abd 82fa a9bb
00000290: aadb 2d3d 301a e4ba a9e0 743d e0fc 333c
000002a0: 99dc 5b3c a3ea f0bc ee30 153d 8155 42bc
000002b0: fa32 01bd 1c45 2bbd 257d 68bd c43d 31bd
000002c0: 8246 c0bc abbb c3bc 4472 a03d 0c50 273d
000002d0: 1d7b 0ebd 869e 88bb 7cad 863d c811 09bd
000002e0: f36e 1abb d4d3 28bd a97b 0c3c 1c0f 70bd
000002f0: 70e0 273d 5313 753d c45f 4abd 319c 013d
00000300: fad6 27bb d321 31bd 3461 4e3d e3e7 553d
00000310: c123 853d dbda 84bc ecd3 dc3c f8ba 21bd
00000320: 5a43 ad3c 59b1 583c 13cd f6bc 1534 d73c
00000330: 472c c23b 0af6 893d 56b6 433d 6232 103d
00000340: b0d4 bb3c 2b69 adbc fc59 36bd 9026 9dbc
00000350: e17b 893d 1f17 3c3d 69aa b4bc 124e a13c
00000360: 9930 d6bc 6160 293c 550b 5cbc b1c7 b7bc
00000370: 609e cbbc 14d2 1dba ceb7 4fbc 74bd 1ebd
00000380: 5890 113c 617f bd3b 40d3 2f3d 1886 063d
00000390: 6e0f c3bc 9db7 993c 3d45 13bc 3775 66bd
000003a0: 3224 343d 4705 8ebc 7a87 2e3d bd86 15bd
000003b0: 60ac 5f3c 47b1 d13b 40a9 d53c ea53 133d
000003c0: 09eb 99bb 9566 3dbd fce3 4a3d b67e 903c
000003d0: 16a6 82bc 4e52 80bb 90ac 30bd ce24 23bd
000003e0: a1a3 b6bb 0704 853c 3d63 433d 5ef9 bd3c
000003f0: 2e00 1abc 7b06 cc3c 5374 e8bc e1a5 193d

backbone.6.bias f4 [256]
0.0970805 -0.005161738 0.063167915 0.030672127 0.033157267 0.03624025 0.027037919 0.034842934
0.07490586 0.10667694 0.011993893 0.055720355 0.020933097 0.0651402 0.1458247 -0.04936692
0.0030202253 0.1448965 0.1369185 0.007862397 0.018230185 -0.0071645076 0.13183552 0.09295785
0.09687555 0.09322073 0.03381748 -0.06497904 0.075190485 -0.015409194 0.08016913 0.03644518
-0.05022755 0.03789244 -0.00069190655 0.09712386 -0.004894944 -0.06400303 0.015371639 0.023681788
0.01872429 -0.01691485 -0.0018595008 0.06441468 0.0571035 0.15069418 0.06207986 -0.065269694
0.036503587 0.026990024 0.075967275 0.057217374 0.1261231 0.00671201 0.07099596 0.031997472
0.027749991 0.04041594 -0.014880309 -0.012760046 -0.049705196 0.055340458 0.12292264 -0.025611864
0.08581649 0.008427595 -0.036109988 0.0046801884 0.09744811 0.014426055 0.09212241 -0.056550164
0.011994747 0.11684405 -0.031312283 0.12911509 0.09191638 0.007748269 0.00013768722 0.0646084
0.00038288685 0.045816526 0.013177611 0.12378371 0.003924925 -0.018021964 0.07287748 -0.04407672
0.08350425 0.044042032 -0.014690969 0.06029489 0.05721442 -0.018243637 -0.0511841 0.056945153
0.09641474 0.029983906 0.11859233 0.13161898 0.016520618 0.16987568 0.14408767 0.024327237
-0.006491895 0.04617325 0.09501185 0.14422336 0.054556906 0.0836202 -0.04494775 0.057242382
0.035305835 0.0054966668 0.118226394 0.13382496 -0.0066747414 -0.012838222 0.02312569 -0.022753472
0.0020338004 0.00851549 0.12265961 0.075645864 -0.02275755 0.12818472 0.07095067 0.087742575
0.09329726 0.020096302 0.056615096 -0.0037740534 0.058256656 0.12688482 -0.03243479 0.048876606
0.11866656 0.027669247 0.0903901 0.09445499 0.15071763 0.114565894 0.053194646 0.035641924
-0.052180856 -0.021826811 -0.001979463 0.0851536 -0.053350866 0.039665863 0.1099073 -0.03991675
0.11918459 0.026939781 -0.040239643 0.06510052 -0.030753212 0.09116599 0.090838 0.0006725352
-0.006823451 0.15236345 -0.04437402 -0.009133806 0.08913788 0.10037502 0.079046965 0.0688728
0.037252877 0.16641581 0.09550556 0.12791507 0.08013125 0.070482224 0.11619612 0.17731148
-0.016315334 0.085042 0.040579125 0.07336255 -0.00058644195 0.024337495 0.02719196 -0.00086174527
0.08616895 -0.019468902 0.07065032 0.07263988 0.09806553 0.1165492 0.09305144 -0.0112268785
0.122880735 0.016074708 0.13587889 0.13894829 -0.05193724 0.09042362 0.035075977 0.08249901
0.10866905 0.1613345 0.13955379 -0.038296103 -0.022337213 0.010994582 0.09005203 -0.005526606
0.024814263 0.07419234 0.1475999 -0.03768683 0.03809721 0.12734449 -0.025764344 0.022059461
0.056384213 0.13082582 -0.005890872 0.052840043 0.13861693 0.085164286 -0.06045095 -0.032347035
0.050843496 0.14062212 0.12404053 0.013945299 0.08993317 0.0025624428 0.15478726 0.10279697
-0.015065765 0.08698678 0.002471202 0.15172538 0.11821757 0.049911197 0.10067253 -0.0012615955
-0.032015793 0.11606069 0.13218544 0.07925099 0.0727186 0.08098551 0.11416657 0.084785506
0.070169315 0.013068889 0.08413554 -0.0040720366 0.031843297 -0.03564209 0.04932201 -0.02201912
00000000: 24d2 c63d cc23 a9bb 2e5e 813d 1d44 fb3c
00000010: eacf 073d a870 143d a07e dd3c 77b7 0e3d
00000020: 3e68 993d 7179 da3d 0982 443c 073b 643d
00000030: e37b ab3c 3a68 853d 1253 153e f834 4abd
00000040: f9ee 453b c05f 143e 5d34 0c3e 48d1 003c
00000050: 7857 953c 3fc4 eabb e4ff 063e af60 be3d
00000060: b066 c63d 83ea be3d 3384 0a3d bb13 85bd
00000070: 78fd 993d d876 7cbc b62f a43d 8b47 153d
00000080: 67bb 4dbd 1a35 1b3d 1061 35ba e0e8 c63d
00000090: c465 a0bb 0514 83bd 54d9 7b3c 4f00 c23c
000000a0: af63 993c 0391 8abc 7eba f3ba d8eb 833d
000000b0: 5ce5 693d 934f 1a3e 7447 7e3d 1eac 85bd
000000c0: c984 153d 2f1a dd3c bb94 9b3d c45c 6a3d
000000d0: 6a26 013e 6cf0 db3b 5466 913d c80f 033d
000000e0: f353 e33c 2f8b 253d 8acc 73bc 830f 51bc
000000f0: ad97 4bbd adac 623d ddbe fb3d f9cf d1bc
00000100: 8ec0 af3d e513 0a3c 11e8 13bd 445c 993b
00000110: e092 c73d 435b 6c3c adaa bc3d 25a1 67bd
00000120: 9e85 443c ef4b ef3d 4f41 00bd bf36 043e
00000130: a83e bc3d 31e5 fd3b 2260 1039 6951 843d
00000140: 34be c839 1caa 3b3d e8e6 573c 5082 fd3d
00000150: a89c 803b cca2 93bc ca40 953d ca89 34bd
00000160: 4704 ab3d 6b65 343d 64b2 70bc c6f7 763d
00000170: ab59 6a3d ae73 95bc 6ba6 51bd 523f 693d
00000180: 1775 c53d cfa0 f53c 89e0 f23d 20c7 063e
00000190: 3f56 873c e4f3 2d3e b88b 133e ea49 c73c
000001a0: f6b9 d4bb 2920 3d3d 9395 c23d 4aaf 133e
000001b0: 1077 5f3d 1141 ab3d 221b 38bd fd76 6a3d
000001c0: da9c 103d 621d b43b ae20 f23d 6909 093e
000001d0: cab7 dabb 6857 52bc 1672 bd3c 7d65 babc
000001e0: 8249 053b 8e84 0b3c f634 fb3d 38ec 9a3d
000001f0: 0b6e babc db42 033e 964e 913d 61b2 b33d
00000200: a212 bf3d 00a1 a43c 3be5 673d 1c56 77bb
00000210: 889e 6e3d 18ee 013e 58da 04bd d632 483d
00000220: 7407 f33d 9eaa e23c 721e b93d 9e71 c13d
00000230: b955 1a3e 86a1 ea3d a1e2 593d 44fd 113d
00000240: 98bb 55bd 24ce b2bc e1b9 01bb 0365 ae3d
00000250: 7086 5abd ac78 223d 1417 e13d bf7f 23bd
00000260: 0d17 f43d d1b0 dc3c 53d2 24bd 6c53 853d
00000270: 29ee fbbc 3cb5 ba3d 4609 ba3d 134d 303a
00000280: 4197 dfbb 2a05 1c3e 88c1 35bd f6a5 15bc
00000290: ec8d b63d 6b91 cd3d 60e3 a13d 2f0d 8d3d
000002a0: 7996 183d e868 2a3e 6b98 c33d 2bfc 023e
000002b0: da1b a43d fc58 903d 3bf8 ed3d 2491 353e
000002c0: bca7 85bc 802a ae3d 4c36 263d 1b3f 963d
000002d0: 74bb 19ba 6d5f c73c acc1 de3c bfe6 61ba
000002e0: 5979 b03d 3f7d 9fbc 1db1 903d 38c4 943d
000002f0: 95d6 c83d 59b1 ee3d c191 be3d f1f0 37bc
00000300: e5a8 fb3d 1baf 833c d623 0b3e 7648 0e3e
00000310: 25bc 54bd 0530 b93d d4ab 0f3d 3ef5 a83d
00000320: e18d de3d df34 253e 30e7 0e3e 60dc 1cbd
00000330: 88fc b6bc 9f22 343c 336d b83d 8818 b5bb
00000340: 4847 cb3c 27f2 973d 6e24 173e 815d 1abd
00000350: d20b 1c3d 9866 023e bf0f d3bc 0bb6 b43c
00000360: 22f3 663d 34f7 053e 3708 c1bb cd6e 583d
00000370: 99f1 0d3e 9d6a ae3d 6a9b 77bd 537e 04bd
00000380: 4541 503d 3fff 0f3e f608 fe3d d37a 643c
00000390: e22e b83d a8ee 273b 8d80 1e3e 3887 d23d
000003a0: 66d6 76bc 2026 b23d e4f3 213b e65d 1b3e
000003b0: 0e1c f23d af6f 4c3d 662d ce3d 1f5c a5ba
000003c0: fe22 03bd 3ab1 ed3d 9f5b 073e 584e a23d
000003d0: 7ded 943d bbdb a53d 2ad0 e93d 06a4 ad3d
000003e0: eeb4 8f3d e51e 563c 414f ac3d b86e 85bb
000003f0: 1e6e 023d 71fd 11bd e005 4a3d 7161 b4bc
