federated-local/heads/DENV_head.pt (torch, 36789 bytes, 2 tensors)

head.weight f4 [34, 256]
00000000: 8f97 233c 6807 6e3d 825d 5abd 881d b93c
00000010: 2a4c 0b3d d496 413d 6cdb a63c e4d5 31bd
00000020: cb9a a13c 59f4 903d 376e 07bc 03a9 8d3d
00000030: 1ca1 0d3d 5ed8 a53d 29e7 ce3c 4cbc 1c3b
00000040: dc73 99bd 37e5 873d af6b 793d 89b0 9c3c
00000050: 847c 56bd cfe9 0fbc 36c5 81bd 736a 48bc
00000060: 1696 f63c 6384 0a3d d0ad 30bc 0a03 51bd
00000070: d39f 2cbc b6e0 29bd a71a 943c b823 293c
00000080: b056 61bc 28a9 e63c e15a 7a3c 34c6 863d
00000090: 962c ac3b 7ec2 3abc d9e5 b33d b578 abbc
000000a0: cee1 8ebd 7188 5fbc 7e67 d3bb e7ef 4cbc
000000b0: fe0f cb3d 546e 18bd a7ea 95bc cde0 7b3d
000000c0: 45dc 7e3d 0685 ddbb ee30 3c3d 1aef 8e3b
000000d0: bb6c 573d d17c 163d 302b 86bd a1b5 5a3c
000000e0: 2f7d 803d 5f33 c13c 1e29 003d 390a 49bd
000000f0: 1f58 9f3d da72 7439 7921 0ebd c989 ddbc
00000100: 6863 283b dd0b 403d dc4b 75bc 7e5b 403d
00000110: eabe 16bc 153d 16bd 0778 883d da7c 333d
00000120: 4188 853d cb42 d73c f4af 8c3d 39f3 433d
00000130: aef5 e93c 1e75 c33d 34ad c9bb 6965 453d
00000140: 55de 983c 0a5c 49bd fa22 30bd 1084 bdbc
00000150: f945 fa3b b11b 353c 7e94 a03c 0128 e03c
00000160: e0c1 53bd 2262 9dbc fa0b 0ebd 6e61 603b
00000170: 4b71 0a3c 378f 2bbd 91fd b9bc cf94 8bbc
00000180: 52cb 8e3d d5c6 f83b ba65 613d 6b72 a5bc
00000190: 7902 8a3d e4cc 313b 93c2 e33c 593a 3d3c
000001a0: ff81 883c 2107 eb3c 0125 03bd 553f 613b
000001b0: 0e40 3ebb c758 203c 03f7 f7ba dd95 ad3c
000001c0: 0a83 0dbd 7ecd 48ba 6674 983d 463a 48bd
000001d0: bd1d 003b 7756 873b 6c01 473d 2129 893d
000001e0: 2eda d7bb c051 a3bc f1c1 ecbc 055a aebd
000001f0: 5773 eabc df45 e7bc 3b7a 833c a5ed 643d
00000200: bd44 c03a c71a 063d 2bd6 4bbc cc62 04bb
00000210: 0f12 4bbc a068 1cbd 3c20 49bd e49f c33c
00000220: 250b fdba e1bf ae3d bf8a c9bc 2e75 61bc
00000230: 4b79 923d 4226 9d3d af39 a23d 6c5b 1bbc
00000240: 97bb 6a3d 12ac 5b3d 7cf5 1f3c 5557 a73c
00000250: 6fdf da3c 0968 653d 8df9 48bd 2b62 27bc
00000260: 9344 38bd cc15 303d 7ddc 033d d6b8 cebc
00000270: 48c0 afbc 62fa 93bc 3af4 fbbb 756f 613c
00000280: 3d82 153b 1e46 193d f311 643c 32c6 6b3d
00000290: b5fa 1abd 3f75 923d 0d6d 7b3d 1590 843d
000002a0: 8048 b1bc 567d de3b d1a2 fabc 19ba 47bc
000002b0: de72 bd3d 7a6b 863b 6fd6 a63d dd59 733d
000002c0: c74c 783d 71b0 b53a 585a 923c 9144 c3bb
000002d0: ea45 ba3b 0c34 963c 3b53 72bc 015d 79bc
000002e0: dee2 d4bc e3b3 43bd cd5b 60b9 a302 063d
000002f0: 3707 273d 75a9 233c ebe6 8fbd c203 4e3d
00000300: 8758 a9bc 89c0 3dbd 4e26 083d b651 a6bb
00000310: 2c60 313d 4f57 dc3b 9dd4 3abd f6ec 84bc
00000320: d02b 4f3d 5124 2fbc 0fcd 71bc 1442 4abd
00000330: 2588 22bd 293c debc 2ff0 c53c 190d 883c
00000340: 818b 673d d96a 0a3d 5350 2b3d d2d2 83bc
00000350: d863 103d 5665 5cbd 3fb4 943c 9983 8dbd
00000360: f4a9 333d e2b3 45bd ebc1 71bd bd9a 1fbb
00000370: d9df 333d 563e d53a 57c9 c2bc 0380 953b
00000380: 3fea 9c3d e042 5a3d 32da 8fbb af84 9b3b
00000390: 23f9 1cbd 1ac8 2fbd 5a7b 0dbd 68ec 883c
000003a0: 428e 5dbc 6788 d4bc 6f1c c63d 0a83 ccba
000003b0: 2141 0cbd 32f2 283c cbf6 ffbc 8500 293d
000003c0: 909c 2dbd ea99 323d cc5b 513d 5c97 053d
000003d0: 45fc fbbc a6a3 353d 8b29 7d3d 966f 45bc
000003e0: acd8 5cbc 90c4 53bc f97c 493d 4210 e0bc
000003f0: c55c d83c c7d0 26bc 9261 c93c 6045 483c
0.009984865 0.058112532 -0.053311832 0.02259709 0.034008183 0.04726298 0.0203683 -0.043416873
0.019727131 0.070778556 -0.008266023 0.06917002 0.034577474 0.080979094 0.02525671 0.0023915945
-0.074928015 0.06635516 0.06089371 0.019127147 -0.05236484 -0.008783772 -0.06336443 -0.012232411
0.030100863 0.03381766 -0.010783628 -0.05102829 -0.010536152 -0.041474067 0.018079115 0.010323457
-0.013753578 0.028156832 0.015280456 0.06580773 0.0052543385 -0.01139891 0.08784074 -0.020931581
-0.069766626 -0.01364337 -0.006451546 -0.012508369 0.0991516 -0.037214592 -0.018300368 0.061493684
0.062221784 -0.0067602424 0.0459451 0.004361999 0.052593928 0.036740128 -0.06551206 0.013348968
0.06273877 0.023584066 0.031289212 -0.049082015 0.0778048 0.00023312439 -0.03469989 -0.02704324
0.0025694016 0.046886314 -0.0149717 0.046962254 -0.009200791 -0.036679346 0.066635184 0.04382024
0.06520129 0.026276967 0.06869498 0.047839377 0.028559532 0.09543823 -0.0061546806 0.048192415
0.018660704 -0.04916004 -0.043002106 -0.023134261 0.007637736 0.011053965 0.019602057 0.027362825
-0.051698565 -0.019211832 -0.03467939 0.003423776 0.008449863 -0.041884627 -0.022703918 -0.01703873
0.06972374 0.007592062 0.055028655 -0.02019616 0.06738753 0.002713018 0.027802741 0.011549556
0.01666355 0.028689923 -0.03201771 0.0034370024 -0.0029029879 0.009786791 -0.001891822 0.021189624
-0.034548797 -0.0007660015 0.07444076 -0.0488837 0.0019548975 0.0041301805 0.04858534 0.06697298
-0.0065872883 -0.019936442 -0.028901072 -0.085132636 -0.028619451 -0.02823156 0.016049495 0.055890698
0.0014668923 0.03274038 -0.012441198 -0.002020049 -0.012394442 -0.038185716 -0.049103007 0.023879953
-0.001930569 0.08532692 -0.024602292 -0.013760848 0.07152041 0.07673313 0.079211585 -0.009482246
0.057307806 0.053630896 0.009763118 0.020427385 0.02671787 0.05600742 -0.049066115 -0.010216276
-0.044987272 0.042989537 0.032192696 -0.025234621 -0.021453992 -0.018063728 -0.007689026 0.013759484
0.0022813224 0.037420385 0.013920295 0.05756206 -0.03783675 0.07151269 0.061383296 0.06472794
-0.021641016 0.0067898436 -0.030595215 -0.012190365 0.09250425 0.0041021677 0.08146369 0.059411872
0.060620096 0.0013861788 0.017865345 -0.0059591015 0.005684604 0.018335365 -0.0147903515 -0.015219928
-0.025987085 -0.047778975 -0.00021396503 0.03271736 0.040778365 0.009989132 -0.07026466 0.050296552
-0.020672096 -0.046326194 0.033239655 -0.0050756587 0.043304607 0.006724275 -0.04561292 -0.016226273
0.050578892 -0.010689811 -0.014758362 -0.049379423 -0.03968062 -0.027128296 0.02416238 0.016607808
0.056529526 0.033793304 0.04182465 -0.016091738 0.03525147 -0.05380758 0.018152354 -0.06909866
0.04386325 -0.048267253 -0.059022825 -0.0024353706 0.04391465 0.0016269188 -0.023777647 0.0045623793
0.076618664 0.053286433 -0.0043900246 0.0047460417 -0.038323533 -0.04291544 -0.034541465 0.01671429
-0.013522686 -0.025943948 0.09673392 -0.0015603018 -0.0342418 0.01031165 -0.03124561 0.04126026
-0.042385638 0.043603815 0.051112935 0.03261505 -0.03075994 0.04434552 0.061807197 -0.01205053
-0.013479393 -0.012925282 0.04919145 -0.027351502 0.026411423 -0.010181612 0.024582658 0.012223572

head.bias f4 [34]
00000000: 38ac fbbd eb86 b8bc a663 4f3e add4 11be
00000010: 2ab5 18be d12b fd3d 496c c1bd e96f 15be
00000020: 0bed 4d3e 48a2 3c3e 4d3c aebd 3016 64bd
00000030: f8ff f83d 9e22 e2bd a6ec 30bd 6080 2e3e
00000040: de28 343d 74c5 ff3d 5ed3 68bd 82a0 593e
00000050: 8682 cbbc 06a5 1cbd 7149 693d 8664 f23d
00000060: 75d1 843d a052 5ebd 7da1 d23d 94a6 af3c
00000070: 27e5 e63c 7c53 89bd 760a c43c 38eb f73d
00000080: f208 4f3d 84ca c0bd
-0.122887075 -0.022525271 0.20252857 -0.14241286 -0.14912859 0.12361873 -0.09444482 -0.14593472
0.20109956 0.1842128 -0.08507595 -0.055685222 0.12158197 -0.11041759 -0.043194436 0.17041159
0.043984286 0.12488833 -0.0568422 0.21252635 -0.024842512 -0.038243316 0.056954805 0.118355796
0.06485263 -0.054278016 0.10284708 0.021441735 0.02818544 -0.067053765 0.02393077 0.12105411
0.05054564 -0.09413627
