federated-local/heads/HOUS_head.pt (torch, 37813 bytes, 2 tensors)

head.weight f4 [35, 256]
00000000: 2046 833c fd9b 813d d528 243d 7595 9a3c
00000010: 7cd3 ae3c 861d 28bc 2a89 2bbb c025 203d
00000020: d598 6a3d ce46 d9bc 7b8b bdbb 1fae 293d
00000030: 1868 613d 31f0 3ebd 7f47 943d c42c cc3a
00000040: 0649 683c 4e13 d6bc c2f4 3b3d 7ad0 cfbc
00000050: 6afb 983d 0d1e 2b3d 84b4 db3c b0d4 643c
00000060: ddf4 47bd b647 b83c a92f 9ebc 120a 0abd
00000070: 7b0a 7cbd 8492 253d 4a0c 793b 69ee 473d
00000080: 7275 4cbc e398 aa3d 19bf ab3c 5412 073d
00000090: c476 bc3c e023 50bc 4eb3 a9ba a2b6 45bd
000000a0: 5626 28bd 202d 2d3c 20dd 53bd c58b 54bc
000000b0: 4294 6a3b e384 bbbc 526b d53c 1988 24ba
000000c0: ca69 87bc 5e1c 643c cec7 763d 18b2 28bd
000000d0: 1315 c63c 78c2 ab3c 4c29 06bd 3d98 513c
000000e0: 96d4 543d 142d 6d3c 97fd 9c3c c284 983d
000000f0: 33ce 523d 0ee9 713d f6b2 823b 1d2d 5dbd
00000100: 147c f03c 6fb8 503d ddf9 3dbd 5f80 b53c
00000110: 20c6 4b3d 928b e838 b084 803d 9285 873c
00000120: b985 97bc 745c 443d 0e3e 8bbc 74af 803d
00000130: af6b 70bd 0d8b 173d f072 41bd 57d3 a8bc
00000140: 18be 1fbd b1eb d23b 29db 6f3b c6f6 813c
00000150: a8b5 a13c 3a40 ba3b ae24 073d 2123 af3d
00000160: a8d7 0d3d da6d 423c 9980 2abd 7909 b33c
00000170: d928 bab9 27c5 92bc 080c ca3b dd28 3abd
00000180: d1f1 f4bc 1e0b e33c b567 c03c a0a7 2d3d
00000190: dc33 78bc b132 563d d9e2 c5ba 8915 403d
000001a0: 3a39 1abc a475 efbb 248c 18bd ac94 e7bc
000001b0: 23d7 5ebd 779e 2bbd 23e7 e4bc 3612 0e3d
000001c0: 03a2 6dbd c251 5e3d 49d4 4cbd a1ab ddbc
000001d0: 9a8f 04bd c16c 68bc 9d1f 33bd f8e0 b6bc
000001e0: 21ba 5d3d 8c17 9a3c 378e e83c 0156 833d
000001f0: 4eb5 04bb f5f7 aabc c9ea 4c3c e989 dd3c
00000200: 9479 5abc cc35 b63d e19f 1fbd 747e bb3d
00000210: c42a 76bc af59 96bc d184 66bc 98fb 4d3d
00000220: 1585 0c3d 92d7 aabd 002d 6e3d b499 2e3d
00000230: 41a9 05bd 6049 94bd ab9f adba 7b58 29bd
00000240: be61 13bd 6586 023d 12a5 143c 6a68 e937
00000250: b75e 823d 1f88 b9bc 9bdc 59bc 3075 863d
00000260: 87b2 4dbc 8079 303d a80f dd3b 4605 d1bb
00000270: be9d 103d 1018 39bd 2229 483d b712 193d
00000280: e2c9 093d 4a94 df3c b132 0c3c e844 8abc
00000290: 6998 de3c 3151 12bd 0749 acbb 4e00 0dbd
000002a0: e619 6dbb d6ad 1bbd 1afa 92bc cdc0 a8bc
000002b0: facc 133d d9cb 03bd 51a3 cb3c b10d b33c
000002c0: f4f9 143d 8b05 103d d1d4 e93c 67fa bc3b
000002d0: 0938 263d d7fd eebc c7cf 3bbc 7b41 d53b
000002e0: 7e63 be3c 05f4 0bbc 76fd 86bd bd32 c53c
000002f0: 7230 de3b 677e fe3b a79d a63c 1e08 06bd
00000300: 7f94 4c3d de8f 7a3c 3c34 7abc dfe6 053d
00000310: d4fa dfbc 2b75 cd3c 047f 413d b0c1 9d3c
00000320: 8c2d 8f3c ac62 20bd 2af7 73bd afac 713d
00000330: 7f4f cc3c ae51 9dbb c0dd 01bd 451d 39bd
00000340: c276 203c 11fe e4bb e768 f9bb 4f36 48bd
00000350: 24c4 273d adc4 7cba 9e9c 123d 33ac 943d
00000360: fe41 993d fab2 ee3b 6fbd 3ebc b1e2 7c3c
00000370: 5e97 493d 85a2 173b c4e5 3cbd 1320 9abc
00000380: 3a38 20bc 11c4 923d 3cfd 5f3d 209d 0bbd
00000390: 05e5 173d 32f5 12bc 9ad3 073d 29a6 efbc
000003a0: 1f99 3e3d 3e33 2d3d 5345 193d f3e2 f0bc
000003b0: 8ae7 73bb 146f bfbc 38a1 123d 57dd 1e3c
000003c0: 209f 073d 7f80 ccbc 583b 4ebd 0c3a c23c
000003d0: 5c64 9ebc f65a dfba bc21 cc3c 30b2 243c
000003e0: 7fda a738 7aea 413d c3e3 e6bb f28d 843c
000003f0: c437 81bc ab22 89b9 36f5 3d3d 9fb3 163d
0.01602465 0.063285805 0.040078003 0.018870095 0.021341078 -0.010260945 -0.0026174285 0.0390985
0.05727466 -0.02652302 -0.0057844496 0.04142582 0.055030912 -0.046615783 0.07240199 0.0015577306
0.014177566 -0.026132252 0.045887716 -0.025367964 0.074698284 0.041776706 0.026819475 0.013966724
-0.048817504 0.022495132 -0.019309836 -0.03370101 -0.061533432 0.04042293 0.003800171 0.04881135
-0.012479173 0.08329942 0.020965146 0.032976463 0.02300585 -0.012703866 -0.0012947114 -0.048269875
-0.041052185 0.010569841 -0.051724553 -0.012972777 0.0035793935 -0.022890514 0.02605215 -0.00062763836
-0.016529936 0.013922779 0.060249142 -0.04118547 0.02417997 0.020966753 -0.032754228 0.012792644
0.05196055 0.0144760795 0.01916389 0.074471965 0.05146618 0.05906015 0.003988619 -0.0539981
0.02935604 0.05095714 -0.046380866 0.022155939 0.049749494 0.00011088619 0.06275308 0.016543183
-0.018496381 0.047939733 -0.016997363 0.06283465 -0.058696445 0.036997844 -0.047228754 -0.020608587
-0.038999647 0.006436788 0.0036599135 0.015864741 0.01973994 0.005683926 0.032993965 0.08551622
0.034629494 0.011867011 -0.041626547 0.021855103 -0.00035507118 -0.017916275 0.006165985 -0.045449127
-0.029900463 0.027715262 0.023486951 0.042396188 -0.015149083 0.052294437 -0.0015097513 0.046895538
-0.009413058 -0.007307725 -0.037243024 -0.028269134 -0.05440439 -0.04189917 -0.027942246 0.034685336
-0.058015835 0.05427719 -0.05000714 -0.027059378 -0.03236351 -0.014186085 -0.04373132 -0.02232407
0.054132584 0.018810056 0.028388126 0.06412888 -0.0020249668 -0.020870188 0.012507149 0.0270433
-0.013334651 0.0889698 -0.03897083 0.091549784 -0.015024845 -0.018353311 -0.014069752 0.050288767
0.034306604 -0.08341898 0.058148384 0.04262705 -0.032632116 -0.07240558 -0.0013246437 -0.041344147
-0.035981886 0.03186645 0.009072559 2.7824386e-05 0.06365722 -0.022647915 -0.013297225 0.065653205
-0.012554771 0.04308462 0.006746251 -0.0063788025 0.035306685 -0.045188963 0.048867352 0.037371363
0.033639796 0.02729239 0.008557008 -0.01687856 0.027172284 -0.03572196 -0.005257729 -0.03442412
-0.0036178767 -0.03800758 -0.017941523 -0.020599747 0.036084153 -0.032176826 0.024858149 0.021857115
0.036371186 0.035161536 0.028543862 0.005767155 0.040580783 -0.029173775 -0.011463112 0.00650805
0.023240801 -0.0085420655 -0.065913126 0.024072045 0.0067806775 0.007766533 0.020338846 -0.032722585
0.049946304 0.01529309 -0.015271243 0.03269088 -0.027341284 0.025080284 0.047240272 0.019257396
0.017477773 -0.0391566 -0.059561886 0.059002575 0.02494025 -0.0048009967 -0.031705618 -0.04519393
0.009793939 -0.006988295 -0.0076113823 -0.048879918 0.04095854 -0.0009642344 0.035793893 0.07259407
0.0748329 0.0072845193 -0.011641844 0.015434907 0.04921662 0.002313764 -0.04611756 -0.018814122
-0.00977903 0.07166303 0.054684862 -0.034085393 0.037083644 -0.008969592 0.033160783 -0.029254036
0.046532746 0.042285196 0.03741963 -0.029405093 -0.0037216865 -0.023368396 0.03579828 0.009696326
0.033110738 -0.024963615 -0.050349563 0.02370932 -0.019334964 -0.0017040658 0.02491843 0.010052249
8.0038786e-05 0.047342755 -0.0070461943 0.016180966 -0.015773661 -0.00026156506 0.04637643 0.036792394

head.bias f4 [35]
00000000: 1e1a 363d 5253 0d3d 2b16 bcbc 2425 29bc
00000010: 4fe6 b83d 021b aebc e635 26bc 16e8 5dbc
00000020: 0385 f4bb e775 37bd abba 3f3d a1d3 aebd
00000030: 993b 8bbd fdca 4a3d 32b7 aebc 4447 4f3c
00000040: 5a9e 98bd 4d4e b4bd aee4 60bd 74c5 163d
00000050: e1c8 413d b1ba 18bd 210c 8dbd 4752 1fbd
00000060: 0b1f 92bd cbc7 b7bb 8b65 ca3d 3cae b1bd
00000070: 103d d2bd 521c 59bb 3eab e73d 9350 36bb
00000080: cf72 bdbd 49b2 babd 2073 ff3b
0.0444585 0.03450329 -0.02295979 -0.010323796 0.09028303 -0.021253113 -0.010144686 -0.013544103
-0.0074621453 -0.044790175 0.04680888 -0.08536459 -0.06798477 0.04950999 -0.021327589 0.012651268
-0.07452078 -0.08803997 -0.054905586 0.0368094 0.047310714 -0.037287418 -0.06887079 -0.038896825
-0.07134827 -0.005608534 0.09882649 -0.08675811 -0.10265553 -0.0033128452 0.11311959 -0.0027819022
-0.092504136 -0.091160364 0.0077957064
