federated-local/heads/IPLS_head.pt (torch, 31605 bytes, 2 tensors)

head.weight f4 [29, 256]
0.049738932 -0.019596364 -0.030883513 -0.05367726 0.052845098 0.0581434 -0.055350106 0.028874332
0.026769293 0.05198687 0.019916402 0.050028194 0.05837427 -0.040741734 -0.040455136 -0.020242466
0.054886058 0.015443727 0.034892403 -0.0052354466 0.0014162688 -0.022161694 -0.04143913 0.04048705
0.05486828 -0.04030648 -0.04053289 0.010280797 0.025495347 0.060575526 -0.05253279 -0.062378924
0.0057657566 -0.011471379 0.032478224 -0.030452088 0.035291668 0.021509599 -0.042378355 0.048397947
0.009220211 -0.031252667 0.04849618 -0.011661752 0.01498819 0.008685301 0.048849396 0.03674046
-0.028354289 0.0346692 0.027729068 -0.051498465 -0.06099966 0.02449395 0.026387999 0.056663133
-0.031574856 -0.02048303 0.024852289 0.05484073 -0.049188856 0.06029385 0.0044618896 0.03179154
0.025749497 -0.04176973 0.0232499 0.03663257 -0.04219044 0.0205939 0.008650569 -0.05625748
-0.0036833098 0.025402797 -0.008748576 0.04909294 0.048740134 0.022964848 -0.011307943 0.00476177
0.046120502 0.00025043896 -0.008988868 0.0013602931 -0.050679807 0.05516309 -0.04726595 -0.061455436
0.0059722816 -0.053074308 0.006698874 -0.0006450125 0.024394443 -0.0476395 0.0046067713 0.019194711
-0.014468248 0.0028135912 -0.028650977 0.052906524 -0.048285946 -0.048715446 -0.0020929435 -0.05779174
-0.0019768416 -0.056995522 -0.0065464433 0.03429782 0.03486107 0.027046822 -0.044443667 -0.020784033
0.037856814 0.029424243 -0.046354786 -0.0068908553 -0.042847402 0.00849259 0.0257037 0.05035114
-0.012730466 -0.050108705 -0.044258054 0.05379028 0.059857387 -0.0075570517 0.0037519345 0.018275475
-0.0057305335 -0.003298978 0.004928574 0.010976334 -0.021085447 0.05122411 0.017397523 -0.016767947
0.012566157 -0.054981515 -0.0588021 0.047825396 -0.024755266 0.009557861 0.02294137 -0.053080555
0.015722988 -0.009686112 0.011890796 -0.017118815 0.044837143 0.04822964 0.035607565 -0.013188188
0.022067172 -0.013237735 0.04734294 -0.009756233 -0.019041186 -0.021268416 0.04889686 -0.026352044
-0.057958707 0.060760964 0.01632645 0.052671548 0.03298388 -0.030974299 0.0018530835 0.0074839103
-0.031645536 -0.059352867 -0.052544925 0.019467184 0.0019513326 0.03463549 0.013969488 0.03699439
-0.047643367 0.062037446 -0.001142309 -0.01377628 0.05880038 -0.03273114 0.012220313 0.03670769
0.021966102 -0.011049974 0.05251608 -0.0475888 0.046465307 -0.009247899 -0.034770094 0.037583612
-0.006308128 -0.017675888 0.013811234 -0.010074985 0.056657016 -0.0187532 0.006981143 0.001358596
-0.044657975 -0.050363693 0.060492165 0.040880293 0.008426429 -0.00349918 -0.030383117 -0.020022042
0.057705436 0.051935066 -0.04835161 0.027033344 -0.012260899 -0.013654808 0.04198643 0.058857646
-0.020027598 -0.03866093 -0.02563878 -0.023901824 0.0263609 -0.048636418 -0.037518278 -0.004112381
0.011092048 0.051213548 0.02980432 -0.025350409 -0.023234038 0.061882064 0.005510549 -0.0072887517
-0.046794273 0.044909246 -0.06120972 0.052407853 -0.013715384 0.025685001 0.057670143 -0.05476694
0.021885838 0.021026038 0.03275656 -0.021550888 0.0065489034 0.0035508994 0.062394664 -0.025432695
0.055260584 0.022984881 0.018601606 -0.006770276 0.01534228 -0.03126424 0.01903052 0.014760668
00000000: 0dbb 4b3d 8e88 a0bc 6cff fcbc b0dc 5bbd
00000010: 1a74 583d c627 6e3d cbb6 62bd dd89 ec3c
00000020: 474b db3c 2ff0 543d b927 a33c 5dea 4c3d
00000030: dc19 6f3d cee0 26bd 49b4 25bd 87d3 a5bc
00000040: 34d0 603d b007 7d3c 56eb 0e3d 1c8e abbb
00000050: 18a2 b93a 718c b5bc 14bc 29bd c0d5 253d
00000060: 90bd 603d 6818 25bd d105 26bd ca70 283c
00000070: 9edb d03c 0b1e 783d 9f2c 57bd 0b81 7fbd
00000080: acee bc3b 73f2 3bbc e307 053d a876 f9bc
00000090: ff8d 103d e634 b03c ed94 2dbd ed3c 463d
000000a0: 5e10 173c cc02 00bd eea3 463d ef10 3fbc
000000b0: 0691 753c cb4c 0e3c 4e16 483d 2a7d 163d
000000c0: 4147 e8bc 4b01 0e3d 1228 e33c 0ef0 52bd
000000d0: c8da 79bd 89a7 c83c a52b d83c 9a17 683d
000000e0: a354 01bd 07cc a7bc 0797 cb3c aca0 603d
000000f0: 417a 49bd aff6 763d 0b35 923b d937 023d
00000100: 9cf0 d23c bd16 2bbd 9376 be3c 090c 163d
00000110: e2cf 2cbd 8ab4 a83c 1ebb 0d3c 3e6e 66bd
00000120: af63 71bb 8719 d03c 3056 0fbc ae15 493d
00000130: bca3 473d c720 bc3c f344 39bc 9f08 9c3b
00000140: dae8 3c3d 594d 8339 0c46 13bc dd4b b23a
00000150: a195 4fbd b1f2 613d f199 41bd b2b8 7bbd
00000160: 21b3 c33b 7264 59bd 3a82 db3b 0e16 29ba
00000170: dbd6 c73c a321 43bd 66f4 963b 3a3e 9d3c
00000180: 3b0c 6dbc 3a64 383b 74b5 eabc 83b4 583d
00000190: 7cc7 45bd d989 47bd c429 09bb 08b7 6cbd
000001a0: e68d 01bb 2374 69bd 8c83 d6bb df7b 0c3d
000001b0: 7bca 0e3d 4c91 dd3c 900a 36bd 4743 aabc
000001c0: bf0f 1b3d 1c0b f13c 84de 3dbd afcc e1bb
000001d0: c280 2fbd 8124 0b3c 9190 d23c ff3c 4e3d
000001e0: 7293 50bc c93e 4dbd ef47 35bd 3253 5c3d
000001f0: 052d 753d 25a1 f7bb 04e3 753b 73b6 953c
00000200: 33c7 bbbb ab33 58bb e07f a13b 15d6 333c
00000210: 63bb acbc 5fd0 513d 4085 8e3c ef5c 89bc
00000220: 48e2 4d3c 4c34 61bd 79da 70bd 90e4 433d
00000230: 8ecb cabc 9398 1c3c 8aef bb3c ff6a 59bd
00000240: 7fcd 803c 80b2 1ebc 9dd1 423c c23c 8cbc
00000250: 27a7 373d 718c 453d 3dd9 113d 4513 58bc
00000260: 37c6 b43c 16e3 58bc acea 413d 9bd8 1fbc
00000270: 43fc 9bbc 1a3b aebc 1348 483d 3ee0 d7bc
00000280: 1c66 6dbd 7de0 783d 0cbf 853c 1fbe 573d
00000290: 1b1a 073d d0bd fdbc 2ae3 f23a 973b f53b
000002a0: c09e 01bd fe1b 73bd 5939 57bd a579 9f3c
000002b0: dbc3 ff3a f2dd 0d3d 48e0 643c 6e87 173d
000002c0: b125 43bd fa1a 7e3d 88b9 95ba e8b5 61bc
000002d0: abd8 703d 1611 06bd b537 483c ce5a 163d
000002e0: 41f2 b33c f30a 35bc 1a1b 573d 79ec 42bd
000002f0: 6852 3e3d 8084 17bc 166b 0ebd 46f1 193d
00000300: 6ab4 cebb 06cd 90bc 8448 623c 8d11 25bc
00000310: 3011 683d 50a0 99bc 12c2 e43b eb12 b23a
00000320: 48eb 36bd 294a 4ebd a2c6 773d 1872 273d
00000330: 010f 0a3c 8052 65bb 04e6 f8bc 4405 a4bc
00000340: 895c 6c3d ddb9 543d 560c 46bd 0875 dd3c
00000350: f0e1 48bc 6ab8 5fbc f6f9 2b3d b714 713d
00000360: eb10 a4bc ec5a 1ebd 6b08 d2bc c2cd c3bc
00000370: d0f2 d73c fb36 47bd c4ac 19bd 27c1 86bb
00000380: 6cbb 353c 4cc5 513d 3028 f43c a9ab cfbc
00000390: 4f55 bebc 0c78 7d3d d691 b43b 7bd6 eebb
000003a0: 5aab 3fbd c2f2 373d 0bb7 7abd 9ea9 563d
000003b0: 7db6 60bc 5a69 d23c 8737 6c3d 4d53 60bd
000003c0: ee49 b33c cc3e ac3c be2b 063d 7d8b b0bc
000003d0: 2f98 d63b 35b6 683b 8c91 7f3d 3a58 d0bc
000003e0: ec58 623d ca4a bc3c 6562 983c 31d9 ddbb
000003f0: 305e 7b3c ef0e 00bd e5e5 9b3c bbd6 713c

head.bias f4 [29]
0.037335537 -0.05682226 0.020752495 -0.044366937 -0.037765846 -0.033256184 -0.003790736 0.01015052
-0.00770194 -0.049896166 0.027820848 -0.057576533 -0.022930829 0.005909212 0.03861647 0.017735353
-0.017204659 0.15218666 0.093378544 -0.03641113 -0.018731825 0.016071405 -0.015053845 0.08075784
-0.060683824 0.08600881 0.06308951 0.10846537 -0.06631635
00000000: 26ed 183d 75be 68bd 2301 aa3c 1bba 35bd
00000010: 5cb0 1abd a337 08bd ff6d 78bb 5e4e 263c
00000020: 8e60 fcbb ec5f 4cbd 8ce8 e33c 5fd5 6bbd
00000030: 6fd9 bbbc 10a2 c13b 4e2c 1e3d bb49 913c
00000040: c9f0 8cbc d2d6 1b3e 403d bf3d d623 15bd
00000050: 7c73 99bc 2ea8 833c 67a4 76bc 5e64 a53d
00000060: 9a8f 78bd 6325 b03d 1335 813d 1823 de3d
00000070: ded0 87bd
