federated-local/heads/LOSA_head.pt (torch, 37813 bytes, 2 tensors)

head.weight f4 [35, 256]
000000 11 41 13 3e a4 d5 cd 3d c6 ed bb bc 83 7b ee bc
       0.1438029 0.10050514 -0.022940528 -0.02911163
000010 83 ad ce 3d 14 fc 13 3e c1 e5 27 3e 52 b5 03 3e
       0.100916885 0.14451629 0.16396238 0.12862137
000020 a5 f8 98 3d 50 b9 f8 3d b7 0a d7 3c f6 af 49 3d
       0.074693 0.121447206 0.026250226 0.049240075
000030 71 cb 23 3e 50 75 1d 3e ed 36 b4 3d f3 15 17 3e
       0.15995575 0.15376782 0.08799539 0.14754467
000040 e0 03 1a 3c 6a fc 83 3d 94 c1 91 3b 0c af eb 3d
       0.009400338 0.064446285 0.004448125 0.11507997
000050 12 f1 8e 3b 15 00 b0 3d 2d db 32 bd 52 8c 35 3b
       0.004362234 0.08593766 -0.043666054 0.0027702046
000060 b5 58 10 3e ac 7e a4 bb 45 01 a1 3d 17 b8 80 3d
       0.14096339 -0.0050199833 0.0786157 0.06285112
000070 33 95 c4 3d 60 10 d1 3c 1a 80 e3 3c da 69 8c 3d
       0.0959877 0.025520504 0.027771045 0.06856127
000080 a7 ab c1 39 35 31 a2 3d 30 4e 8d 3c d2 f2 27 3d
       0.0003693972 0.07919542 0.017249197 0.041003056
000090 e0 7b 94 3c c7 c6 23 3c 5e cb 2d 3d 63 88 91 3d
       0.018125474 0.009996123 0.042430274 0.07106092
0000a0 86 c1 12 3e 96 81 33 3e 92 e2 47 3d 05 68 d2 3c
       0.14331636 0.17529902 0.04880006 0.025684366
0000b0 8a 61 21 3b 79 c9 6e 3d 01 d4 37 bd 79 ef 0e 3e
       0.0024624788 0.058297608 -0.044879917 0.13958539
0000c0 60 a9 94 3c 3a 5f 51 3d 0e d2 cb 3a 58 fe 2a 3d
       0.01814717 0.051116206 0.0015550272 0.041746467
0000d0 84 cf ba 3b 83 51 f8 3d f4 b9 f2 3d 76 de fd 3c
       0.0057010073 0.12124922 0.11851874 0.030989867
0000e0 c5 9f ae 3d c0 4e 62 ba 38 08 63 3d ae fd 9e 3d
       0.08526567 -0.00086329505 0.05542776 0.07763229
0000f0 8a 23 ca 3d f1 d2 1f 3e b5 7f c1 3c 14 ca 57 3d
       0.0987006 0.15607812 0.023620466 0.05268295
000100 9c 36 30 3e b7 1f 4e 3d 8a 62 93 3d c1 ef 0c 3d
       0.17208332 0.050323214 0.07196529 0.034408335
000110 11 d1 00 3d 50 16 ec 3d f6 87 4e 3c 2b df 19 3e
       0.03144938 0.11527693 0.012605658 0.15026538
000120 ca 63 5c 3d 75 0b 48 3d 88 e3 a2 3d 32 45 72 bd
       0.053806104 0.04883905 0.079535544 -0.05914802
000130 d4 d8 ba 3d 6b cd 0a 3e 17 eb 66 3d 64 0d 1d 3e
       0.09123388 0.13554923 0.056376543 0.1533714
000140 eb 33 fd bc 8e dd 24 3b 38 49 5b 3d 08 c1 1e bd
       -0.030908545 0.002515647 0.053536624 -0.038758308
000150 4a eb 4a 3c 0e 23 99 3d 0d cc 01 3e 8d 3f 56 bc
       0.012385199 0.07477389 0.12675495 -0.013076675
000160 76 dd f4 3d b2 02 92 3d 5e 4a d7 3d 12 d4 88 bc
       0.11956303 0.0712942 0.10512231 -0.016702686
000170 6a f9 df 3d c5 df 2b ba 94 b9 12 3e 2b 7b 54 bc
       0.10936244 -0.00065564766 0.14328605 -0.012968819
000180 59 c8 ae 3d 12 83 54 ba 52 8b a9 3d 89 89 cc 3d
       0.08534307 -0.0008106689 0.08278526 0.0998717
000190 c5 59 5c bd 2c ae 04 3d d7 6d cc 3c 09 3e 85 3d
       -0.05379655 0.032392666 0.02495472 0.06505973
0001a0 06 7c 67 3d 89 9a 5f 3d 4f 8c 3e bd 3e 34 7b 3d
       0.056514762 0.054590736 -0.046520527 0.06132912
0001b0 60 bc 00 3e 82 a8 c2 3d 97 fa 06 3e b8 8e 32 3d
       0.1257186 0.095047966 0.1318153 0.04359314
0001c0 bf 1b ce bc 9a 4f 0c 3e 6e a3 83 3d 16 16 18 3d
       -0.025159715 0.1370224 0.06427656 0.037130438
0001d0 7d cf 4b bd 48 35 a9 3c 42 cc 23 3e 6b 1c fd bc
       -0.049758423 0.02065529 0.15995887 -0.03089734
0001e0 45 7d 2b 3d 52 eb 1e 3e b3 59 e7 3d e9 c1 bf 3d
       0.041867513 0.15519455 0.11296406 0.09363157
0001f0 f7 d1 a6 3d 27 24 e5 3d 0b 07 1a 3d 25 d6 3a bd
       0.08145516 0.11188536 0.037604373 -0.04561438
000200 f4 d4 75 3c ed 6e 58 3d 38 06 03 3e 43 74 87 3d
       0.015004385 0.052840162 0.12795341 0.06613972
000210 00 7f 1c bd f5 8a 14 3e 24 e1 0b bd 28 a4 90 3d
       -0.038207054 0.14506133 -0.034150258 0.0706256
000220 7b 76 4d 3e e6 7d 81 3d f5 aa 91 3d 3a 3f dd bb
       0.20064728 0.06322841 0.071126856 -0.006751922
000230 09 c6 22 bd fc 52 4b 3d 4b c6 b0 3d 46 a6 80 3d
       -0.039739642 0.049639687 0.086315714 0.06281714
000240 13 d8 8e 3d bc 03 0f 3e 83 e2 86 3d 47 f1 19 3d
       0.06974807 0.13966268 0.065861724 0.037583616
000250 e0 99 e9 3d 77 6d 2a bd ae 3c be 3d 9e 16 16 3e
       0.114063025 -0.0416083 0.092889175 0.14657065
000260 95 19 08 3d 46 82 de 3d 78 09 0a 3e db 1e 8e bc
       0.033227522 0.108646914 0.13480175 -0.017348697
000270 04 69 71 bd 24 74 cc 3d 92 9a f8 3d 23 14 b8 3c
       -0.05893804 0.099830896 0.12138857 0.02247054
000280 a7 86 1e 3d 31 7f e2 3d 76 ca 3c 3d 94 13 9b 3d
       0.038702633 0.11059416 0.04609152 0.075720936
000290 8c 63 df 3c 03 a2 3f 3d 4e f2 3a 3d a5 82 52 bd
       0.027269147 0.046785366 0.045641236 -0.051394124
0002a0 54 72 06 3d bf c6 89 3c 87 3b 72 3a 1c 10 55 bd
       0.032823876 0.016818402 0.00092404376 -0.052017316
0002b0 d3 51 08 3e 69 cc 29 3e eb be 81 bc d2 65 3e 3c
       0.13312463 0.16581883 -0.015838107 0.011620956
0002c0 d6 62 9b 3d fc 51 90 bb c6 73 c9 3d 86 36 27 3e
       0.07587211 -0.0044043045 0.09836535 0.16329393
0002d0 bc 3f 3d bd 05 c9 7b 3b 3b 07 27 3e ba c3 3f bd
       -0.04620336 0.0038419378 0.16311352 -0.04681752
0002e0 76 3c b9 3a 55 23 9c 3d 6b eb 92 3d 42 25 f1 3d
       0.0014132399 0.076239266 0.07173809 0.117746845
0002f0 01 8b c0 3d 46 a0 c8 3d 96 5d c8 3d eb b8 9c 3d
       0.09401513 0.09796195 0.09783475 0.07652458
000300 55 71 9f 3b 95 ba b5 3d c2 4e ac 3d bf 58 1b 3e
       0.004865805 0.08873478 0.08413459 0.15170573
000310 5b b6 89 bd 2c 7b 44 3d 06 8e 30 3c 77 9f cf 3d
       -0.06724235 0.04796903 0.0107760485 0.101378374
000320 13 05 1d 3d 80 73 a7 3d a6 7b 02 3e ee f2 af 3d
       0.038334917 0.08176327 0.1274248 0.08591257
000330 c7 27 d6 bc f0 a7 26 3d d6 80 c9 3d 24 9a 82 3c
       -0.026142014 0.0406875 0.09839027 0.01594264
000340 02 d7 ff bc 91 fd b3 bc 2e ba c6 3d 5f a7 b4 3d
       -0.031230453 -0.021971496 0.0970348 0.08820986
000350 70 12 07 3e 30 d4 a0 3d 02 d3 33 bc 36 34 09 bd
       0.13190627 0.078529716 -0.010975601 -0.033497058
000360 a4 d1 d1 3c 62 d4 30 3e bf 01 15 3e 88 01 2e 3d
       0.02561266 0.17268518 0.14551447 0.04248193
000370 0e f0 a3 3d 95 5f 0b 3d 00 c0 bc 3d 75 36 c1 3d
       0.08004771 0.0340267 0.092163086 0.09434215
000380 12 70 9d 3c 62 62 35 3d c3 12 bf bc 1a cd fb 3b
       0.019218478 0.04428328 -0.023324376 0.007684362
000390 b4 61 27 3c 72 ab 2a bd 71 ec 3d 3d 8e 22 cb 3d
       0.010216165 -0.04166741 0.046368066 0.099187
0003a0 89 ff a8 3c 57 b1 ac 3d 88 12 b9 3d 55 c1 2f bb
       0.020629661 0.084322624 0.09036738 -0.0026818116
0003b0 90 19 d6 bc 38 b5 5f 3b 3f 7a f8 3d 74 c1 80 3d
       -0.026135236 0.0034135114 0.121326916 0.06286898
0003c0 1f 7c 30 bd 2f e0 d4 3d e3 c7 4d 3d 2f 8a 8d 3d
       -0.04308712 0.10394322 0.050239455 0.06911122
0003d0 e0 a0 32 3d bc 1d d9 bb 20 5f 11 3e 86 44 b1 3d
       0.043610454 -0.006625859 0.14196444 0.08655648
0003e0 72 5e 00 3d f7 53 11 3c c8 da 12 3e 17 36 81 3d
       0.03134007 0.008870116 0.14341271 0.06309145
0003f0 69 5b eb bc 46 47 0f 3e f8 25 e6 3d 82 73 cc 3d
       -0.028730111 0.13992032 0.11237711 0.09982969

head.bias f4 [35]
000000 dc 54 50 3e 2e 88 25 3e 85 59 50 be 87 c5 35 be
       0.20344871 0.1616523 -0.20346649 -0.17751132
000010 5b a4 21 3e 0c 22 70 be 3b 39 2a be 5f 5d ea 3d
       0.15785353 -0.23450488 -0.16623394 0.114435904
000020 c5 5b 1a 3e 3d 7d 43 be f8 81 2e 3e 71 89 6d be
       0.1507407 -0.19090743 0.17041767 -0.23196961
000030 db 2f 23 3e e8 65 e0 bd e3 9a c1 3d eb 31 5e 3e
       0.15936224 -0.10956937 0.094533704 0.2169873
000040 a4 db 58 3d 9c a9 d8 bd 94 c0 db 3d 0a 3e c8 3d
       0.05294384 -0.105792254 0.10730091 0.09777458
000050 33 2a 2a 3e a7 75 6b be 23 ac 85 3e 91 9d 88 3d
       0.1661766 -0.229941 0.26107892 0.066706784
000060 55 38 6c bd 12 26 11 3d 71 bb 6f bd 8a 3a 9f 3d
       -0.05767091 0.035436697 -0.058528367 0.07774837
000070 7d 53 ba be da ff e1 3c 1e b8 7a bd 17 ad 31 3e
       -0.36391822 0.02758782 -0.061210744 0.17351185
000080 e8 db 54 be 1a 14 07 3e a5 b9 39 be
       -0.20787013 0.13191262 -0.18137224
