federated-local/heads/NYCM_head.pt (torch, 38837 bytes, 2 tensors)

head.weight f4 [36, 256]
0.032034274 -0.022073198 0.016263327 0.07303324 0.02641523 0.037351847 0.0815314 0.038213737
0.06146509 0.02497674 0.018632723 0.05118148 0.03475998 0.009352319 0.0077882344 0.00857794
0.04075226 -0.031225521 0.037933085 0.09619946 0.088011205 -0.01146358 -0.03837202 -0.00723036
-0.0148481345 -0.010669007 0.055684865 0.025790818 -0.013268078 -0.035011694 0.017202238 -0.016251223
0.05374957 0.023890411 0.047088437 0.062608756 0.056706905 0.03672362 0.011123795 0.039489884
0.06172483 -0.007489642 0.005946027 0.06277988 0.02037396 0.019289443 0.008431558 0.05732513
0.007250707 -0.0029031637 -0.014823604 -0.010326077 0.061076842 -0.02064288 0.10579192 0.051101793
0.019794272 -0.024672361 0.00079491216 0.0012381568 0.02114641 0.021867177 0.042703807 0.024187569
-0.007337803 -0.035917073 0.064751945 0.08438394 0.0020863623 0.0781728 0.035612803 0.083084375
0.045664843 0.055892296 0.04785369 -0.023289299 -4.8409212e-05 0.017809268 -0.027398588 0.040239595
0.0360561 -0.009123798 0.02384705 -0.028993854 0.08241937 -0.014508054 0.004427851 -0.014778318
0.038550504 0.051799864 -0.019929796 0.009882235 0.0051425984 0.00069324777 0.037131153 0.07001443
-0.013880731 -0.030766215 0.017668465 0.037618462 0.021718282 0.043874856 -0.024361344 -0.054366756
0.09379856 0.0971055 -0.014467766 0.059418 -0.018642994 0.07927436 0.031782966 0.03348338
0.043169886 0.0873117 0.015331296 0.035887636 -0.052072983 0.09515949 0.11158597 -0.048342068
0.017933449 -0.00832438 0.02434522 -0.010177299 -0.005379505 0.055112384 -0.03775335 0.052915484
0.01754087 0.0853726 -0.050473906 0.037146747 0.06628724 0.061935782 0.017899416 0.08041129
0.056227893 0.078885 0.078689866 -0.044949844 0.06031852 0.03201267 0.060429115 0.030959481
0.055467844 0.098700814 0.011898828 0.011908365 0.03542273 0.060386285 0.02894065 0.0031404074
0.059175216 0.0030911434 0.029444532 -0.016494654 0.04006038 0.05568571 0.07618376 0.09052398
0.016904095 0.018213246 0.022130087 0.053829722 0.050668247 -0.037106585 0.07614066 0.06857709
0.05608323 -0.0032273605 0.008278209 -0.016920842 -0.042821173 0.07586351 -0.05503653 -0.026739221
0.003258366 0.028198648 0.071535066 0.02843562 0.07586565 0.0045143464 0.07161201 0.02078442
-0.034401037 0.05814713 -0.026733318 0.04511846 0.040405296 0.02120846 0.07326769 -0.013019092
-0.0052463273 -0.0011682534 -0.015142996 0.04236491 0.058935076 0.010868642 -0.010988397 0.03873484
0.03341112 -0.024416639 0.027609993 0.10284855 0.012860495 -0.04371624 0.07040102 0.032338884
-0.011454008 0.02187667 0.099741556 0.013256654 0.012970239 0.05425824 -0.036715925 0.0456902
-0.010325363 0.0051679467 0.087965265 0.06698008 0.04988432 0.050890643 0.06952804 -0.04549982
-0.03581254 0.042623095 -0.049354367 0.021596227 0.08116865 -0.021917585 0.05166982 -0.0022861222
-0.029601602 0.00148513 0.05034172 -0.012635981 -0.029682247 0.07009835 0.016176118 0.008141746
-0.02735484 0.010563515 0.064473875 0.019921694 -0.0039470326 0.057325605 0.0001396065 0.085766315
0.0976303 0.07735949 0.017858313 0.05476168 -0.009778257 0.10426376 -0.022520175 0.11220748
00000000: 5f36 033d dad2 b4bc ab3a 853c 7492 953d
00000010: c164 d83c 40fe 183d eff9 a63d 0286 1c3d
00000020: d1c2 7b3d 059c cc3c a7a3 983c aca3 513d
00000030: 7b60 0e3d 783a 193c 7234 ff3b 7d8a 0c3c
00000040: d7eb 263d aacc ffbc b95f 1b3d 3904 c53d
00000050: 383f b43d bdd1 3bbc fb2b 1dbd a8ec ecbb
00000060: 9745 73bc 0fcd 2ebc d015 643d 4447 d33c
00000070: 5a62 59bc 6c68 0fbd b5eb 8c3c 4921 85bc
00000080: 8228 5c3d d3b5 c33c cedf 403d 0539 803d
00000090: 8045 683d 826b 163d 9440 363c 25c0 213d
000000a0: 2dd3 7c3d ac6b f5bb e4d6 c23b bd92 803d
000000b0: 4ae7 a63c e504 9e3c 8424 0a3c c1cd 6a3d
000000c0: 5797 ed3b 0143 3ebb b4de 72bc b52e 29bc
000000d0: b62b 7a3d 421b a9bc 6fa9 d83d 1d50 513d
000000e0: 9927 a23c b11d cabc a761 503a a649 a23a
000000f0: 3c3b ad3c cb22 b33c 30ea 2e3d 0225 c63c
00000100: f471 f0bb c81d 13bd ab9c 843d 7dd1 ac3d
00000110: 5abb 083b 1019 a03d bbde 113d 2428 aa3d
00000120: 0f0b 3b3d 52ef 643d 3b02 443d 33c9 bebc
00000130: ff0a 4bb8 bee4 913c 0173 e0bc 46d2 243d
00000140: 90af 133d fc7b 15bc e35a c33c 8584 edbc
00000150: 7dcb a83d 30b3 6dbc 8217 913b c220 72bc
00000160: 22e7 1d3d 182c 543d d043 a3bc 19e9 213c
00000170: 3e83 a83b 12bb 353a d616 183d ba63 8f3d
00000180: 016c 63bc 6e09 fcbc 75bd 903c d115 1a3d
00000190: 8aea b13c 1fb6 333d 7191 c7bc adaf 5ebd
000001a0: 7619 c03d 40df c63d 350a 6dbc 4a60 733d
000001b0: 31b9 98bc 985a a23d db2e 023d de25 093d
000001c0: e8d2 303d 7ad0 b23d 1e30 7b3c eafe 123d
000001d0: 7b4a 55bd fbe2 c23d 2f87 e43d 5502 46bd
000001e0: 2be9 923c fb62 08bc a06f c73c b0be 26bc
000001f0: 8f46 b0bb 86bd 613d 42a3 1abd e8bd 583d
00000200: dfb1 8f3c d4d7 ae3d babd 4ebd 3027 183d
00000210: 9bc1 873d 60b0 7d3d cca1 923c adae a43d
00000220: 384f 663d 758e a13d 2728 a13d 541d 38bd
00000230: 8d10 773d b81f 033d 8584 773d bd9e fd3c
00000240: 4032 633d a723 ca3d 4df3 423c 4e1b 433c
00000250: 6d17 113d 9c57 773d f114 ed3c 4bcf 4d3b
00000260: b661 723d c894 4a3b a935 f13c cc1f 87bc
00000270: 5a16 243d b316 643d 3b06 9c3d a364 b93d
00000280: 757a 8a3c f233 953c 284a b53c 8e7c 5c3d
00000290: 8289 4f3d 13fd 17bd a2ef 9b3d 2572 8c3d
000002a0: 87b7 653d 2082 53bb 53a1 073c 949d 8abc
000002b0: 4165 2fbd 545e 9b3d fc6d 61bd 360c dbbc
000002c0: 4f8a 553b da00 e73c fa80 923d d1f1 e83c
000002d0: 735f 9b3d 15ed 933b 51a9 923d 1744 aa3c
000002e0: 1ae8 0cbd af2b 6e3d d5ff dabc 22ce 383d
000002f0: 0680 253d 5dbd ad3c 5f0d 963d 084e 55bc
00000300: 62e9 abbb 1420 99ba 541a 78bc d486 2d3d
00000310: e865 713d 6312 323c ad08 34bc 6ca8 1e3d
00000320: 19da 083d 6705 c8bc 5a2e e23c 43a2 d23d
00000330: d3b4 523c cd0f 33bd 692e 903d c775 043d
00000340: 97a9 3bbc b436 b33c 4d45 cc3d 7032 593c
00000350: 2081 543c e33d 5e3d 7063 16bd a625 3b3d
00000360: b62b 29bc e157 a93b 2227 b43d da2c 893d
00000370: 8053 4c3d b572 503d b864 8e3d 055e 3abd
00000380: 2cb0 12bd 8e95 2e3d ce27 4abd 92ea b03c
00000390: c03b a63d 828c b3bc bca3 533d c4d2 15bb
000003a0: 0f7f f2bc b2a8 c23a 1f33 4e3d 2507 4fbc
000003b0: 2f28 f3bc b98f 8f3d c783 843c f564 053c
000003c0: 4217 e0bc 9812 2d3c e10a 843d d232 a33c
000003d0: 1c56 81bb 41ce 6a3d 5663 1239 40a6 af3d
000003e0: 65f2 c73d a76e 9e3d 994b 923c c94d 603d
000003f0: fc34 20bc 3d88 d53d 3b7c b8bc 09cd e53d

head.bias f4 [36]
0.068494536 -0.021018082 0.068522416 0.10474422 0.0022484811 -0.010556103 0.04422204 0.028204935
0.13636312 0.03890877 -0.08719927 -0.039808266 0.051021695 -0.096722186 0.039952688 0.087665536
0.028093051 -0.11193946 0.03978627 0.06091589 -0.06012667 0.031264756 0.06816372 -0.08905704
0.06508688 0.10270195 0.08949206 -0.086345665 0.08750469 0.0513372 0.066231914 -0.071539246
-0.06434388 0.12805352 -0.05349566 -0.13074285
00000000: dd46 8c3d 1d2e acbc 7b55 8c3d 2384 d63d
00000010: 415b 133b 81f3 2cbc 2b22 353d 090e e73c
00000020: c6a2 0b3e cd5e 1f3d 8895 b2bd fe0d 23bd
00000030: 20fc 503d 4816 c6bd 6ea5 233d fd89 b33d
00000040: 6623 e63c 8440 e5bd eef6 223d f182 793d
00000050: 6247 76bd 790f 003d 6c99 8b3d 8a63 b6bd
00000060: 454c 853d 6655 d23d 9d47 b73d ffd5 b0bd
00000070: a935 b33d f546 523d 99a4 873d 2b83 92bd
00000080: b9c6 83bd 7620 033e 441e 5bbd 74e1 05be
