federated-local/heads/SNVA_head.pt (torch, 36789 bytes, 2 tensors)

head.weight f4 [34, 256]
0	0x3c17b60b	0.009259711
1	0x3da25c8f	0.079278104
2	0xbcdec112	-0.027191672
3	0x3d54dded	0.051969457
4	0x3cc9c533	0.024630165
5	0xbd01266d	-0.031530786
6	0x3c8925f5	0.016741732
7	0x3c5b8263	0.013397786
8	0x3ca7b8f3	0.020473933
9	0x3d823396	0.063574955
10	0x3d7df689	0.062002692
11	0x3d137511	0.036000315
12	0x3beb4476	0.007179792
13	0x3ce85db6	0.028364997
14	0x3d109118	0.035294622
15	0x3cb02110	0.02150014
16	0x39a3379d	0.00031131218
17	0x3d13ae76	0.03605505
18	0x3d86f31e	0.0658934
19	0x3d4fe35d	0.05075394
20	0x3d7e4976	0.062081777
21	0x3cc22710	0.023700267
22	0xbd55ef19	-0.052229974
23	0x3d85896d	0.065203525
24	0x3d81685d	0.06318734
25	0x3cdb4c86	0.026769888
26	0x3d188000	0.037231445
27	0xbbaa238c	-0.005192226
28	0x3b3e16f0	0.002900537
29	0x3d22f9b5	0.03978892
30	0x3d128d76	0.03577944
31	0x3d82be9d	0.06384013
32	0xbd366db1	-0.044538204
33	0x3d222f26	0.039595746
34	0x3c276e33	0.010219145
35	0xbd77ea40	-0.060526133
36	0x3cc263e6	0.023729276
37	0x3c3f15b9	0.011662894
38	0x3d5ce0b0	0.053925216
39	0xbc196569	-0.009362557
40	0xbc647c53	-0.013945657
41	0x3d6ccd62	0.057813056
42	0x3b878e1c	0.004136814
43	0x3d83f026	0.06442289
44	0x3d306baa	0.043071426
45	0x3c8d1602	0.017222408
46	0xbc55cab4	-0.0130488165
47	0xbcbc672e	-0.022998419
48	0xbc16649a	-0.009179259
49	0xbc417702	-0.011808159
50	0x3d740c59	0.05958209
51	0x3d8a3029	0.06747467
52	0x3b18dfc9	0.0023326746
53	0x3ca55d29	0.020186024
54	0xbc85ad3e	-0.01631796
55	0x3cbabbfd	0.022794718
56	0xbd174f24	-0.03694071
57	0x3d6d0adf	0.057871696
58	0xbb351f37	-0.0027637014
59	0x3c55fb1a	0.013060356
60	0xbcb9c230	-0.022675604
61	0x3c917f08	0.017760769
62	0x3cefe098	0.0292819
63	0x3b85aa38	0.0040791295
64	0x3dacb2c8	0.08432537
65	0xbba671a1	-0.0050794636
66	0x3cafd138	0.021462068
67	0x3bd62393	0.0065350025
68	0x3d920a19	0.07130832
69	0xbc66e376	-0.014092317
70	0xbb9fc77a	-0.0048760744
71	0x3d88ad10	0.06673634
72	0xbb8803d1	-0.0041508456
73	0x3d29825b	0.041384082
74	0x3c79896a	0.015230516
75	0x3c726c30	0.014796302
76	0xbc290db0	-0.010318205
77	0x3cea86d5	0.028628746
78	0x3d2f0257	0.04272684
79	0x3d5d9cb5	0.054104526
80	0x3a35dae2	0.0006937218
81	0xbd136b53	-0.035991024
82	0x3cc9380e	0.024562862
83	0x3c9ce1f5	0.019150713
84	0x3c4898fa	0.012243504
85	0x3c465c74	0.0121070035
86	0x3d9c2b78	0.076254785
87	0x3cdd0582	0.026980165
88	0x3d6fd84c	0.058555886
89	0xbccadb5e	-0.024762806
90	0x3c82bb94	0.015958585
91	0x3cf425f0	0.029803246
92	0x3db7d049	0.08975274
93	0x3d9fe444	0.0780721
94	0xbabbbccd	-0.0014323235
95	0x3d8422fb	0.064519845
96	0x3cc004b0	0.023439735
97	0x3d8f1f65	0.0698841
98	0x3be1ccd9	0.006890875
99	0x3bc98eda	0.0061510624
100	0x3c042f5d	0.008067933
101	0x3c408e68	0.011752702
102	0x3d9a28ad	0.075272895
103	0x3d223b97	0.03960761
104	0x3d4bcfcc	0.049758717
105	0x3d82e79f	0.063918345
106	0x3c93c8fa	0.018040169
107	0xba901b89	-0.0010994534
108	0x3b908790	0.0044106916
109	0x3d491054	0.049087837
110	0x3d34f6cc	0.044180676
111	0x3d9163b1	0.07099093
112	0x3ba8461f	0.005135312
113	0x3d114852	0.03546936
114	0xbc77cb5e	-0.01512417
115	0x3d3fe876	0.04685255
116	0x3c4e7c1e	0.012602834
117	0x3d8529ef	0.06502139
118	0x3cde95bc	0.027171008
119	0x3d3b32a7	0.045702603
120	0x3d465569	0.048421297
121	0x3c86c972	0.016453478
122	0xba50a94c	-0.00079597975
123	0x3ca54534	0.0201746
124	0x3cf26e5c	0.02959364
125	0x3c7af663	0.015317532
126	0xbc549fbb	-0.012977536
127	0x38b1312c	8.449177e-05
128	0x3cb905f2	0.022585843
129	0x3d726ebb	0.059187632
130	0x3cd8fc64	0.026487537
131	0xbcf50d3d	-0.029913539
132	0xbca175dd	-0.019709522
133	0x3cd4210d	0.025894666
134	0x3cf18e94	0.029486932
135	0xbc73a70b	-0.014871369
136	0x3d8035f2	0.06260289
137	0xbc9bbc83	-0.019010788
138	0x3cf88c1c	0.030340247
139	0x3d9bde4e	0.07610761
140	0x3cabb909	0.020962255
141	0xbc3b762a	-0.011441747
142	0x3d588786	0.05286362
143	0x3d0f4b41	0.034983877
144	0x3cd5bb35	0.026090244
145	0x3cf67d05	0.03008891
146	0xbaad35d3	-0.0013214893
147	0x3d5b5c4c	0.053554818
148	0x3cac7a68	0.021054462
149	0x3c68de5b	0.01421317
150	0x3cf4f9b9	0.029904233
151	0x3c6ec5a1	0.014573486
152	0x3d2d7d31	0.04235572
153	0xbc95da39	-0.018292533
154	0xbc06a157	-0.008217177
155	0x3da3d878	0.080002725
156	0x3c33318e	0.010937108
157	0x3d109b7a	0.035304524
158	0x3da7dc43	0.081963085
159	0xbcafa543	-0.021441108
160	0x3d44710c	0.047959372
161	0x3dae16b8	0.08500427
162	0xbc0d17dd	-0.0086116465
163	0x3d921d95	0.071345486
164	0x3d9d2c6f	0.07674491
165	0xbd019228	-0.031633526
166	0x3d5c09dc	0.05372034
167	0xbd2d5dd2	-0.042325802
168	0x3cd22628	0.02565296
169	0x3c1c880d	0.009553921
170	0x3d89a40e	0.06720744
171	0xbc93f580	-0.0180614
172	0xbc644cb2	-0.013934301
173	0x3d459dc4	0.04824616
174	0xbcdb7e18	-0.026793525
175	0xbd0deef6	-0.03465172
176	0xbae63425	-0.0017563148
177	0xbd20384a	-0.03911618
178	0x3d4f1575	0.050557572
179	0x3d62e3cf	0.055393036
180	0xbcd0bf87	-0.025481952
181	0xbca88045	-0.020568976
182	0xbca75bd7	-0.020429535
183	0xbcb12cf8	-0.021627888
184	0x3d1da6e6	0.038489245
185	0xbd384f96	-0.044997774
186	0xbcb54bc8	-0.022130862
187	0xbba4d9a1	-0.005030826
188	0xbbdd320a	-0.00675035
189	0x3b238ae7	0.0024954618
190	0x3dbe3186	0.092867896
191	0xbcb1bf34	-0.021697618
192	0x3d8fee1b	0.07027837
193	0x3cfe986d	0.031078542
194	0xbb704cfd	-0.0036666982
195	0xbd00820b	-0.03137402
196	0x3d274fa6	0.040847443
197	0x3d535adc	0.051600322
198	0x3d014352	0.031558342
199	0x3d91398d	0.07091055
200	0x3d811468	0.0630272
201	0x3c1a0dca	0.009402702
202	0x3c936ea0	0.017997086
203	0x3c1b02e6	0.00946114
204	0xbc72911d	-0.0148051055
205	0xbd0da7a4	-0.034583703
206	0x3daa65ad	0.08320174
207	0xbceb03e5	-0.02868838
208	0xbc96224a	-0.018326897
209	0xbc1b02a0	-0.009461075
210	0x3d9cde77	0.07659619
211	0x3d6a0ecb	0.057143014
212	0xbc43c56e	-0.011948926
213	0x3c4f7945	0.01266319
214	0x3d2a36cd	0.04155617
215	0x3dbcda26	0.09221296
216	0x3d938683	0.072033904
217	0xbb87aabd	-0.0041402266
218	0xbcbf2fa2	-0.023338143
219	0xbca4f983	-0.020138508
220	0x3d147da9	0.03625265
221	0x3d281a7a	0.041040875
222	0x3c8517ac	0.01624664
223	0x3da54e36	0.08071558
224	0xbc5835c2	-0.013196411
225	0x3d40e6c3	0.04709507
226	0xbcf3a595	-0.029742042
227	0x3c93a0a5	0.018020937
228	0x3dac5526	0.08414678
229	0x3d3ad091	0.04560906
230	0xba02dc9b	-0.0004991979
231	0x3d4b73ff	0.04967117
232	0xbd94269e	-0.07233928
233	0xbd6fcf8b	-0.058547538
234	0x3ca0d60f	0.019633321
235	0x3d2bdf3c	0.04196094
236	0x3d310c53	0.043224644
237	0x3d071fb9	0.032989237
238	0x3ce07bbf	0.027402757
239	0xbbe31401	-0.006929875
240	0xbc3baf22	-0.011455329
241	0xbcd57603	-0.026057249
242	0x3ca0a76a	0.01961108
243	0x3b774b67	0.0037734152
244	0x3c0a5c29	0.008444824
245	0x3d8e89b0	0.069598556
246	0xbc734439	-0.0148478085
247	0x3d02c3d2	0.03192503
248	0xbc08e800	-0.008356094
249	0xbbebeba7	-0.007199723
250	0x3d3870e2	0.04502953
251	0x3d313d44	0.043271318
252	0xbbf8a1a1	-0.007587627
253	0x3da711a3	0.08157661
254	0x3dc1bfd5	0.09460417
255	0x3d846ab2	0.06465663

head.bias f4 [34]
0	0x3e0f325a	0.13984051
1	0xbdcae739	-0.099073835
2	0x3c80587d	0.015667195
3	0x3ca370b4	0.019951202
4	0xbe06ca25	-0.1316305
5	0x3e4022d0	0.1876328
6	0xbd7f546f	-0.06233638
7	0x3e246fb6	0.1605824
8	0xbd31f367	-0.043445017
9	0xbdfae1d5	-0.12250105
10	0x3cef0e15	0.02918152
11	0x3e127bb4	0.14305001
12	0xbc9b890a	-0.018986244
13	0xbd5980aa	-0.05310122
14	0x3dde424d	0.108524896
15	0xbe1fba60	-0.1559844
16	0x3ce0436a	0.027375896
17	0x3e029283	0.12751202
18	0xbe1b34f2	-0.15156916
19	0xbd3ec6b8	-0.04657623
20	0x3df239d9	0.1182744
21	0x3e08242c	0.13295048
22	0xbde444e0	-0.11145949
23	0xbdd50073	-0.10400476
24	0x3d6c3cfe	0.057675354
25	0x3dc50f33	0.0962204
26	0xbd45dcac	-0.048306152
27	0xbe0a612c	-0.1351363
28	0xbd7bdf71	-0.061492387
29	0x3dbdc5a9	0.09266216
30	0xbd83c624	-0.06434277
31	0xbdee0fcf	-0.11624109
32	0xbdfc135a	-0.123083785
33	0x3df6fc50	0.120598435
