federated-oracle/heads/ATLA_head.pt (torch, 39861 bytes, 2 tensors)

head.weight f4 [37, 256]
0	0xbe53815e	-0.20654818
1	0xbdaf8390	-0.085700154
2	0xbe00e285	-0.1258641
3	0xbd6cc7ba	-0.05780766
4	0xbe313e09	-0.17308821
5	0xbe4be080	-0.19909859
6	0xbd9ce317	-0.076605015
7	0xbda7a113	-0.08185019
8	0xbdd3b743	-0.10337689
9	0xbdb3ce08	-0.08779532
10	0xbe181e55	-0.14855321
11	0xbdb64d57	-0.0890147
12	0xbdae69c8	-0.0851627
13	0xbdd71745	-0.10502485
14	0xbda98e6b	-0.08279117
15	0x3d490e05	0.049085636
16	0xbd8f1707	-0.06986814
17	0xbe05a6ba	-0.13051882
18	0xbe4f8dfe	-0.2026901
19	0x3c4803c9	0.012207934
20	0xbd3273eb	-0.04356758
21	0xbd64cf8c	-0.055861995
22	0xbe0b9437	-0.13630758
23	0xbdfad9e1	-0.12248588
24	0xbd8eda3b	-0.06975218
25	0xbe3b472b	-0.18288867
26	0xbe0fbbb0	-0.14036441
27	0xbc72b651	-0.014813975
28	0xbe802e00	-0.25035095
29	0xbe359267	-0.1773163
30	0xbe10f0c0	-0.14154339
31	0xbdee5265	-0.11636809
32	0x3d2538bb	0.040337306
33	0xbd27f973	-0.041009378
34	0xbd35dd8f	-0.044400748
35	0xbdef7f2a	-0.116941765
36	0x3b8ca729	0.004292388
37	0xbd8ad2af	-0.06778466
38	0xbd46bcd2	-0.048519917
39	0xbdb19eba	-0.08672853
40	0xbd773b29	-0.060359154
41	0xbe3f80e3	-0.1870151
42	0xbdbfbacb	-0.093618
43	0xbe3b36cc	-0.18282622
44	0xbca4856f	-0.020083157
45	0xbdfe4b06	-0.12416653
46	0xbe04c7e0	-0.12966871
47	0xbc59dcf3	-0.013297307
48	0xbe0190b3	-0.12652855
49	0xbdee2e56	-0.11629932
50	0xbe296d71	-0.16545655
51	0xbd9cc0d3	-0.07653966
52	0xbe1ec838	-0.15506065
53	0xbdd5e130	-0.10443342
54	0xbe18e09f	-0.14929436
55	0xbdd60fb2	-0.104522124
56	0xbe2dc92b	-0.1697127
57	0xbd91a567	-0.07111626
58	0xbe07204b	-0.13195913
59	0xbd825b4a	-0.06365068
60	0x3a076519	0.0005164906
61	0xbe1188e9	-0.14212383
62	0xbe2a2370	-0.16615081
63	0xbca2eeae	-0.019889202
64	0xbdd0a7b6	-0.10188238
65	0xbe00a981	-0.1256466
66	0x3d3377f8	0.043815583
67	0x3d08fd12	0.03344447
68	0xbe35f3ee	-0.17768833
69	0xbddf7dc1	-0.109126575
70	0xbdbf21d1	-0.09332622
71	0xbd854b8f	-0.06508552
72	0xbe777268	-0.24164736
73	0xbe3cd173	-0.18439274
74	0xbd5f7805	-0.05455782
75	0xbe6e6370	-0.2328012
76	0xbdaa6516	-0.08320062
77	0xbe2289da	-0.15872899
78	0xbdc4817c	-0.0959501
79	0xbdcd0d59	-0.100123115
80	0xbdd03f1c	-0.10168287
81	0xbe63cc23	-0.2224584
82	0xbd8de127	-0.0692771
83	0xbe42350d	-0.1896555
84	0xbd96b891	-0.07359422
85	0x3a80c993	0.0009825699
86	0xbddb4a8f	-0.1070758
87	0xbd3be18d	-0.0458694
88	0xbd85e12f	-0.06537091
89	0xbe4d7a9e	-0.20066306
90	0xbd3f9279	-0.046770547
91	0xbdedcea7	-0.116116814
92	0xbd9717a2	-0.073775545
93	0xbdcb6fc2	-0.099334255
94	0xbdc4737f	-0.09592342
95	0xbe10d4e2	-0.14143708
96	0xbe3e1835	-0.18563922
97	0xbd9eab8a	-0.07747562
98	0xbe2ad2fd	-0.16682048
99	0xbe1175db	-0.14205115
100	0xbe0171cd	-0.12641068
101	0xbe419301	-0.18903734
102	0xbdadbfa5	-0.08483819
103	0x3c73fa34	0.014891196
104	0xbe2f37c2	-0.17111114
105	0xbe33b9cd	-0.17551346
106	0xbe313aeb	-0.17307632
107	0xbd908afa	-0.07057758
108	0xbe876e4b	-0.26451334
109	0xbd2a1500	-0.041523933
110	0x3c3aeca0	0.011408955
111	0xbe25bdd1	-0.1618569
112	0xbe32de62	-0.17467645
113	0xbdb0fd46	-0.08642058
114	0xbe04da5c	-0.12973922
115	0xbe023243	-0.12714486
116	0xbdb85407	-0.09000402
117	0xbd9ee069	-0.077576466
118	0xbe132da2	-0.14372876
119	0xbe01b6bc	-0.12667364
120	0x3d2a20ca	0.041535176
121	0xbe14e64f	-0.14540981
122	0xbe381bac	-0.17979306
123	0xbe2c8c3c	-0.1685037
124	0xbdcf6e18	-0.101284206
125	0xbd7396f7	-0.059470143
126	0xbe51597e	-0.20444295
127	0xbdbbc56a	-0.09168513
128	0xbe04e506	-0.1297799
129	0xbe1d9879	-0.15390195
130	0xbe0a369d	-0.13497396
131	0xbdfbc096	-0.12292592
132	0xbdcd8b90	-0.10036385
133	0xbe36ab98	-0.17838895
134	0xbd9fc5e9	-0.0780142
135	0xbdcd1d46	-0.10015349
136	0xbdd38534	-0.10328141
137	0xbd93654d	-0.07197056
138	0xbdedb7af	-0.116073005
139	0xbe12e5e1	-0.14345504
140	0xbdc8241d	-0.09772513
141	0xbe35d664	-0.17757565
142	0xbd91fa86	-0.07127862
143	0xbdbbd01f	-0.09170555
144	0x3cae65c4	0.02128876
145	0xbdf3d36a	-0.119055584
146	0xbde61e31	-0.11236227
147	0xbe0cb576	-0.13741097
148	0x3c055e57	0.008140168
149	0xbe0990a1	-0.13434078
150	0xbd984815	-0.074356236
151	0x3cc6fecf	0.024291424
152	0xbd616ead	-0.05503719
153	0xbe285aed	-0.16440935
154	0xba336fbb	-0.0006844957
155	0xbde585bc	-0.112071484
156	0xbd272ebb	-0.04081605
157	0xbe243d64	-0.16039044
158	0xbd855c5a	-0.06511755
159	0xbdf07183	-0.11740401
160	0xbde144b4	-0.10999432
161	0xbd7dc5f1	-0.06195635
162	0xbd935b62	-0.07195164
163	0xbd81ebb3	-0.06343784
164	0xbd5c3178	-0.053758115
165	0xbe081797	-0.13290249
166	0xbe0136ee	-0.1261861
167	0xbdbcffc1	-0.09228469
168	0xbe372464	-0.17884976
169	0xbe324d3e	-0.17412278
170	0xbe179a4d	-0.14804955
171	0xbd974b9e	-0.0738747
172	0xbd841ed1	-0.0645119
173	0xbd911d11	-0.07085622
174	0xbdb9ed06	-0.09078412
175	0xbe643759	-0.22286738
176	0xbdb14943	-0.08656552
177	0xbe298e38	-0.16558158
178	0xbd467548	-0.048451692
179	0xbdf6565c	-0.120281905
180	0xbd60ce0a	-0.054883994
181	0xbca42513	-0.02003721
182	0xbd485c43	-0.048916113
183	0xbdf55194	-0.119784504
184	0xbdcf55a0	-0.101237535
185	0xbc187c21	-0.009306938
186	0xbe5c5af8	-0.21519077
187	0xbdec0d10	-0.11525929
188	0xbe30c5fb	-0.17263024
189	0xbda85906	-0.08220105
190	0xbe1c8fb0	-0.15289187
191	0xbe1d81d5	-0.15381558
192	0xbe15c4dc	-0.14625877
193	0xbdc19747	-0.09452682
194	0xbe38be4c	-0.18041342
195	0xbe103746	-0.14083585
196	0xbbfea993	-0.0077716797
197	0xbe955a36	-0.29170388
198	0xbde41836	-0.1113743
199	0xbdbcad27	-0.09212714
200	0xbe3472b3	-0.1762188
201	0xbdf1db65	-0.11809424
202	0xbdf69527	-0.12040167
203	0xbd63a45d	-0.05557667
204	0xbd8241c4	-0.063602
205	0xbd724a61	-0.059152965
206	0xbdbb567c	-0.09147355
207	0xbe03bd82	-0.1286526
208	0xbe0cf0b5	-0.13763697
209	0xbdb7bbc6	-0.08971362
210	0xbe46a5bf	-0.19399165
211	0xbce67b6a	-0.02813502
212	0xbd2e28f1	-0.042519514
213	0xbdd04bec	-0.10170731
214	0xbd4c1dbd	-0.049833048
215	0xbd33b5d1	-0.043874566
216	0xbe31a6be	-0.17348763
217	0xbe5887d5	-0.21145566
218	0xbdf8c210	-0.121463895
219	0xbd87b033	-0.06625404
220	0xbe357e18	-0.17723882
221	0xbd99613b	-0.07489248
222	0xbda0d5a3	-0.07853248
223	0xbde7bcc9	-0.11315305
224	0xbcdda67a	-0.027056921
225	0xbd6f4c0b	-0.05842213
226	0xbe18f4b9	-0.14937104
227	0xbe01de99	-0.1268257
228	0xbe4ce40e	-0.20008871
229	0xbe312fbd	-0.17303367
230	0xbe7d25d7	-0.24721466
231	0xbdbc5c29	-0.09197266
232	0xbe1ef457	-0.15522896
233	0xbe006cc6	-0.12541494
234	0xbe5600c1	-0.20898725
235	0xbe08df8f	-0.13366531
236	0xbdd1639f	-0.10224079
237	0xbd80042d	-0.062507965
238	0xbdad5db9	-0.08465142
239	0xbe075d98	-0.13219297
240	0xbd4747e6	-0.048652552
241	0xbe491f80	-0.19640923
242	0xbdd59e63	-0.104306005
243	0xbd9d1c13	-0.0767137
244	0xbe1845e1	-0.14870407
245	0xbdff13c0	-0.12454939
246	0xbd9773b4	-0.073951155
247	0xbdbaf7cb	-0.09129294
248	0xbdbfff7c	-0.09374902
249	0xbe0842e0	-0.13306761
250	0xbe3139b3	-0.17307167
251	0x3d26e79c	0.040748224
252	0xbd57e7ec	-0.052711412
253	0xbc10ed4e	-0.00884564
254	0xbe0abe4c	-0.13549155
255	0xbd1a8eed	-0.03773396

head.bias f4 [37]
0	0xbdbbe7ca	-0.0917507
1	0xbdf53c8c	-0.11974439
2	0x3e36c827	0.1784979
3	0xbde01a54	-0.10942522
4	0xbd9847dd	-0.07435582
5	0xbdc472bb	-0.095921956
6	0xbe5aa985	-0.21353729
7	0x3e3cec4d	0.18449517
8	0x3e1f09ca	0.15531078
9	0xbe3586cc	-0.17727202
10	0xbe0ba745	-0.13638027
11	0xbdf0f272	-0.11764993
12	0x3e097ff6	0.1342772
13	0xbe40614f	-0.1878712
14	0xbe45276e	-0.19253322
15	0xbf0bd6c6	-0.54624593
16	0x3e0897e8	0.13339198
17	0xbe459eae	-0.19298813
18	0xbdf22306	-0.118230864
19	0x3e4cb501	0.19990923
20	0xbe0595c2	-0.1304541
21	0xbe0c7cca	-0.13719478
22	0xbf063367	-0.52422184
23	0xbdfeaefa	-0.12435718
24	0x3c9754b9	0.018473016
25	0x3dd0b451	0.101906426
26	0xbddfbcf7	-0.10924714
27	0x3de77a36	0.11302607
28	0xbdc221e8	-0.09479123
29	0xbe1da924	-0.15396553
30	0x3de0835e	0.10962556
31	0xbda5a29c	-0.08087656
32	0xbe2eaa04	-0.17057043
33	0xbe0249fa	-0.12723532
34	0x3e0c7cb4	0.13719445
35	0xbda98ca9	-0.08278782
36	0xbdbf9195	-0.093539394
