federated-oracle/heads/HOUS_head.pt (torch, 37813 bytes, 2 tensors)

head.weight f4 [35, 256]
0	0xbe310e60	-0.1729064
1	0xbc91dfde	-0.017806944
2	0xbdaf5dd9	-0.08562822
3	0xbd8bcf6a	-0.068266705
4	0xbe15f782	-0.14645198
5	0xbe2d3bcc	-0.16917342
6	0xbd99e0ab	-0.07513555
7	0xbd8deb6f	-0.06929671
8	0xbe123bdb	-0.14280646
9	0xbe3a5481	-0.18196298
10	0xbbe73186	-0.007055464
11	0xbd8da060	-0.06915355
12	0xbe19e975	-0.15030463
13	0xbdcc1ef9	-0.09966845
14	0xbe2a67ab	-0.16641109
15	0xbd92a4e6	-0.07160358
16	0xbde8dad8	-0.11369866
17	0xbdd74025	-0.105102815
18	0xbde99ce9	-0.11406881
19	0xbca77799	-0.02044277
20	0xbdcc3de5	-0.09972743
21	0xbdc0e1a6	-0.09418039
22	0xbe171743	-0.14754967
23	0xbda5df1c	-0.08099195
24	0xbe0bc0a5	-0.13647707
25	0xbdb7f086	-0.08981423
26	0xbd6cb6fa	-0.057791688
27	0x3b775c4a	0.0037744218
28	0xbe13d392	-0.14436176
29	0xbda3689a	-0.079789355
30	0xbe27dd9c	-0.16393131
31	0xbda7c44e	-0.08191739
32	0x3b768b00	0.0037619472
33	0xbe085378	-0.13313091
34	0xbe0261e8	-0.12732661
35	0xbdfed096	-0.12442128
36	0x3d2d91f1	0.04237551
37	0xbe0aa7ca	-0.13540569
38	0xbdd6125a	-0.10452719
39	0xbd7cd80e	-0.061729483
40	0xbda571a1	-0.080783136
41	0xbe078055	-0.13232549
42	0xbd8a3e3c	-0.067501515
43	0xbdd74108	-0.105104506
44	0xbdfd3ab8	-0.12364715
45	0xbe14af6b	-0.14520042
46	0xbe1df5c2	-0.1542578
47	0x3d200800	0.03907013
48	0xbd9d8a7e	-0.07692431
49	0xbe2a5bc6	-0.16636571
50	0xbdea56e7	-0.114423566
51	0xbdb3817f	-0.08764934
52	0xbe2c79a3	-0.16843276
53	0xbe172d0d	-0.1476328
54	0xbe0036a4	-0.12520844
55	0xbe0c0b5e	-0.13676211
56	0xbdd5f1a2	-0.104464784
57	0xbe1643c5	-0.1467429
58	0xbd81c77f	-0.06336879
59	0xbcf0336d	-0.029321397
60	0xbd587be4	-0.052852526
61	0xbe19e0e3	-0.15027194
62	0xbe13355e	-0.14375827
63	0xbbc2fc68	-0.0059504993
64	0xbe149d0a	-0.1451303
65	0xbe01b6e7	-0.12667428
66	0xbbb4278b	-0.005497878
67	0x3c9ef833	0.01940546
68	0xbd9b8cd6	-0.07595222
69	0xbd7ab0e9	-0.06120387
70	0xbe09fe75	-0.13475974
71	0xbd0ef487	-0.03490117
72	0x3c6f7a57	0.01461657
73	0xbda7f843	-0.08201649
74	0xbdab07fc	-0.08351132
75	0xbe537208	-0.20648968
76	0xbda0038a	-0.07813175
77	0x3c6fc357	0.014633975
78	0xbda1a323	-0.07892444
79	0xbdaa888f	-0.08326828
80	0xbddb1127	-0.10696631
81	0xbe7b9c6a	-0.24571386
82	0xbdf3f2f9	-0.11911578
83	0xbe2fe60e	-0.17177603
84	0xbe0f161d	-0.1397328
85	0xbdda6cf9	-0.10665316
86	0xbdc8e9e9	-0.0981024
87	0x3c272e10	0.010203853
88	0xbe00fa0e	-0.12595388
89	0xbe290188	-0.1650449
90	0xbc9dd5ab	-0.019266924
91	0xbe105973	-0.14096622
92	0xbe2ec557	-0.17067467
93	0xbd314386	-0.043277286
94	0x3cd6ffc7	0.026245011
95	0xbd44c21c	-0.04803668
96	0xbe72a479	-0.23695554
97	0xbc556a81	-0.013025881
98	0xbdde7652	-0.108624116
99	0xbe62e1bb	-0.22156422
100	0xbc53fa15	-0.012938042
101	0xbe2af48a	-0.16694847
102	0xbdd86037	-0.105652265
103	0xbdd8d7f0	-0.10588062
104	0xbda1066b	-0.07862552
105	0xbe39d610	-0.18148065
106	0xbe0808b9	-0.13284577
107	0xbe10640d	-0.14100666
108	0xbe1af16f	-0.15131162
109	0xbe208ae7	-0.15677987
110	0xbd153ee8	-0.036436945
111	0xbe0f4c8d	-0.13994046
112	0xbe0c35f8	-0.13692462
113	0xbe48eee4	-0.1962238
114	0xbe48fe76	-0.19628319
115	0xbe02e4d2	-0.127826
116	0xbdd4d25a	-0.10391684
117	0x3cb8deb4	0.02256713
118	0xbd2e5fd0	-0.042571843
119	0xbd3a7e6f	-0.045530733
120	0x3cc649e9	0.024205165
121	0xbd585f42	-0.05282522
122	0xbe3a82e5	-0.18213995
123	0xbde5ce6b	-0.11221012
124	0xbe08fef7	-0.13378511
125	0xbda78c92	-0.081811085
126	0xbe00fb0c	-0.12595767
127	0xbd46005f	-0.048340198
128	0xbdcde385	-0.100531615
129	0xbdfadb0a	-0.1224881
130	0xbd9c388c	-0.07627973
131	0xbc6403d5	-0.013916929
132	0xbe37e2b7	-0.17957579
133	0xbe32bb82	-0.17454341
134	0xbda77dde	-0.08178304
135	0xbd4b2e1d	-0.049604524
136	0xbdd1e81d	-0.1024935
137	0xbe14ac1e	-0.14518782
138	0xbe268498	-0.16261518
139	0xbe22e986	-0.15909395
140	0xbdb2fbd1	-0.087394364
141	0xbe194d2e	-0.14970848
142	0xbd038a5d	-0.032114375
143	0xbdb1e091	-0.08685411
144	0xbc934314	-0.017976321
145	0xbe0cf006	-0.13763437
146	0xbd4285b2	-0.047490783
147	0xbe1a76ce	-0.15084383
148	0x3d1a79c3	0.037713777
149	0xbe0543dc	-0.13014168
150	0xbe171c1d	-0.14756818
151	0xbcf46927	-0.029835297
152	0xbde22243	-0.11041691
153	0xbe5b3d9c	-0.21410221
154	0xbdf88a17	-0.121357135
155	0xbe49b6a5	-0.1969858
156	0xbd80e2c2	-0.062932506
157	0xbd88fc34	-0.06688729
158	0xbe3ac0be	-0.18237588
159	0xbda8078c	-0.082045645
160	0xbd978c84	-0.07399848
161	0xbdaf5017	-0.08560198
162	0x3c34f30d	0.011044276
163	0xbe2e1012	-0.16998318
164	0xbdd934d2	-0.10605778
165	0xbdeb2cda	-0.11483164
166	0xbde9a58c	-0.11408529
167	0xbdbf2e4c	-0.09335002
168	0xbdb484f0	-0.08814418
169	0xbdac27af	-0.084060065
170	0xbe457418	-0.19282568
171	0xbd84fe21	-0.06493784
172	0xbde04174	-0.10949984
173	0xbe3230c6	-0.17401418
174	0xbe2f532d	-0.17121573
175	0xbe3903f0	-0.18067908
176	0xbdce2340	-0.10065317
177	0xbdfffd48	-0.124994814
178	0xbd97cf72	-0.07412614
179	0xbd4d31a8	-0.050096184
180	0xbdce3521	-0.10068727
181	0xbd0c1d62	-0.03420771
182	0xbd8db67b	-0.06919571
183	0xbd9e5fd2	-0.0773312
184	0xbe50c218	-0.20386541
185	0xbcc99b97	-0.024610324
186	0xbd962c7c	-0.073327035
187	0xbe582f49	-0.21111788
188	0xbe315f30	-0.17321467
189	0xbdac7154	-0.08420053
190	0xbe525794	-0.20541221
191	0xbd2fe030	-0.04293841
192	0xbdbd6c68	-0.092491925
193	0xbdbe6638	-0.092968404
194	0xbe2e7cde	-0.1703982
195	0xbdd7ce82	-0.10537435
196	0x3b1fdcd6	0.0024393103
197	0xbd151d17	-0.036404695
198	0xbe299522	-0.16560796
199	0xbe07170b	-0.13192384
200	0xbdb6a39d	-0.089179255
201	0xbe11c706	-0.14236078
202	0xbe46a366	-0.19398269
203	0xbdd5f3e3	-0.10446908
204	0xbd07547d	-0.03303956
205	0xbdcbb527	-0.099466614
206	0xbdd52fcd	-0.10409508
207	0xbc833391	-0.0160158
208	0xbd9153d9	-0.07096071
209	0xbdd9432b	-0.106085144
210	0xbdedaa6f	-0.11604773
211	0xbc952172	-0.018204425
212	0xbe348792	-0.17629841
213	0xbde9f2d8	-0.11423272
214	0xbc2af5f6	-0.010434618
215	0xbd80c96c	-0.06288418
216	0xbe086bdb	-0.13322394
217	0xbdbd7265	-0.09250335
218	0xbd905d27	-0.070490174
219	0xbd826095	-0.06366078
220	0xbe092bee	-0.13395664
221	0xbe196ea1	-0.14983608
222	0x3d6084a5	0.054814
223	0xbdad838c	-0.08472356
224	0xbe27ac0c	-0.16374224
225	0xbdce3a4d	-0.10069714
226	0xbdc3ae66	-0.09554748
227	0xbd9238a9	-0.07139713
228	0xbe90ddad	-0.28294125
229	0xbd3a9f58	-0.04556212
230	0xbe4c472f	-0.1994903
231	0xbe1c194e	-0.15244028
232	0xbdcb50ea	-0.099275425
233	0xbe0cfc5d	-0.13768144
234	0xbe42e7f7	-0.190338
235	0xbdfffdea	-0.12499602
236	0xbe245880	-0.16049385
237	0xbe05c760	-0.13064337
238	0xbdc525ad	-0.09626327
239	0xbd88bcd3	-0.0667664
240	0xbc3e4089	-0.011612066
241	0xbe2a3130	-0.16620326
242	0xbe0edcc4	-0.13951403
243	0xbe0338a5	-0.12814577
244	0xbdb9c246	-0.09070258
245	0xbe10e7d8	-0.14150941
246	0xbd8efc82	-0.06981756
247	0xbd691783	-0.05690719
248	0xbe2b9c85	-0.16758926
249	0xbd4548ac	-0.04816501
250	0xbe4694b2	-0.1939266
251	0x3b58018e	0.003295991
252	0x3c311998	0.010809325
253	0x3cbd8181	0.023133041
254	0xbd88bc00	-0.06676483
255	0xbdab3acb	-0.08360823

head.bias f4 [35]
0	0xbe4f0620	-0.2021718
1	0x3dd2e6d7	0.102979355
2	0xbda14724	-0.07874897
3	0xbf0d3e75	-0.55173427
4	0x3e35b91d	0.17746396
5	0xbc41ad64	-0.011821125
6	0xbe254de8	-0.16143
7	0x3d618134	0.05505486
8	0xbe1e758a	-0.15474525
9	0x3d9da476	0.07697384
10	0x3ed5bd41	0.41745952
11	0xbeabaee6	-0.33531874
12	0xbea189df	-0.315505
13	0x3eb7991a	0.35858995
14	0xbec02f57	-0.37536117
15	0xbec2361b	-0.37931904
16	0xbdf69820	-0.12040734
17	0xbe388734	-0.18020326
18	0x3db33aae	0.08751427
19	0xbf1e187c	-0.6175611
20	0x3ee8026a	0.45314342
21	0xbecec9d4	-0.40388358
22	0xbed78c28	-0.42099118
23	0xbde7f76d	-0.113264896
24	0x3e1e51c8	0.15460885
25	0xbe14c0bc	-0.14526647
26	0xbf0539b8	-0.52041197
27	0xbdfcd93c	-0.12346122
28	0xbe0dbafb	-0.13840859
29	0x3e10a218	0.14124334
30	0xbf0d941c	-0.5530412
31	0xba28296e	-0.0006414865
32	0x3dab6551	0.08368934
33	0xbdffc74c	-0.12489185
34	0xbf14103f	-0.5783729
