federated-oracle/heads/IPLS_head.pt (torch, 31605 bytes, 2 tensors)

head.weight f4 [29, 256]
0	0xbd57ca19	-0.05268297
1	0xbd936b47	-0.07198196
2	0xbd347bf7	-0.044063535
3	0xbc83445e	-0.016023811
4	0xbda29dcc	-0.079402536
5	0x3c904d16	0.017614882
6	0x3cf649f6	0.030064564
7	0xbdc195d8	-0.094524086
8	0xbd6beb9f	-0.057597753
9	0xbcc5f383	-0.024163967
10	0xbd8e3a60	-0.06944728
11	0xbd57f584	-0.052724376
12	0xbbd2cc2e	-0.0064330315
13	0xbd1b219a	-0.03787384
14	0xbd4c8f65	-0.04994144
15	0xbd036840	-0.032081842
16	0x3d207b3a	0.039180018
17	0xbdb35cde	-0.087579474
18	0xbd94b7a0	-0.07261586
19	0xbbd9e0d4	-0.006649116
20	0xbdaafb8d	-0.08348761
21	0x3cab9582	0.020945314
22	0x3ce9e571	0.028551789
23	0xbccabaeb	-0.024747333
24	0xbda364f6	-0.07978241
25	0x3a5766c7	0.0008216914
26	0xbd66d048	-0.056350976
27	0xbcf7eb3c	-0.030263536
28	0xbcc08104	-0.02349902
29	0xbcc677e8	-0.024227098
30	0xbd0dd5d0	-0.034627736
31	0x3cc9c0ab	0.024628004
32	0x3c3015ad	0.010747355
33	0xbd9008cf	-0.0703293
34	0x3c9e6d66	0.019339275
35	0x3b8cbc21	0.0042948877
36	0xbd2a5071	-0.04158062
37	0x3d29d76f	0.04146522
38	0xbd4d997e	-0.05019521
39	0xbd54a229	-0.05191246
40	0xbcaa5e3c	-0.020796888
41	0xbd0d8ed0	-0.034560025
42	0xbd701a0c	-0.05861859
43	0xbd490b14	-0.04908283
44	0xbd4da591	-0.050206725
45	0xbc555154	-0.013019878
46	0x3c4c402d	0.012466473
47	0x3cdf7c1a	0.027280856
48	0xbd9b72a7	-0.075902276
49	0x3b281c50	0.0025651641
50	0xbd2ff110	-0.042954504
51	0xbd54a882	-0.051918514
52	0xbdbfeede	-0.09371732
53	0x3cfeb053	0.031089937
54	0xbd0be3d8	-0.034152836
55	0xbd392e39	-0.045210097
56	0xbd8741fc	-0.066043824
57	0xbdb68261	-0.089115866
58	0xbd62519e	-0.055253617
59	0xbc0dbc31	-0.008650825
60	0x3d86b165	0.06576804
61	0xbcfe6a13	-0.03105644
62	0xbd356b4e	-0.044291787
63	0x3d194078	0.037414998
64	0xbd721276	-0.059099637
65	0xbc1d7774	-0.009610999
66	0xbc41f775	-0.0118387835
67	0xbd8a5f94	-0.06756511
68	0xbc6e66e9	-0.014550903
69	0xbd8fa2e7	-0.07013493
70	0xbc474832	-0.012163209
71	0x3d208dcb	0.039197724
72	0x3d24fb3e	0.040278666
73	0xbcfe3b1c	-0.031034045
74	0x3d12577f	0.035727974
75	0xbd841adb	-0.06450435
76	0xbd8e0ec9	-0.06936414
77	0xbd48f987	-0.049066093
78	0xbc07f91a	-0.0082991365
79	0xbd4f8ea2	-0.050673135
80	0xbd7e574b	-0.062094968
81	0xbc9d80fe	-0.019226547
82	0x3c0f82ff	0.008759259
83	0xbd05474c	-0.032538697
84	0xbd630a2a	-0.055429615
85	0x3cd52e7a	0.026023138
86	0xbc094e3e	-0.008380471
87	0xbd00791c	-0.0313655
88	0xbd1636d3	-0.03667338
89	0xbb810d82	-0.003938378
90	0xbb97b335	-0.0046295174
91	0xbc3eb3d6	-0.011639556
92	0xbd2bb554	-0.041920975
93	0x39cd228c	0.00039126386
94	0xb9fb1f8d	-0.00047897958
95	0xb83e9e0c	-4.5446723e-05
96	0xbc587acc	-0.013212871
97	0x3c96d133	0.0184103
98	0x3cb3111a	0.02185874
99	0x3b6e189b	0.0036330584
100	0x3c2d3eac	0.010574024
101	0xbdded58f	-0.10880577
102	0xbdbb4d47	-0.09145599
103	0x3cf70247	0.030152453
104	0xbd24c800	-0.040229797
105	0x3cd2ef4f	0.025748877
106	0xbd647630	-0.055776775
107	0xbd23acac	-0.039959595
108	0xbda64186	-0.08117966
109	0xbc84389f	-0.01614028
110	0xbc7aa524	-0.015298162
111	0xbc6d1b92	-0.014471905
112	0xbcfe8e69	-0.031073766
113	0xbdb4e491	-0.08832658
114	0x3b802bc6	0.003911468
115	0xbcc4b680	-0.024012804
116	0x3b3e2403	0.0029013164
117	0x3d385a4e	0.045007996
118	0x3ce0d618	0.027445838
119	0xbd15cca3	-0.03657211
120	0xbd0155e2	-0.031576045
121	0xbd62ee1f	-0.05540287
122	0xbd3d614c	-0.046235368
123	0xbdd8f729	-0.10594017
124	0xbd75f79e	-0.0600506
125	0xbce51b82	-0.027967218
126	0xbd0dcef9	-0.034621213
127	0xbcf50346	-0.029908787
128	0x3d1eb66e	0.038748197
129	0x3ab4f99b	0.0013807298
130	0xbd928b91	-0.071555264
131	0x3c2fedf0	0.010737881
132	0xbcde6bfa	-0.027151097
133	0xbdc8b423	-0.09799983
134	0xbcf042de	-0.02932876
135	0x3c905bfa	0.017621983
136	0xbc5894c6	-0.013219064
137	0xbd629057	-0.055313434
138	0x3abdf122	0.0014491419
139	0xbcc88e1d	-0.024481827
140	0xbd1e9d9b	-0.038724523
141	0xbcf344cc	-0.02969589
142	0xbd7bf7f4	-0.061515763
143	0xbb7d3787	-0.0038637833
144	0xbc2c66c5	-0.010522549
145	0x3a89d9c6	0.0010517172
146	0xbc505d96	-0.012717625
147	0x3b00c7c5	0.0019650322
148	0xbc8455d9	-0.016154217
149	0x3afef8a2	0.001945276
150	0xbde0487b	-0.109513246
151	0xbc3967ce	-0.011316253
152	0xbd5e1e03	-0.05422784
153	0x3bb10e77	0.0054033357
154	0xbc7748a0	-0.015092999
155	0xbde31385	-0.110877074
156	0xbd939cdc	-0.07207653
157	0xbd6649ef	-0.056222852
158	0xbd9d86cd	-0.07691727
159	0xbd7e9da9	-0.062162075
160	0xbd4d4145	-0.050111074
161	0xbd5c0963	-0.05371989
162	0x3cfb7d77	0.030699475
163	0xbcaf0e96	-0.02136926
164	0xbd861487	-0.06546884
165	0xbd1bd086	-0.03804066
166	0xbdb8b26d	-0.09018407
167	0x39ff1b60	0.00048657786
168	0xbd9b2094	-0.07574573
169	0x3c03c1c4	0.008041803
170	0xbc9389d5	-0.01801006
171	0xbc31a4f6	-0.010842552
172	0xbd611b6b	-0.05495779
173	0xbd2f6673	-0.042822313
174	0xbd832c78	-0.06404966
175	0xbd472076	-0.04861494
176	0xbcdd668e	-0.027026441
177	0xbcb55f3f	-0.022140143
178	0xbdced64b	-0.10099467
179	0x3cb95374	0.022622801
180	0xbdaa0b6e	-0.08302961
181	0xbd7623a0	-0.06009257
182	0xbc126c27	-0.008936918
183	0xbd430181	-0.047608856
184	0xbce66e3b	-0.028128734
185	0xbcf8804a	-0.03033461
186	0xbda76508	-0.08173567
187	0xbda95fae	-0.082702026
188	0x3c6eeaeb	0.014582376
189	0x3c409fc6	0.011756843
190	0xbd9797cb	-0.07401999
191	0xbc85b3ae	-0.01632103
192	0xbd5db4f5	-0.054127652
193	0xbc9b1fa4	-0.018935986
194	0xbd8e9aed	-0.069631435
195	0xbdc33433	-0.095314406
196	0xbd547eba	-0.05187867
197	0xbdb70495	-0.08936421
198	0xbb909f4c	-0.004413521
199	0x3cedadbf	0.029013513
200	0xbc5a8dee	-0.013339503
201	0x3bc4d6cf	0.0060070525
202	0x3c3e5496	0.011616847
203	0xbc8508b4	-0.016239502
204	0xbd14b002	-0.036300667
205	0x3c3d1953	0.011541682
206	0xbdbb1937	-0.09135669
207	0x3cdc19cd	0.026867772
208	0x3c80cbd8	0.0157222
209	0xbd5ac677	-0.053411927
210	0xbd7ae62e	-0.061254673
211	0x3d56286d	0.052284647
212	0xbd8ff90d	-0.070299245
213	0xbd61cc2e	-0.05512636
214	0xbd6c977a	-0.057761647
215	0xbd0c1752	-0.034201927
216	0xbdab36db	-0.08360072
217	0xbc87d502	-0.016581062
218	0xbd6a99fa	-0.05727575
219	0x3c64ef18	0.01397302
220	0xbd9cb760	-0.076521635
221	0xbdb5d43e	-0.088783726
222	0x3d32b494	0.043629244
223	0xbc635b0e	-0.01387669
224	0xbaee06c8	-0.001815998
225	0xbddb4836	-0.107071325
226	0xbd9086d9	-0.0705697
227	0xbcc78954	-0.024357475
228	0xbd983e55	-0.07433764
229	0xbc638872	-0.013887512
230	0xbd9d097c	-0.076678246
231	0xbd2c492a	-0.042061962
232	0xbd8e17bb	-0.0693812
233	0xbd491cd9	-0.049099777
234	0xbd0f3a85	-0.034967918
235	0xbd73cf1b	-0.059523683
236	0xbd80e76a	-0.06294139
237	0x3bda8877	0.0066691
238	0xbd3f5e21	-0.046720628
239	0x3cf27d60	0.0296008
240	0x3c9daa64	0.019246288
241	0x3c67f402	0.014157297
242	0xbd66fd20	-0.056393743
243	0x3ab4123a	0.0013738342
244	0x3b05f2dc	0.0020438945
245	0xbc70feb4	-0.014709163
246	0xbd4759dd	-0.048669685
247	0xbd202b67	-0.03910389
248	0xbcff1272	-0.031136725
249	0xbd576c0a	-0.05259327
250	0xbd37fcb8	-0.044918746
251	0xbceb20e1	-0.028702201
252	0xbd6a75ad	-0.05724113
253	0x3d5471a2	0.05186618
254	0xbd02b946	-0.03191497
255	0xbd3bf9e5	-0.045892615

head.bias f4 [29]
0	0xbe03ba98	-0.12864149
1	0x3e2b1bda	0.16709843
2	0xbe2783ac	-0.16358823
3	0xbf1e8598	-0.619226
4	0xbda90196	-0.082522556
5	0xbdab7f74	-0.08373919
6	0x3e1c340c	0.1525423
7	0xbdc02c2c	-0.09383425
8	0x3df42d2e	0.1192268
9	0xbda1e594	-0.07905117
10	0x3efae2e4	0.4900123
11	0xbeb2c875	-0.34918562
12	0xbee322a0	-0.44362354
13	0x3ca2f0f4	0.019890286
14	0x3ec73566	0.38907927
15	0xbec0a933	-0.3762909
16	0xbed6ac76	-0.41928452
17	0xbd936877	-0.071976595
18	0xbe430e0e	-0.1904833
19	0x3cda27c0	0.026630282
20	0xbe34e79d	-0.17666478
21	0xbe232317	-0.15931354
22	0x3e356c3e	0.17717072
23	0xbdfb2cc2	-0.12264396
24	0xbd8d569f	-0.06901287
25	0x3e0b2654	0.1358884
26	0xbe1d4d7f	-0.15361594
27	0xbdd6f3a7	-0.10495692
28	0x3e17a66f	0.14809583
