federated-oracle/heads/LOSA_head.pt (torch, 37813 bytes, 2 tensors)

head.weight f4 [35, 256]
000000 23 67 41 3e be 44 0b 3e c7 7f dd 3e 5e 69 a3 3e
       0.18887 0.13600442 0.4326155 0.31916326
000010 66 a5 ab 3e 08 92 06 3e 4b 41 fb 3c f8 7f 9f 3e
       0.33524626 0.13141644 0.030670783 0.3115232
000020 09 50 5c 3e bb a3 8b 3e da 66 68 3e 5f 98 a8 3e
       0.21514906 0.27273354 0.22695485 0.3292875
000030 5d 85 82 3e 84 75 93 3e 5e 99 f4 3e dd e2 c2 3c
       0.25492373 0.28800595 0.4777326 0.023789817
000040 7b be 01 3e 5d 11 b8 3e 51 5d 9f 3e 65 25 1f bd
       0.12670319 0.35950747 0.31125882 -0.03885402
000050 44 22 47 3e 3b e9 06 3e 43 4c 9d 3e c1 59 b2 3e
       0.19446665 0.13174908 0.30722246 0.34834102
000060 32 b7 3d 3e 25 c0 d3 3e 97 9f 9b 3e 41 c2 ed bc
       0.18526915 0.41357532 0.30395195 -0.029023292
000070 1b 82 6a 3e fa af 86 3e 7e e7 84 3e 53 e0 6f 3e
       0.22901194 0.26306134 0.25957865 0.23425417
000080 c9 24 36 bc 1f ac c7 3d 01 bf cd 3d 21 d1 55 3e
       -0.011117169 0.09749626 0.10046197 0.20880558
000090 a4 08 f8 3b be 66 d1 3d 93 0d 63 3e 71 d2 5c 3d
       0.0075693894 0.10224675 0.22173147 0.05391163
0000a0 da 87 4f 3e ae a3 a7 3e 2d 59 75 3d 1a e2 52 3e
       0.20266667 0.32742065 0.059899498 0.20594063
0000b0 8b 26 bf 3e 9c bd df 3e a5 f5 87 3e 9d eb 47 3d
       0.37334093 0.43699348 0.265546 0.048808683
0000c0 51 2f 8f 3e 83 5a 5d 3e 93 a4 63 3e b5 c9 de 3e
       0.27965787 0.21616559 0.22230749 0.43513265
0000d0 59 c9 91 3e 4b 6d 54 3e 3a 89 c3 3e 96 1d 26 3e
       0.2847393 0.20744817 0.38190633 0.16222224
0000e0 c3 18 94 3e 29 8e d8 3e 59 f4 8e 3c 5f 89 7c 3d
       0.28925142 0.4229596 0.017450498 0.061654445
0000f0 59 56 15 3e 39 75 bd 3e 9a 47 be 3e 05 fe a4 bc
       0.1458372 0.37003496 0.37164003 -0.020140657
000100 71 81 cf 3e 81 1b b0 3d f2 76 93 bb 79 0a ea 3d
       0.40528443 0.08598996 -0.0045002634 0.11427779
000110 1d 2a 99 3e 13 a2 d6 3d 6a a1 87 3e 2d bd a0 3d
       0.29914942 0.10480132 0.26490337 0.078485824
000120 74 3e 8d 3e d7 87 c1 3e 4e 84 21 3e 71 23 cf 3e
       0.2758671 0.3779895 0.15773126 0.40456727
000130 f0 fe af 3e c7 e6 f0 3d 6c df ae 3e 66 7d 94 3e
       0.3437419 0.11762767 0.34154832 0.2900192
000140 b1 b0 15 3e b4 e1 24 3d fe 30 86 3e c5 64 8d 3e
       0.14618184 0.04025431 0.26209253 0.27615944
000150 a1 78 2e 3e b8 e5 7d 3b 52 71 a8 3e 40 5d de 3d
       0.17038204 0.003874166 0.32898957 0.1085763
000160 15 47 92 3e 75 99 bb 3e e6 81 64 3d 63 96 2f 3e
       0.28569856 0.36640516 0.055787943 0.17147212
000170 1d ef 88 3e 8d 51 37 bc 09 8d ac 3d 1c a1 ab 3e
       0.2674493 -0.011188877 0.08425338 0.33521354
000180 43 6c 82 3e d9 5b 0c 3e 52 77 bc 3e ae 39 07 3f
       0.25473222 0.13706912 0.36809784 0.5282239
000190 32 fa 11 3e 28 2a d9 3e ca 83 b4 3e c4 ef 7f 3c
       0.14255598 0.42414975 0.35256797 0.015621129
0001a0 8e 5f 14 3e 68 e8 9f 3e 46 fa d9 3e 73 62 c3 3e
       0.14489576 0.31232 0.42573756 0.38161048
0001b0 5b 9b 8a 3e 08 d1 cc 3e de 50 ec bc d7 15 a1 3e
       0.27071652 0.40003228 -0.028847154 0.31461975
0001c0 c9 f7 75 3e 79 94 94 3e a9 02 be 3e bc bd b6 3e
       0.24020304 0.29019526 0.37111405 0.3569163
0001d0 ad 7f 49 3e 1c 6b 9b bc ad 74 2b 3e 99 37 ce 3d
       0.1967761 -0.018971972 0.16743727 0.10069198
0001e0 90 bd a2 3b bf 6d a2 3e 05 a8 a3 3e b2 1e b0 3e
       0.0049664453 0.31724355 0.31964126 0.3439842
0001f0 c5 11 2a 3e fb 42 df 3e c2 8a ea 3e e3 c3 86 3e
       0.16608341 0.4360579 0.4580899 0.26321325
000200 32 be ab 3e f6 c5 a8 3e cf d7 ab 3e 85 8a 46 3e
       0.33543545 0.32963532 0.33563086 0.19388779
000210 54 83 27 3e 7d f1 bd 3e 4b 10 c6 3d 0d 84 19 3e
       0.16358691 0.37098303 0.096710764 0.1499178
000220 a3 38 bf 3e ca 0c b7 3e 0e 52 91 3e a9 11 80 3e
       0.37347898 0.35751945 0.28382915 0.25013474
000230 11 d6 98 3e e1 40 85 3e 2f 82 d2 3c 6d de 5b 3e
       0.2985082 0.2602606 0.025696842 0.21471567
000240 9f ca 19 3d 8e 83 93 3e 8a 90 2f 3e c9 bf ae 3e
       0.03754675 0.28811306 0.17144981 0.34130695
000250 52 3c 7a bc 28 06 ab 3e 75 c6 8f 3e 5c 15 a3 3d
       -0.015273171 0.33403134 0.28081098 0.07963058
000260 ca 0c e1 3e bd 8e b3 3e e4 cc 5b 3e 79 58 b3 3e
       0.4395507 0.35069838 0.21464878 0.35028437
000270 fd 2f 27 3d 13 15 b6 3e 33 1a 74 3e e6 5e c0 3e
       0.04081725 0.35562953 0.23838119 0.37572402
000280 d5 45 27 3e e5 1f 95 3e 65 4a ee 3d bc d0 9e 3e
       0.16335233 0.29125896 0.116352834 0.31018627
000290 c0 35 98 3e 22 17 d0 3e 9f bd c9 3e 71 43 64 3e
       0.29728508 0.4064265 0.39402482 0.22291352
0002a0 72 54 61 3e 93 e8 ce 3e 2b 8d 93 3e 7a 5f e2 3e
       0.2200487 0.40411815 0.2881864 0.44213468
0002b0 d5 de 6c 3e 8d 4b 9d 3e 43 33 ba 3e 7d fd 15 3f
       0.23131879 0.30721703 0.36367235 0.5858992
0002c0 7a 03 6d 3d e0 ff b6 3e 09 8f a6 3e ef e6 5b 3e
       0.057864644 0.35742092 0.32531002 0.21474813
0002d0 da 08 7e 3e 9e e5 bc 3d dc 8e 11 3e 49 59 27 3e
       0.24808064 0.092234835 0.14214653 0.16342653
0002e0 32 e9 a9 3e 8b 2e 6b 3d dc 9f ab 3e 22 01 b1 3e
       0.33185726 0.057417434 0.335204 0.34571177
0002f0 f9 56 a1 3e 73 88 8b 3e db a6 9d 3e 8d 9d 1e 3e
       0.31511667 0.2725254 0.30791363 0.15489788
000300 a8 0f d0 3e b2 01 9a 3e 7d 05 c1 3e 04 53 d2 3e
       0.40636945 0.30079418 0.376995 0.4107896
000310 ca 01 09 3d 57 49 8d 3e 79 ab 6b 3e 9f 01 c6 3e
       0.03344897 0.27595016 0.2301463 0.38673112
000320 1d b3 a4 3e 90 2b cb 3e 77 1e f6 3e b5 3d 64 3d
       0.32167903 0.39681673 0.48070118 0.05572291
000330 67 5f 16 bd 4e ce ce 3e 83 c0 9a 3e 59 60 44 3a
       -0.036712077 0.40391773 0.30225 0.00074911636
000340 8b 4c de 3d 12 11 97 3e 48 8a a2 3e 6f 60 30 3e
       0.10854443 0.2950521 0.31746125 0.17224286
000350 76 7e 83 3e b9 d6 b9 3e ac 5c 6e 3d 03 85 00 3e
       0.2568242 0.36296633 0.058193848 0.1255074
000360 4d f3 70 3e 48 0e 98 3e cc 28 bf 3e 21 8f b8 3e
       0.23530312 0.29698396 0.37335813 0.360467
000370 08 0f bd 3e 8c 76 9f 3e eb 18 b4 3d 4c 14 ff 3d
       0.3692553 0.31145132 0.08793815 0.12455043
000380 b5 37 fe 3d 5c a6 f0 3e 39 00 f6 3e 6a 45 70 3e
       0.12412969 0.47001922 0.48047045 0.2346398
000390 09 21 f8 3e 78 82 40 3e be 26 ef 3e 05 98 f6 3e
       0.48462704 0.1879977 0.46709245 0.48162857
0003a0 18 50 7f 3e 31 e7 84 3e 3e 3c 81 3e 09 fe c8 3e
       0.24932897 0.25957635 0.25241274 0.39256313
0003b0 67 1a b0 3e d6 44 5f 3e b0 97 f0 3e 55 6f a4 3d
       0.34395143 0.21803603 0.46990728 0.080290474
0003c0 3a 53 86 39 06 61 a7 3e 97 61 c0 3e 11 78 9c 3e
       0.0002562048 0.3269121 0.37574455 0.30560353
0003d0 43 cb a0 3e 4e 9a 3e 3e 21 22 a6 3e 69 bb 87 3e
       0.31405076 0.1861355 0.32447913 0.2651017
0003e0 fc 8b 99 3e 84 63 c8 3d 4e d9 92 3e 6c 98 74 3e
       0.29989612 0.09784606 0.28681415 0.2388627
0003f0 d1 05 da bb 4f 0a a3 3d a3 dd 8c 3e d2 04 20 3e
       -0.0066535254 0.079609506 0.27512845 0.15626839

head.bias f4 [35]
000000 a4 b5 eb 3e e1 80 d8 be 1e 35 ea be 58 63 c1 be
       0.46037018 -0.42285827 -0.4574365 -0.37771106
000010 fd 89 08 3f a7 fb bd be bc 1a d9 be b3 ff a5 bd
       0.53335553 -0.37106058 -0.4240321 -0.081054114
000020 27 44 19 3e fc 42 4c be fc 51 89 bc f4 a2 a3 3d
       0.14967404 -0.19947428 -0.016762726 0.07990065
000030 cd 34 18 be 4e 4d 67 bd c2 04 36 3d ae f6 04 be
       -0.14863892 -0.056470208 0.04443813 -0.12984726
000040 f2 be f0 bd 75 9f 62 bb 4e 2d 08 be 8a 05 2c 3e
       -0.1175517 -0.0034579907 -0.13298532 0.16798988
000050 38 dd bd bd 1a e7 55 be 12 b3 22 3e c8 e4 6e be
       -0.0927071 -0.2088894 0.15888622 -0.2332946
000060 fc b8 72 be 1e 4a a0 bd 0f be 1a 3e ec d0 22 be
       -0.23703378 -0.07826637 0.15111564 -0.1590001
000070 65 ac eb 3d 75 a7 14 be c9 21 63 be 50 95 3d bc
       0.11507491 -0.14517005 -0.22180857 -0.011571243
000080 c0 b2 4d be c3 04 2e 3d 1e 81 ec 3c
       -0.20087719 0.04248501 0.028870162
