federated-oracle/heads/SNVA_head.pt (torch, 36789 bytes, 2 tensors)

head.weight f4 [34, 256]
0	0x3e8535f0	0.26017714
1	0x3ddae976	0.106890604
2	0x3e45a10d	0.19299717
3	0x3e95830a	0.29201537
4	0x3e4a6c2a	0.19767824
5	0x3e9a1992	0.30097634
6	0x3db222d7	0.086980514
7	0x3e965f37	0.29369518
8	0x3e8ad01d	0.27111903
9	0x3e7884e2	0.24269441
10	0x3dedcadb	0.11610957
11	0x3ea8d92a	0.32978183
12	0x3e58e2af	0.21180223
13	0x3ec9d3bb	0.3941935
14	0x3e8d6427	0.27615473
15	0xbbef358a	-0.0073000835
16	0x3e823639	0.25431994
17	0x3e8c3fae	0.27392334
18	0x3e63978c	0.2222578
19	0x3dba88c0	0.09108114
20	0x3d98b708	0.074567854
21	0x3e1b685d	0.1517653
22	0x3e6a6795	0.22891076
23	0x3e89e7c4	0.26934636
24	0x3e6f0b75	0.23344214
25	0x3e8e7673	0.27824745
26	0x3e31a253	0.17347078
27	0xbcfe6069	-0.031051831
28	0x3ed72136	0.42017525
29	0x3e05dde0	0.1307292
30	0x3e8f9dbb	0.28050026
31	0x3e76a028	0.24084532
32	0x3d355aff	0.044276234
33	0x3e9c662b	0.30546698
34	0x3ceaf769	0.028682427
35	0x3e869979	0.26288965
36	0x3d523783	0.05132247
37	0x3e1e4e2f	0.15459512
38	0x3e5868f0	0.2113378
39	0x3e5d8ae1	0.2163501
40	0x3e2204d6	0.15822157
41	0x3e5cceab	0.21563213
42	0x3d6eda23	0.0583135
43	0x3ea7404b	0.3266624
44	0x3e529e95	0.20568307
45	0x3ed220b0	0.41040564
46	0x3e925a66	0.28584594
47	0x3d07a1fe	0.033113472
48	0x3e679073	0.22613697
49	0x3e9d73ca	0.30752403
50	0x3e17d83b	0.14828579
51	0x3e919ae2	0.2843848
52	0x3ea77993	0.3270994
53	0x3e2c73e5	0.16841085
54	0x3e7e940f	0.24861167
55	0x3ec55b53	0.38546237
56	0x3e840358	0.257838
57	0x3ec5c742	0.38628584
58	0x3dc6d5b5	0.0970873
59	0x3d3aeb38	0.04563448
60	0x3b330d9f	0.0027321351
61	0x3e3d0424	0.18458611
62	0x3ea30e96	0.31847066
63	0x3c9dd5c7	0.019266976
64	0x3e50d520	0.203938
65	0x3e905990	0.2819333
66	0x3cc9331e	0.024560507
67	0x3cf2f242	0.029656533
68	0x3e834d1f	0.25644776
69	0x3d160d1c	0.036633596
70	0x3e7699e5	0.24082144
71	0x3cc606cf	0.024173168
72	0x3c8db016	0.017295878
73	0x3ebc5317	0.36782143
74	0x3e837ae0	0.25679684
75	0x3e9439ca	0.2895034
76	0x3e58c8d4	0.2117036
77	0x3e87a6e7	0.26494524
78	0x3decf03a	0.11569257
79	0x3e94a459	0.29031637
80	0x3d1a3197	0.03764495
81	0x3e3476bb	0.17623417
82	0x3e70a586	0.23500642
83	0x3ea48946	0.3213598
84	0x3db46189	0.08807666
85	0x3da00b2f	0.07814633
86	0x3e3fe682	0.18740276
87	0x3b66a49b	0.0035193327
88	0x3e5614b0	0.20906329
89	0x3e9c5f5e	0.3054151
90	0x3df4fcaf	0.11962258
91	0x3ee98572	0.45609623
92	0x3e20512c	0.15655965
93	0x3cc2138f	0.023690967
94	0x3df0a028	0.117492974
95	0x3e8425ef	0.2581019
96	0x3ea56062	0.32300097
97	0x3d4efe8e	0.05053573
98	0x3ea66d92	0.3250547
99	0x3e952ed7	0.29137298
100	0x3e5a712a	0.21332231
101	0x3ed9021d	0.42384425
102	0x3e9c2496	0.30496663
103	0x3d91bb9e	0.07115863
104	0x3dc1d940	0.09465265
105	0x3e801663	0.2501708
106	0x3eaa7db9	0.33299044
107	0x3e9d6778	0.30743003
108	0x3e8c7b3f	0.2743778
109	0x3eb5f7a6	0.35540503
110	0x3d91e125	0.07123021
111	0x3e5d7909	0.21628202
112	0x3e53063e	0.2060785
113	0x3e8f6fad	0.2801489
114	0x3ea6e30a	0.32595092
115	0x3eba5864	0.36395562
116	0x3e25ca52	0.1619046
117	0x3bca53a3	0.006174521
118	0x3de98624	0.114025384
119	0x3e26f197	0.16303097
120	0x3d8926b3	0.066968344
121	0x3e72f0c2	0.23724654
122	0x3e6887d8	0.2270807
123	0x3ea206c0	0.31645775
124	0x3e346c1c	0.17619365
125	0x3e8e5729	0.27800873
126	0x3e9beb95	0.30453172
127	0x3e547580	0.20747948
128	0x3e903593	0.28165874
129	0x3e42c8f3	0.19021969
130	0x3ea38e47	0.31944486
131	0x3e44d4db	0.19221823
132	0x3ef33f69	0.47509316
133	0x3e97319a	0.2953003
134	0x3d5637ba	0.05229924
135	0x3df43e4f	0.11925947
136	0x3e70d6a1	0.23519374
137	0x3e9171bb	0.28407082
138	0x3ea4b20f	0.32167098
139	0x3e8f050d	0.2793354
140	0x3e9b9a3a	0.30391103
141	0x3e8eae37	0.2786729
142	0x3d52a0a9	0.05142275
143	0x3e83f94f	0.25776145
144	0x3cf283d0	0.029603869
145	0x3e263bf1	0.16233803
146	0x3df83b2e	0.12120663
147	0x3e6928e2	0.22769502
148	0xbcadd0c0	-0.021217704
149	0x3e6ec712	0.23318127
150	0x3ea43f62	0.32079607
151	0x3d00488e	0.031319194
152	0x3e63f0c3	0.22259812
153	0x3ebd4118	0.36963725
154	0x3e146958	0.1449331
155	0x3e902faf	0.2816138
156	0x3e08cebb	0.13360111
157	0x3e9b7c7e	0.30368418
158	0x3e8d84e8	0.27640462
159	0x3e78177a	0.24227706
160	0x3e751cac	0.23936719
161	0x3e9b708e	0.3035931
162	0x3d942ab3	0.07234707
163	0x3e2c9f35	0.16857608
164	0x3e9ce9f7	0.3064725
165	0x3ee12c1d	0.43978968
166	0x3e9ffa5f	0.31245705
167	0x3e221c68	0.15831149
168	0x3e4abeee	0.19799396
169	0x3e8d1973	0.2755848
170	0x3e4e03cc	0.20118636
171	0x3e9f4d45	0.3111364
172	0x3e88a890	0.26691103
173	0x3ea0e6c8	0.31426072
174	0x3e4711be	0.19440362
175	0x3ed8b5e3	0.4232627
176	0x3d618886	0.05506184
177	0x3e37362b	0.17891757
178	0x3e6b362f	0.22969888
179	0x3e8a6137	0.27027294
180	0x3e7fb4f3	0.2497137
181	0x3da3d455	0.079994835
182	0x3e4a2835	0.197419
183	0x3e6568ba	0.22403231
184	0x3e9a9233	0.30189666
185	0x3d1afac7	0.037836816
186	0x3e2a0fe4	0.16607624
187	0x3e73c732	0.23806456
188	0x3e9c4879	0.30524042
189	0x3e9943c9	0.29934528
190	0x3e9d153d	0.30680266
191	0x3e949eb7	0.2902734
192	0x3e687c77	0.2270373
193	0x3e688264	0.2270599
194	0x3e82e39c	0.25564277
195	0x3eb104d4	0.34573996
196	0x3d2cc10c	0.04217629
197	0x3e9a466a	0.30131847
198	0x3e70365e	0.2345824
199	0x3eb3ac67	0.3509247
200	0x3e982bc9	0.29720905
201	0x3e94f2bf	0.2909145
202	0x3e8c4552	0.27396637
203	0x3de5b858	0.112168014
204	0x3d477aa1	0.048700932
205	0x3e6e13fe	0.23249814
206	0x3eb24285	0.34816375
207	0x3ddb5b30	0.10710752
208	0x3e445066	0.19171295
209	0x3e627edf	0.2211871
210	0x3e931931	0.28730157
211	0x3d3df6a5	0.046377797
212	0x3e39131f	0.180737
213	0x3e96ee3a	0.29478627
214	0x3dbf4318	0.09338969
215	0x3e5f2570	0.21791625
216	0x3ed87320	0.42275333
217	0x3ea25b90	0.31710482
218	0x3e8a66b1	0.27031472
219	0x3e4f2da4	0.20232254
220	0x3e90bf34	0.28270876
221	0x3e9d1b2b	0.3068479
222	0x3d423e66	0.04742279
223	0x3e1244d9	0.14284076
224	0x3ea23335	0.31679693
225	0x3ee0785e	0.43841833
226	0x3e8a6d3a	0.27036458
227	0x3e3d6cf8	0.184986
228	0x3e26b354	0.16279346
229	0x3e304952	0.1721547
230	0x3ee35583	0.44401178
231	0x3e798042	0.24365333
232	0x3e9d0c22	0.3067332
233	0x3e58765c	0.211389
234	0x3dbacc4b	0.09120997
235	0x3ed769f5	0.42073026
236	0x3ea3a564	0.3196212
237	0x3e56ecb3	0.20988731
238	0x3e93f270	0.28895903
239	0x3e2a2a73	0.16617756
240	0xbd33d90c	-0.043908164
241	0x3e9d7b2f	0.30758044
242	0x3e80d234	0.25160372
243	0x3e84cb01	0.2593613
244	0x3e8ca357	0.27468368
245	0x3e5f8f49	0.21832003
246	0x3eafd9f6	0.34345978
247	0x3e79be18	0.24388921
248	0x3e4d9bad	0.20078917
249	0x3e237a11	0.15964533
250	0x3e584888	0.21121418
251	0xbc138319	-0.009003424
252	0xbd1cefcc	-0.038314626
253	0x3cc2e0e3	0.023788875
254	0x3e63f9d1	0.22263266
255	0x3e17ef92	0.14837483

head.bias f4 [34]
0	0x3eed91b7	0.46400234
1	0xbec627e1	-0.387023
2	0xbebe74e4	-0.37198555
3	0x3ee161be	0.44019884
4	0xbeb34303	-0.35012063
5	0xbeb7fc1d	-0.35934535
6	0xbdec0d94	-0.11526027
7	0xbe2f1540	-0.1709795
8	0x3dfed9f9	0.12443919
9	0x3e07aab0	0.13248706
10	0xbe3e13cf	-0.18562244
11	0xbd8cddff	-0.0687828
12	0x3d9772b6	0.07394926
13	0xbe52e777	-0.2059611
14	0x3cafd1b2	0.021462295
15	0x3d138548	0.03601578
16	0xbd6e8136	-0.058228694
17	0x3de7f6b7	0.11326354
18	0xbe4f4ee7	-0.20244943
19	0xbd8a67c0	-0.0675807
20	0xbe280d0b	-0.16411225
21	0x3e1625e8	0.14662898
22	0x3ddfa74e	0.10920583
23	0xbe256174	-0.16150457
24	0xbd75faa3	-0.06005348
25	0xbe408c77	-0.18803583
26	0xbdee01d3	-0.11621442
27	0xbe1cd9ed	-0.15317507
28	0x3e457b92	0.1928542
29	0xbd843894	-0.06456104
30	0xbdce81d1	-0.10083354
31	0xbe5ff934	-0.21872407
32	0x3e160a7f	0.14652441
33	0xbdd3a15d	-0.10333512
