federated-oracle/heads/WASH_head.pt (torch, 37813 bytes, 2 tensors)

head.weight f4 [35, 256]
0.016511714 0.004978783 -0.042379357 -0.021243904 -0.018406643 -0.01935623 -0.0046418365 -0.056618694
-0.037077144 -0.048274685 0.027470196 -0.049418736 -0.049049024 -0.05645059 -0.05984032 -0.074323736
-0.014174716 0.013136162 -0.018545475 0.03140535 -0.013531757 -0.00036281222 -0.015296636 0.024044072
-0.08184733 -0.05880074 0.039542485 0.04479689 -0.01231975 0.06484733 -0.06314282 -0.032828573
-0.06755609 0.008558172 -0.0027318848 -0.032789696 0.013206438 -0.0036337606 -0.058622688 -0.017074721
-0.08316664 -0.0694429 -0.038675427 -0.048390202 -0.04601394 -0.0055776117 -0.06467574 -0.016389096
-0.04833072 -0.013927164 -0.035476502 0.02377715 -0.02282421 0.012257415 -0.07569721 0.0053056516
-0.057299536 -0.0814843 -0.0559622 -0.063604996 -0.010166322 -0.093910545 0.024889078 0.02062751
-0.03201314 -0.04400905 -0.035209928 -0.0069194273 -0.08655854 -0.09021498 -0.109803356 -0.043496877
-0.050320063 -0.05224417 -0.017268267 -0.023190608 0.027971629 -0.022922868 -0.00956221 -0.05671834
-0.029458165 -0.000800927 -0.08456452 -0.051309243 0.028178507 0.004215284 -0.0072096377 -0.028455898
-0.06839497 -0.006674827 0.047803946 0.017678862 -0.101297036 -0.08290692 0.02800906 -0.053460594
-0.09530935 -0.01288378 -0.010679859 -0.02294072 -0.08196944 -0.06183241 0.007512505 0.016266882
-0.061445188 -0.0493397 -0.08048552 0.0066297846 -0.06880458 -0.023563381 0.0062941033 0.014814107
-0.067532234 0.003422401 -0.059532296 -0.08509471 -0.045058057 -0.034125373 0.026296979 -0.039429966
-0.052391145 -0.028162163 -0.095171034 -0.0885637 0.03627935 -0.045409586 0.017258558 -0.08831765
-0.057626303 -0.020174826 0.03553765 -0.012200028 -0.048595667 0.008233037 0.006786176 -0.03024688
0.0015795979 -0.008773171 -0.1038792 0.0080742175 -0.03750568 -0.0128576 -0.031541612 -0.026347172
-0.04218965 0.03518273 -0.09237369 -0.04358823 -0.00916771 -0.057465583 -0.045859944 -0.01950197
0.0135078635 -0.0712019 -0.041160833 -0.04815708 -0.015132498 -0.027229253 -0.0069305953 -0.025256842
0.053998314 -0.0098959515 0.012714247 -0.005665987 -0.07192539 0.023320647 0.026356654 -0.085545175
0.013769416 0.01854641 -0.039419852 -0.040753894 -0.027391741 0.0382597 -0.07166743 -0.07159673
-0.015966762 -0.088064104 -0.009034528 -0.015912894 0.012044552 -0.06707705 0.0010910312 -0.0141195115
0.009296685 -0.07055233 -0.07554253 -0.0329112 -0.032719295 -0.033120286 -0.013177183 -0.08166153
-0.039250046 -0.025829952 0.02458846 -0.03357569 -0.05015475 -0.05553336 0.0036129334 -0.023698883
-0.007888992 -0.017318994 -0.048828613 0.032229304 -0.006551259 -0.0016215539 0.02715969 -0.04694554
0.0010699122 0.036977317 -0.09174269 -0.07182217 -0.019072428 -0.07054701 -0.011032552 0.024933742
-0.056145504 -0.046739057 -0.052685224 -0.021426257 -0.085278265 0.040505074 -0.0013325353 0.04796542
-0.010572466 0.009852062 -0.088405624 0.028771589 -0.051381808 -0.0025327853 -0.069370516 -0.035352226
0.014329089 -0.103665285 -0.07401062 -0.06331853 -0.026279619 -0.040512025 -0.0055829114 -0.081767984
0.041296102 -0.10010252 -0.055440467 -0.010032741 -0.0005907505 -0.030348301 -0.07155719 -0.025570737
0.024454014 -0.017143259 -0.031411875 0.018125487 -0.06933687 -0.0071820635 -0.030964786 -0.054576475
00000000: 9343 873c 0f25 a33b fa95 2dbd b207 aebc
00000010: 87c9 96bc f590 9ebc 8c1a 98bb 01e9 67bd
00000020: 34de 17bd adbb 45bd 2d09 e13c 4d6b 4abd
00000030: a1e7 48bd bc38 67bd 201b 75bd 0b37 98bd
00000040: 113d 68bc 0f39 573c aeec 97bc e5a2 003d
00000050: 4db4 5dbc d537 beb9 be9e 7abc 13f8 c43c
00000060: 939f a7bd 0bd9 70bd 4df7 213d f27c 373d
00000070: c7d8 49bc adce 843d 0651 81bd 4177 06bd
00000080: d95a 8abd 9337 0c3c 6c09 33bb 7d4e 06bd
00000090: d15f 583c 6324 6ebb 581e 70bd 49e0 8bbc
000000a0: 4553 aabd 1438 8ebd 206a 1ebd ce34 46bd
000000b0: 1d79 3cbd 66c4 b6bb b774 84bd 6d42 86bc
000000c0: 6ff6 45bd c22e 64bc cf4f 11bd 4cc8 c23c
000000d0: d6f9 babc 53d3 483c 2407 9bbd 08db ad3b
000000e0: ebb2 6abd 3ee1 a6bd 9f38 65bd 5643 82bd
000000f0: a590 26bc 2c54 c0bd 2ee4 cb3c 06fb a83c
00000100: 3620 03bd d542 34bd 4938 10bd 5dbc e2bb
00000110: 9b45 b1bd a2c2 b8bd 95e0 e0bd c829 32bd
00000120: 691c 4ebd fcfd 55bd 2e76 8dbc 3bfa bdbc
00000130: c224 e53c bdc8 bbbc d1aa 1cbc 7d51 68bd
00000140: 4052 f1bc 4df5 51ba 2a30 adbd a429 52bd
00000150: 9dd6 e63c 5d20 8a3b d33e ecbb 581c e9bc
00000160: a912 8cbd 82b8 dabb 12ce 433d 43d3 903c
00000170: d274 cfbd 1acb a9bd 4273 e53c 7ff9 5abd
00000180: 8c31 c3bd 7d16 53bc 93fa 2ebc 2dee bbbc
00000190: 98df a7bd fb43 7dbd 762b f63b 2042 853c
000001a0: f3ad 7bbd 6d18 4abd 98d5 a4bd aa3e d93b
000001b0: 6ae9 8cbd fe07 c1bc c43e ce3b deb6 723c
000001c0: 574e 8abd 5c4a 603b 23d8 73bd 2346 aebd
000001d0: cc8e 38bd 0cc7 0bbd c36c d73c 5181 21bd
000001e0: 1998 56bd 56b4 e6bc 08e9 c2bd e360 b5bd
000001f0: a899 143d 67ff 39bd d261 8d3c e2df b4bd
00000200: 8f09 6cbd ad45 a5bc ed8f 113d a0e2 47bc
00000210: 400c 47bd dce3 063c 925e de3b 4ec8 f7bc
00000220: 830a cf3a 59bd 0fbc 9ebe d4bd b949 043c
00000230: 8e9f 19bd afa8 52bc c731 01bd 06d6 d7bc
00000240: 0ecf 2cbd c41b 103d 6b2e bdbd 9289 32bd
00000250: 2a34 16bc 0861 6bbd a3d7 3bbd 98c2 9fbc
00000260: 1650 5d3c 4dd2 91bd 4398 28bd 5c40 45bd
00000270: 4cee 77bc e20f dfbc 0c1a e3bb 70e7 cebc
00000280: 562d 5d3d a122 22bc 6b4f 503c bea9 b9bb
00000290: 9e4d 93bd f10a bf3c e9e9 d73c 4f32 afbd
000002a0: 1e99 613c a4ee 973c b676 21bd 8eed 26bd
000002b0: a564 e0bc 34b6 1c3d 60c6 92bd 4ea1 92bd
000002c0: bacc 82bc f45a b4bd 8f05 14bc c25b 82bc
000002d0: 8356 453c b15f 89bd ef00 8f3a 8655 67bc
000002e0: 2051 183c bd7d 90bd 0bb6 9abd e5cd 06bd
000002f0: ab04 06bd 23a9 07bd 1de5 57bc 293e a7bd
00000300: a8c4 20bd 5699 d3bc bd6d c93c aa86 09bd
00000310: 116f 4dbd f376 63bd f7c6 6c3b 2924 c2bc
00000320: d540 01bc 90e0 8dbc 8300 48bd e002 043d
00000330: f2ab d6bb 528a d4ba 007e de3c f749 40bd
00000340: 4c3c 8c3a 8775 173d 97e3 bbbd 8017 93bd
00000350: c83d 9cbc f37a 90bd e1c1 34bc d941 cc3c
00000360: d4f8 65bd 7471 3fbd 76cc 57bd 1e86 afbc
00000370: 5fa6 aebd a6e8 253d 77a8 aeba 6377 443d
00000380: 2338 2dbc 8b6a 213c 020e b5bd 65b2 eb3c
00000390: bb75 52bd 16fd 25bb 2112 8ebd 7fcd 10bd
000003a0: 8ec4 6a3c 774e d4bd e192 97bd 25ad 81bd
000003b0: 5b48 d7bc f0ef 25bd dbf0 b6bb f975 a7bd
000003c0: 1a26 293d 8d02 cdbd 8b15 63bd 5e60 24bc
000003d0: 98dc 1aba 009d f8bc 938c 92bd b979 d1bc
000003e0: c953 c83c 0570 8cbc bda9 00bd e77b 943c
000003f0: 7d00 8ebd 8457 ebbb dda9 fdbc 958b 5fbd

head.bias f4 [35]
-0.096083775 -0.21460962 -0.12024944 0.19467133 -0.13847022 0.16072504 -0.10614403 -0.14974393
-0.048997823 0.21168853 -0.20434423 -0.19693193 -0.18229558 0.113013975 -0.20503229 -0.510682
-0.15537813 0.10981484 -0.13277337 -0.18295525 0.19943437 -0.08998496 -0.5788508 0.16994478
-0.12568 -0.09018024 -0.13137327 0.13777174 -0.17603596 0.18575151 -0.10925546 -0.18623652
-0.01169821 -0.13950458 0.0733368
00000000: 92c7 c4bd a0c2 5bbe 5745 f6bd ec57 473e
00000010: 23cb 0dbe 1b95 243e 0b62 d9bd 7956 19be
00000020: f1b1 48bd e1c4 583e 9d3f 51be 86a8 49be
00000030: b1ab 3abe df73 e73d fcf3 51be 0ebc 02bf
00000040: 721b 1fbe 9ae6 e03d bef5 07be 9f58 3bbe
00000050: 8638 4c3e 094a b8bd 912f 14bf 0106 2e3e
00000060: 42b2 00be 6bb0 b8bd b786 06be 0914 0d3e
00000070: c542 34be a535 3e3e 54c1 dfbd c9b4 3ebe
00000080: d9a9 3fbc 4ada 0ebe 9b31 963d
